examples/expedition/online/nequip/aqueous/surf22-fixed/init/t0/m1/auto/best_model.pth (torch, 685965 bytes, 54 tensors)

model.func.radial_basis.basis.bessel_weights f4 [8]
000000 e0 0b 53 40 8b 51 c6 40 62 f5 1f 41 c9 31 4c 41
       3.2975998 6.197454 9.997408 12.762155
000010 5d 0b 7c 41 1e 78 97 41 97 1d ae 41 3b a5 cb 41
       15.752774 18.933651 21.764448 25.455679

model.func.chemical_embedding.linear.weight f4 [96]
000000 21 28 94 bc 8c a2 ea bf 3b a8 8a be 4f bb 2d 3e
       -0.018085541 -1.8330855 -0.27081475 0.16965984
000010 9e 3b 6e 3f 3e b7 c9 be e4 b3 7c bf 6e 57 fe 3f
       0.9305972 -0.39397615 -0.9871199 1.9870431
000020 d2 fc c7 be b0 4c 2d c0 d0 a9 00 3e 0e 7c 24 3f
       -0.39060074 -2.7078056 0.12564778 0.6425179
000030 fc 16 28 bf 69 66 06 bf 30 43 73 bf f6 90 bf 3e
       -0.6566007 -0.52500015 -0.95024395 0.37415284
000040 f7 36 ab 3d ac e8 45 3e be 82 5f 3f 69 a5 60 3c
       0.08360093 0.19327039 0.8730887 0.013711312
000050 ed a8 cc bf b3 1e 26 3f 68 c7 17 3c c6 2b 31 3d
       -1.5989052 0.64890593 0.009263851 0.043254636
000060 63 e5 52 3f af dd dd bf af 02 b9 3f 17 ef cd be
       0.82381266 -1.7333277 1.4453944 -0.40221474
000070 4a 3c 1d bf e8 a1 35 bf f8 2e a5 bf 75 29 bd 3f
       -0.6142012 -0.70950174 -1.2904959 1.4778277
000080 e5 6e 78 bf de dd 80 3e 30 4d 8a bf 82 5e 3e 3f
       -0.9704421 0.2516927 -1.0804806 0.7436296
000090 ba 58 38 bf b5 26 97 3f 65 0d b5 3f 7e dc 44 3e
       -0.72010386 1.1808687 1.4144713 0.19224736
0000a0 36 77 15 3f 78 ac b6 3f d1 c8 4e 3f d8 05 a2 be
       0.58385026 1.4271383 0.8077517 -0.31645083
0000b0 6e 43 88 3f 11 22 ee 3f 11 63 0e bf 79 8f af 3e
       1.0645578 1.8604146 -0.55619913 0.34289148
0000c0 97 80 8f be 65 9a 2a 3f 6e 75 8e bf ae 1d b3 3e
       -0.28027794 0.6664184 -1.1129587 0.3498358
0000d0 88 74 69 bf 32 b2 50 bf cc b8 90 bf 59 37 39 bf
       -0.9119344 -0.81521904 -1.1306396 -0.7235008
0000e0 2c 0c e4 3f 55 05 0e c0 f2 0e 0a 3f 6b e7 d6 bf
       1.7816215 -2.2190754 0.53929055 -1.6789373
0000f0 e8 9f 45 3f dc 9b 98 bd 3a 31 5c 3f 90 11 c8 3f
       0.7719712 -0.07451603 0.86012614 1.563036
000100 02 81 5a bf 18 52 45 be 34 6a 8f 3e 14 2f 00 40
       -0.853531 -0.19269598 0.28010714 2.0028734
000110 ed 29 d8 3d 2f a8 1b bf 8c 2a 55 bf ea 26 2a bf
       0.10554872 -0.608035 -0.83268046 -0.6646563
000120 72 53 30 bf 03 82 5e bc 56 00 8e bf 4f d6 9a bf
       -0.6887733 -0.013580802 -1.1093853 -1.2096652
000130 5e 58 25 bf 53 95 75 3f 51 76 a5 bf b8 45 e1 bd
       -0.6458796 0.95930976 -1.2926732 -0.10999626
000140 62 44 97 bf 5d 4a d3 3d 2e 04 eb 3e 11 9c 73 3e
       -1.1817744 0.10316918 0.45901626 0.23790003
000150 39 b1 79 bf 92 77 b7 bf 2d 86 53 3f dd e9 c5 3f
       -0.97536045 -1.4333365 0.8262661 1.5461994
000160 f5 73 a3 be e6 b0 b7 3f 86 ae 70 be a3 62 32 3f
       -0.31924406 1.435086 -0.23504075 0.6968176
000170 a7 e5 c8 3d fc eb 4a 3e 1b 7d ff 3f c9 fc 18 40
       0.09809428 0.19816583 1.9960054 2.3904288

model.func.chemical_embedding.linear.output_mask f4 [32]
000000 00 00 80 3f 00 00 80 3f 00 00 80 3f 00 00 80 3f
       1.0 1.0 1.0 1.0
000010 00 00 80 3f 00 00 80 3f 00 00 80 3f 00 00 80 3f
       1.0 1.0 1.0 1.0
000020 00 00 80 3f 00 00 80 3f 00 00 80 3f 00 00 80 3f
       1.0 1.0 1.0 1.0
000030 00 00 80 3f 00 00 80 3f 00 00 80 3f 00 00 80 3f
       1.0 1.0 1.0 1.0
000040 00 00 80 3f 00 00 80 3f 00 00 80 3f 00 00 80 3f
       1.0 1.0 1.0 1.0
000050 00 00 80 3f 00 00 80 3f 00 00 80 3f 00 00 80 3f
       1.0 1.0 1.0 1.0
000060 00 00 80 3f 00 00 80 3f 00 00 80 3f 00 00 80 3f
       1.0 1.0 1.0 1.0
000070 00 00 80 3f 00 00 80 3f 00 00 80 3f 00 00 80 3f
       1.0 1.0 1.0 1.0

model.func.layer0_convnet.equivariant_nonlin.mul.output_mask f4 [256]
000000 00 00 80 3f 00 00 80 3f 00 00 80 3f 00 00 80 3f
       1.0 1.0 1.0 1.0
000010 00 00 80 3f 00 00 80 3f 00 00 80 3f 00 00 80 3f
       1.0 1.0 1.0 1.0
000020 00 00 80 3f 00 00 80 3f 00 00 80 3f 00 00 80 3f
       1.0 1.0 1.0 1.0
000030 00 00 80 3f 00 00 80 3f 00 00 80 3f 00 00 80 3f
       1.0 1.0 1.0 1.0
000040 00 00 80 3f 00 00 80 3f 00 00 80 3f 00 00 80 3f
       1.0 1.0 1.0 1.0
000050 00 00 80 3f 00 00 80 3f 00 00 80 3f 00 00 80 3f
       1.0 1.0 1.0 1.0
000060 00 00 80 3f 00 00 80 3f 00 00 80 3f 00 00 80 3f
       1.0 1.0 1.0 1.0
000070 00 00 80 3f 00 00 80 3f 00 00 80 3f 00 00 80 3f
       1.0 1.0 1.0 1.0
000080 00 00 80 3f 00 00 80 3f 00 00 80 3f 00 00 80 3f
       1.0 1.0 1.0 1.0
000090 00 00 80 3f 00 00 80 3f 00 00 80 3f 00 00 80 3f
       1.0 1.0 1.0 1.0
0000a0 00 00 80 3f 00 00 80 3f 00 00 80 3f 00 00 80 3f
       1.0 1.0 1.0 1.0
0000b0 00 00 80 3f 00 00 80 3f 00 00 80 3f 00 00 80 3f
       1.0 1.0 1.0 1.0
0000c0 00 00 80 3f 00 00 80 3f 00 00 80 3f 00 00 80 3f
       1.0 1.0 1.0 1.0
0000d0 00 00 80 3f 00 00 80 3f 00 00 80 3f 00 00 80 3f
       1.0 1.0 1.0 1.0
0000e0 00 00 80 3f 00 00 80 3f 00 00 80 3f 00 00 80 3f
       1.0 1.0 1.0 1.0
0000f0 00 00 80 3f 00 00 80 3f 00 00 80 3f 00 00 80 3f
       1.0 1.0 1.0 1.0
000100 00 00 80 3f 00 00 80 3f 00 00 80 3f 00 00 80 3f
       1.0 1.0 1.0 1.0
000110 00 00 80 3f 00 00 80 3f 00 00 80 3f 00 00 80 3f
       1.0 1.0 1.0 1.0
000120 00 00 80 3f 00 00 80 3f 00 00 80 3f 00 00 80 3f
       1.0 1.0 1.0 1.0
000130 00 00 80 3f 00 00 80 3f 00 00 80 3f 00 00 80 3f
       1.0 1.0 1.0 1.0
000140 00 00 80 3f 00 00 80 3f 00 00 80 3f 00 00 80 3f
       1.0 1.0 1.0 1.0
000150 00 00 80 3f 00 00 80 3f 00 00 80 3f 00 00 80 3f
       1.0 1.0 1.0 1.0
000160 00 00 80 3f 00 00 80 3f 00 00 80 3f 00 00 80 3f
       1.0 1.0 1.0 1.0
000170 00 00 80 3f 00 00 80 3f 00 00 80 3f 00 00 80 3f
       1.0 1.0 1.0 1.0
000180 00 00 80 3f 00 00 80 3f 00 00 80 3f 00 00 80 3f
       1.0 1.0 1.0 1.0
000190 00 00 80 3f 00 00 80 3f 00 00 80 3f 00 00 80 3f
       1.0 1.0 1.0 1.0
0001a0 00 00 80 3f 00 00 80 3f 00 00 80 3f 00 00 80 3f
       1.0 1.0 1.0 1.0
0001b0 00 00 80 3f 00 00 80 3f 00 00 80 3f 00 00 80 3f
       1.0 1.0 1.0 1.0
0001c0 00 00 80 3f 00 00 80 3f 00 00 80 3f 00 00 80 3f
       1.0 1.0 1.0 1.0
0001d0 00 00 80 3f 00 00 80 3f 00 00 80 3f 00 00 80 3f
       1.0 1.0 1.0 1.0
0001e0 00 00 80 3f 00 00 80 3f 00 00 80 3f 00 00 80 3f
       1.0 1.0 1.0 1.0
0001f0 00 00 80 3f 00 00 80 3f 00 00 80 3f 00 00 80 3f
       1.0 1.0 1.0 1.0
000200 00 00 80 3f 00 00 80 3f 00 00 80 3f 00 00 80 3f
       1.0 1.0 1.0 1.0
000210 00 00 80 3f 00 00 80 3f 00 00 80 3f 00 00 80 3f
       1.0 1.0 1.0 1.0
000220 00 00 80 3f 00 00 80 3f 00 00 80 3f 00 00 80 3f
       1.0 1.0 1.0 1.0
000230 00 00 80 3f 00 00 80 3f 00 00 80 3f 00 00 80 3f
       1.0 1.0 1.0 1.0
000240 00 00 80 3f 00 00 80 3f 00 00 80 3f 00 00 80 3f
       1.0 1.0 1.0 1.0
000250 00 00 80 3f 00 00 80 3f 00 00 80 3f 00 00 80 3f
       1.0 1.0 1.0 1.0
000260 00 00 80 3f 00 00 80 3f 00 00 80 3f 00 00 80 3f
       1.0 1.0 1.0 1.0
000270 00 00 80 3f 00 00 80 3f 00 00 80 3f 00 00 80 3f
       1.0 1.0 1.0 1.0
000280 00 00 80 3f 00 00 80 3f 00 00 80 3f 00 00 80 3f
       1.0 1.0 1.0 1.0
000290 00 00 80 3f 00 00 80 3f 00 00 80 3f 00 00 80 3f
       1.0 1.0 1.0 1.0
0002a0 00 00 80 3f 00 00 80 3f 00 00 80 3f 00 00 80 3f
       1.0 1.0 1.0 1.0
0002b0 00 00 80 3f 00 00 80 3f 00 00 80 3f 00 00 80 3f
       1.0 1.0 1.0 1.0
0002c0 00 00 80 3f 00 00 80 3f 00 00 80 3f 00 00 80 3f
       1.0 1.0 1.0 1.0
0002d0 00 00 80 3f 00 00 80 3f 00 00 80 3f 00 00 80 3f
       1.0 1.0 1.0 1.0
0002e0 00 00 80 3f 00 00 80 3f 00 00 80 3f 00 00 80 3f
       1.0 1.0 1.0 1.0
0002f0 00 00 80 3f 00 00 80 3f 00 00 80 3f 00 00 80 3f
       1.0 1.0 1.0 1.0
000300 00 00 80 3f 00 00 80 3f 00 00 80 3f 00 00 80 3f
       1.0 1.0 1.0 1.0
000310 00 00 80 3f 00 00 80 3f 00 00 80 3f 00 00 80 3f
       1.0 1.0 1.0 1.0
000320 00 00 80 3f 00 00 80 3f 00 00 80 3f 00 00 80 3f
       1.0 1.0 1.0 1.0
000330 00 00 80 3f 00 00 80 3f 00 00 80 3f 00 00 80 3f
       1.0 1.0 1.0 1.0
000340 00 00 80 3f 00 00 80 3f 00 00 80 3f 00 00 80 3f
       1.0 1.0 1.0 1.0
000350 00 00 80 3f 00 00 80 3f 00 00 80 3f 00 00 80 3f
       1.0 1.0 1.0 1.0
000360 00 00 80 3f 00 00 80 3f 00 00 80 3f 00 00 80 3f
       1.0 1.0 1.0 1.0
000370 00 00 80 3f 00 00 80 3f 00 00 80 3f 00 00 80 3f
       1.0 1.0 1.0 1.0
000380 00 00 80 3f 00 00 80 3f 00 00 80 3f 00 00 80 3f
       1.0 1.0 1.0 1.0
000390 00 00 80 3f 00 00 80 3f 00 00 80 3f 00 00 80 3f
       1.0 1.0 1.0 1.0
0003a0 00 00 80 3f 00 00 80 3f 00 00 80 3f 00 00 80 3f
       1.0 1.0 1.0 1.0
0003b0 00 00 80 3f 00 00 80 3f 00 00 80 3f 00 00 80 3f
       1.0 1.0 1.0 1.0
0003c0 00 00 80 3f 00 00 80 3f 00 00 80 3f 00 00 80 3f
       1.0 1.0 1.0 1.0
0003d0 00 00 80 3f 00 00 80 3f 00 00 80 3f 00 00 80 3f
       1.0 1.0 1.0 1.0
0003e0 00 00 80 3f 00 00 80 3f 00 00 80 3f 00 00 80 3f
       1.0 1.0 1.0 1.0
0003f0 00 00 80 3f 00 00 80 3f 00 00 80 3f 00 00 80 3f
       1.0 1.0 1.0 1.0

model.func.layer0_convnet.conv.linear_1.weight f4 [1024]
000000 4e 0e be 3e 77 d8 07 3f 0f 93 86 be 89 51 12 c0
       0.3712029 0.53064674 -0.26284072 -2.2862265
000010 39 52 e9 be c6 9b 3d bd 8c 69 5d bf 2d b0 37 be
       -0.45570543 -0.046291135 -0.86489177 -0.179383
000020 13 ef 43 3f 7d fa 9c 3f 39 da 8e be ca 6d 04 be
       0.76536673 1.2263943 -0.27900866 -0.12932506
000030 3f a6 36 3e 12 fe 9d 3e 27 8b d5 be 31 ac 7d 3f
       0.17836855 0.30857903 -0.41707727 0.9909087
000040 ff b6 69 bf 5c 51 cc 3d ef 7e 9c 3f 05 47 bb be
       -0.91294855 0.099764556 1.2226237 -0.3657762
000050 31 9d 83 bf eb 40 85 bf ba 43 41 3f 01 cb 34 3f
       -1.0282346 -1.0410436 0.7549397 0.7062226
000060 4d 1b 15 40 09 af e8 bf 97 07 a8 3e 6d 51 ad bf
       2.3297913 -1.8178416 0.3281829 -1.3540474
000070 3a 58 0e 40 c6 01 13 3f 8a ca 7e 3f 02 70 05 be
       2.224135 0.5742458 0.995278 -0.13031009
000080 d6 05 44 40 01 8f 0f be 85 2f ad 3f ba fc a8 3a
       3.0628562 -0.14019395 1.3530127 0.0012892701
000090 21 42 1a bf cf b1 ad 3f c9 8e 9c bf e2 0e 97 3f
       -0.60257155 1.3569888 -1.2231075 1.1801417
0000a0 a0 c5 16 3f da 27 9e 3e dc 7e 77 3d 61 13 6a bf
       0.588953 0.3088978 0.060423717 -0.9143582
0000b0 4a 15 6a bc e6 fd 9f bf a7 1c 41 3f be cb 79 bf
       -0.014287302 -1.2499359 0.75434345 -0.9757651
0000c0 16 8e aa 3f ef 89 0a 3f e9 e3 43 3f fc f0 03 bf
       1.3324611 0.5411672 0.7651964 -0.5153959
0000d0 39 5b 61 3f 50 6e 0c 3f 04 aa 30 40 80 02 7a 3f
       0.8802982 0.54855824 2.760377 0.97660065
0000e0 0e 00 ef 3d 25 ee 6f 3f b0 57 94 bf e8 37 48 bf
       0.11669932 0.93722755 -1.158926 -0.78210306
0000f0 bb 74 58 bf 19 b0 b3 3f b8 dd 48 be c1 ed eb 3e
       -0.84553117 1.4038116 -0.19615829 0.4607983
000100 2e 6b 84 bf c4 b5 97 3f b2 f6 b8 bf fe 88 d8 3e
       -1.0345209 1.1852345 -1.4450285 0.42292017
000110 5a 1b d8 3d 37 ff 3d 3e 57 b4 83 be 90 fe 2c 3c
       0.10552092 0.18554388 -0.25723526 0.010558739
000120 e4 bd a6 3f 7e 3e 12 bf 6d 0e 00 c0 0c 46 b3 be
       1.30267 -0.57126606 -2.0008805 -0.3501438
000130 7a fd 8b 3e 9d b2 2c 40 ae 90 47 3f cd a6 f2 bf
       0.27341825 2.6984017 0.7795514 -1.8957154
000140 0e 9e 2b 3e b9 58 01 3f b8 15 ef 3f 58 92 df bf
       0.16759512 0.50526005 1.8678503 -1.7466536
000150 b1 cd e5 bf 89 5b 12 be b1 c2 4b be 45 fe 6d 3f
       -1.7953397 -0.1429273 -0.19898488 0.9296611
000160 1b a1 76 be cb 85 93 3f fa d6 c6 bc cc c7 a2 be
       -0.24084894 1.1525205 -0.02427243 -0.31793058
000170 98 ec e4 be 35 a2 df 3f b4 22 e8 3f ca 82 3d bf
       -0.44711757 1.7471377 1.813559 -0.74027693
000180 b9 4d cf 3f e8 f5 87 be a4 84 a4 bf 5f db e8 bd
       1.6195594 -0.265548 -1.2852979 -0.11369967
000190 f9 b6 da 3d c5 20 86 bf 5e 28 d5 be 85 72 85 3f
       0.106794305 -1.047875 -0.4163236 1.0425574
0001a0 0f d2 03 40 66 15 9b bf 57 5c aa bf 4d 4f 2f 3f
       2.059696 -1.2115905 -1.330943 0.6848038
0001b0 14 b0 b5 3e fa 77 e8 3f 6e 18 7e 3b 03 02 28 be
       0.354859 1.8161614 0.0038771885 -0.16407017
0001c0 ca 6f d7 bf 9f 24 2d 3e f0 82 23 be 02 e7 3a bf
       -1.683099 0.16908501 -0.15967917 -0.7300874
0001d0 e5 44 69 3f 84 bd ac 3f 50 63 8f 3e 85 13 50 bf
       0.9112075 1.3495336 0.28005457 -0.81279784
0001e0 e5 f4 a6 bf da cc e2 3f c6 f7 02 bf a7 e7 a1 3e
       -1.3043486 1.7718766 -0.5115932 0.3162205
0001f0 71 cf 6f bf a7 ef 6b bf 60 97 91 bd bf d9 31 3e
       -0.93675905 -0.92162555 -0.071089506 0.1736822
000200 18 5e 9e bf ac 3d 22 40 49 40 c5 be 01 7f d6 bc
       -1.2372465 2.5350142 -0.38525608 -0.026183607
000210 59 e9 59 bc 1c 53 a4 bf ac 99 4e 3f 53 75 e1 3e
       -0.013300263 -1.2837863 0.80703235 0.44034824
000220 50 79 2d 3d 4b 75 53 3f d2 07 0b 3f f8 d8 23 3f
       0.04235202 0.8260085 0.5430881 0.64002943
000230 6c c6 5a 40 e1 95 6a 3f 84 24 e0 be 01 e5 22 bf
       3.4183607 0.9163495 -0.4377786 -0.6363068
000240 c4 9a d6 3e ce 6f f6 bf 52 a6 6e 3d 79 8a 5d be
       0.41914952 -1.925287 0.058264084 -0.21634854
000250 f1 25 61 c0 8f 60 1c 3f a5 55 88 3f 8c dc 1c be
       -3.5179408 0.61084837 1.0651137 -0.15318507
000260 8b 87 2b c0 ef cd 15 bf cc 11 9c bf 2b 98 3f 3f
       -2.680148 -0.58517355 -1.2192931 0.74841565
000270 87 01 53 3f 57 6c 01 3e 09 e1 5a 3f 45 d3 87 3f
       0.82424206 0.12638985 0.85499626 1.0611349
000280 83 f0 e4 3f 57 18 14 bf 65 bd 8a 3f 72 e1 b3 be
       1.7885898 -0.5784964 1.0839049 -0.3513294
000290 f1 ac b6 bf 6f c8 d7 bf fc 10 4d bf a8 6e 2e 3f
       -1.4271528 -1.6858042 -0.8010404 0.681376
0002a0 d3 bd ea bf 1c aa 43 bf 2c a7 60 bf bc fd 7b bf
       -1.833918 -0.7643144 -0.87755084 -0.9843404
0002b0 9d 6b d0 be a7 7d e8 bf 8a 39 97 3f 2f 2d 89 be
       -0.40707102 -1.8163346 1.1814435 -0.26792285
0002c0 f5 e2 33 3f 03 24 52 3e f3 87 de 3e 12 27 fe 3d
       0.70268184 0.2052155 0.43463096 0.12409796
0002d0 94 88 6a 3e b3 51 41 bf 7f 23 4b bf c2 ee a0 bf
       0.22903663 -0.7551529 -0.7935104 -1.2572863
0002e0 27 77 e0 be 83 54 0a 40 3c 21 2a bf b5 c1 9a be
       -0.43840906 2.1614082 -0.6645696 -0.30225912
0002f0 e1 e1 1f bf bd b8 c0 bf d6 19 40 3f 50 be 8a be
       -0.6245404 -1.5056378 0.7503942 -0.27098322
000300 b5 73 a2 3d b9 f1 4b bf 2f 26 9a 3e 56 87 aa bf
       0.079322256 -0.79665715 0.30107257 -1.3322551
000310 6b 0c 73 bf 53 33 01 40 96 ba 49 bf ea 96 1c c0
       -0.94940823 2.0187576 -0.7880033 -2.446711
000320 86 56 4c 3e fe 48 fb 3e ee e0 cc 3e e1 a9 fd 3f
       0.19954881 0.49079126 0.40015358 1.9817468
000330 f6 d9 09 be 41 20 a9 bf 5f 7c 40 3f c5 70 c6 be
       -0.13462052 -1.3212968 0.75189775 -0.3875791
000340 10 be e0 bc c3 83 66 3f 35 02 ae bf f2 17 a1 3f
       -0.027434379 0.900448 -1.3594424 1.2585433
000350 07 ec 01 40 38 cd ba bf ed d2 21 bf 09 be 8a 3e
       2.030031 -1.4593878 -0.6321247 0.2709811
000360 a5 1e 4b 3e 91 c2 84 3e 8c 4d ba be 33 14 a4 3e
       0.19835909 0.25929692 -0.3638729 0.3204666
000370 7f c6 08 3d 4e 23 db 3e 87 65 86 3f 15 b7 9a 3f
       0.033392426 0.42800373 1.0499734 1.2087122
000380 51 bd b5 be 07 24 6e be ba 04 e4 be 2a f8 9f be
       -0.35496 -0.23255931 -0.44534856 -0.31244022
000390 c0 b4 29 be b4 e1 84 3f 8d e4 67 be a4 83 41 3f
       -0.16572857 1.0381379 -0.22645779 0.7559149
0003a0 56 1c 74 bf f5 32 60 bf 0e 9e 2d 3f 22 db 7c 3e
       -0.9535574 -0.87577754 0.678193 0.24692968
0003b0 e0 0a 4a 40 79 14 0d 3d 8b 5c 80 bf b9 a1 21 c0
       3.1569138 0.034443352 -1.0028242 -2.5254958
0003c0 3a 1e 79 bf 72 da 9e 3e c6 91 fa bf 70 26 73 3b
       -0.9731175 0.31026036 -1.9575737 0.0037101768
0003d0 4f 34 62 bf 58 04 e5 be 57 0d 91 bf 22 e1 9f 3e
       -0.88361067 -0.44729877 -1.1332196 0.3122645
0003e0 36 9f cc 3f 1f ac 13 c0 3c de cf bf d2 89 c3 3d
       1.5986087 -2.3073804 -1.6239696 0.095477715
0003f0 24 60 6d 3f 23 63 c1 bf 9f cd 8b be 5c 87 a8 bf
       0.92724824 -1.5108379 -0.27305314 -1.3166308

model.func.layer0_convnet.conv.linear_1.output_mask f4 [32]
000000 00 00 80 3f 00 00 80 3f 00 00 80 3f 00 00 80 3f
       1.0 1.0 1.0 1.0
000010 00 00 80 3f 00 00 80 3f 00 00 80 3f 00 00 80 3f
       1.0 1.0 1.0 1.0
000020 00 00 80 3f 00 00 80 3f 00 00 80 3f 00 00 80 3f
       1.0 1.0 1.0 1.0
000030 00 00 80 3f 00 00 80 3f 00 00 80 3f 00 00 80 3f
       1.0 1.0 1.0 1.0
000040 00 00 80 3f 00 00 80 3f 00 00 80 3f 00 00 80 3f
       1.0 1.0 1.0 1.0
000050 00 00 80 3f 00 00 80 3f 00 00 80 3f 00 00 80 3f
       1.0 1.0 1.0 1.0
000060 00 00 80 3f 00 00 80 3f 00 00 80 3f 00 00 80 3f
       1.0 1.0 1.0 1.0
000070 00 00 80 3f 00 00 80 3f 00 00 80 3f 00 00 80 3f
       1.0 1.0 1.0 1.0

model.func.layer0_convnet.conv.fc.layer0.weight f4 [8, 8]
000000 20 3d 75 3f e5 0b de 3c 3c 71 08 3e e5 a8 71 be
       0.95796394 0.027105281 0.13324445 -0.23599584
000010 74 09 72 be 65 07 26 3f 35 0c fb bf 73 e8 40 bf
       -0.23636419 0.64855033 -1.96131 -0.7535469
000020 e5 9e 0d 40 1e c9 d4 3e fc fd 2f 3f 9a 6e a0 3e
       2.2128232 0.4155969 0.68746924 0.31334382
000030 e4 1e 89 3f 13 24 cb be e7 92 f3 be 73 b5 6a be
       1.0712552 -0.3967596 -0.47573015 -0.2292078
000040 c6 28 8e 3e fc 3c ed be 65 16 ef 3f b6 38 8b be
       0.27765483 -0.4633559 1.8678709 -0.27191705
000050 7a 52 91 bf c6 6a 2f be 99 58 90 bf f2 d9 0a bf
       -1.1353295 -0.17130575 -1.1277038 -0.5423881
000060 b7 e4 b8 bf 81 cf bd 3d 8e 43 b7 3f 0f 1b c4 3f
       -1.4444798 0.09268094 1.4317491 1.5320758
000070 00 4b 7c bf 7b 1c 92 3f c4 53 f6 bf 76 a1 9c 3f
       -0.9855194 1.1414942 -1.9244313 1.2236774
000080 56 84 84 3f 55 77 b6 bf e3 12 22 be 0a c1 c0 3e
       1.0352886 -1.4255167 -0.15827517 0.37647277
000090 33 fb 32 bf 96 37 24 bf 85 64 4e be 7d dc 65 3e
       -0.6991455 -0.6414732 -0.20155533 0.22447391
0000a0 4b 85 e6 3f 05 fc 79 3f bd 1d e1 3f 3f 1c 26 3f
       1.8009428 0.97650176 1.75872 0.6488685
0000b0 b5 d2 57 3f d7 bf 90 be e5 2c dc 3f cd d7 d9 3e
       0.8430589 -0.28271362 1.7201201 0.42547455
0000c0 38 08 3b 3f b8 f8 18 3f ff a7 13 bf 46 fe 14 bf
       0.73059416 0.59754515 -0.57678217 -0.5820049
0000d0 fe fc 2b bf 37 af e9 3e ec 00 24 bf 12 3c 6f bf
       -0.6718291 0.4564149 -0.64063907 -0.93451035
0000e0 07 43 d2 3f e9 6d 5d 3f a6 f6 d8 bd 03 42 79 3f
       1.6426705 0.86495835 -0.105939195 0.9736635
0000f0 70 a8 b5 3e e5 9f c5 3f be 5a cf be 86 21 08 3f
       0.3548007 1.5439421 -0.40498918 0.5317615

model.func.layer0_convnet.conv.fc.layer1.weight f4 [8, 96]
000000 fc 6f 58 bf 2f 4a c4 3f c5 d8 11 3e 56 aa 16 3e
       -0.84545875 1.5335139 0.14242847 0.14713416
000010 2b 2a fa bf 0a 81 ee 3f 82 da 93 bd 5f bf 41 bf
       -1.9544119 1.863313 -0.072194114 -0.75682634
000020 68 73 9a 3d 10 ee 2d bf 40 08 3b 40 b7 ca 60 bd
       0.07541543 -0.6794138 2.9223785 -0.054880824
000030 3a fe 12 bf 7b c1 a7 be 2c c3 9f be bb e1 84 bf
       -0.5741917 -0.327648 -0.31203592 -1.0381387
000040 b3 c1 ad 3f a2 76 19 3f 2e 96 f7 be 60 65 68 3d
       1.3574737 0.59946644 -0.48356766 0.056737304
000050 cf 06 87 be 08 5a eb 3e 4c c3 ea 3f 90 4f e3 be
       -0.26372382 0.45967126 1.834085 -0.4439664
000060 f7 33 4d bf f7 35 ff bf 89 5f 0e bf ab d8 a5 3f
       -0.8015742 -1.9938344 -0.55614525 1.2956747
000070 a4 10 6a bf a2 51 cb 3d 9f 25 2d 3f 56 96 41 bf
       -0.9143164 0.099276796 0.6763553 -0.7562002
000080 18 44 58 be 40 8e d3 3d 79 64 87 bf 90 7d 7a 3f
       -0.21119726 0.103298664 -1.0577537 0.97847843
000090 e2 f4 62 bf 64 02 e7 3f 75 b1 72 bf 9f 37 aa bf
       -0.8865491 1.8047605 -0.9480203 -1.3298224
0000a0 58 71 b1 bf 83 a0 b8 bf de ae 8c be 7a 39 4a 40
       -1.3862715 -1.4423984 -0.27477163 3.159758
0000b0 16 9f 14 be 96 be 86 3f 75 d1 b3 3f e7 3d 60 bf
       -0.14513811 1.0526912 1.4048296 -0.87594455
0000c0 a8 ef 9b bf 22 1a c6 bf 73 93 e2 3f 09 9d 61 bf
       -1.2182512 -1.5476725 1.7701248 -0.8813024
0000d0 d6 0a df be 97 72 84 3f f1 d2 82 bf 7e f4 25 c0
       -0.43562955 1.034747 -1.0220624 -2.5930476
0000e0 7a a8 41 bf cf 20 b0 bf bb 19 c1 bf 72 06 63 be
       -0.756477 -1.3760012 -1.5085977 -0.22170427
0000f0 ae 09 3d 40 b1 b6 0d 40 be 03 87 3f 61 5f 0f c0
       2.9537158 2.2142756 1.0548017 -2.2401965
000100 aa f4 cd bf 88 30 0b c0 48 36 13 be dc 7c a5 3f
       -1.609029 -2.174837 -0.14376175 1.2928729
000110 9a 3d d4 bf ba 7c d9 bf 88 e5 26 40 31 4c 92 3f
       -1.6581299 -1.6991189 2.6077595 1.1429502
000120 9f 7c 03 bf 03 c2 c9 3e 9c 84 00 3f b5 97 89 bd
       -0.5136203 0.39405832 0.50202346 -0.06718389
000130 12 05 26 3b dc 42 fd 3f 42 fe eb 3f 58 7b 65 be
       0.0025332612 1.9786029 1.8436968 -0.22410333
000140 39 2e 7b 3f 7e 74 ba bf 55 c3 09 40 df 22 08 bf
       0.98117405 -1.45668 2.1525471 -0.5317821
000150 27 3e 74 40 b1 c1 37 3f 45 5a a8 bf ed 0c 2a 3f
       3.8162935 0.71779925 -1.3152548 0.66425973
000160 ee 3e 9b bf 34 2c 81 bf 7e 14 d7 bf 0b ff 81 3f
       -1.212858 -1.0091615 -1.6803129 1.0155958
000170 47 78 cc bf be 7b 46 bf 17 64 40 be 21 a2 e3 be
       -1.5974206 -0.77532566 -0.18788181 -0.44459632
000180 40 22 42 bf e8 e8 c0 3f 13 5e 4c 3f 43 35 46 3f
       -0.7583351 1.5071077 0.79831046 0.7742502
000190 d6 85 f1 bf c8 6b fc be 73 33 2c 3f 16 5d 54 3f
       -1.8868968 -0.4930098 0.67266005 0.8295454
0001a0 0f e5 15 be 3e 7e 2d 3f 0b ce c9 3e 96 9d 81 bf
       -0.1463816 0.67770755 0.3941501 -1.0126216
0001b0 ec fd 28 3e dc 5f b6 bc fe ad 15 3f 86 ea 9d be
       0.16503114 -0.022262506 0.58468616 -0.3084299
0001c0 fb 7b de be b6 3f be 3e dd 19 30 bf 97 eb d8 be
       -0.43453965 0.37157983 -0.68789464 -0.4236724
0001d0 fd 54 83 bf 97 4f e5 3f 6a cd 0a 40 c2 84 b2 bf
       -1.0260311 1.7914914 2.1687875 -1.3946764
0001e0 35 38 e8 3d 7f 22 e3 be 28 21 9d be 7d 6f 61 be
       0.11338846 -0.44362256 -0.3068936 -0.22015186
0001f0 7a eb b6 3f b3 cc c6 bf 29 77 28 c0 f1 83 ec 3f
       1.4290612 -1.5531219 -2.632273 1.8477765
000200 84 bc 43 3c 7c 91 e7 3f 54 b5 42 3f 61 ec 97 be
       0.011946801 1.8091273 0.76057935 -0.2967253
000210 93 ac f0 3f 96 0c ea 3f dc 47 3d 3d 45 9d 47 bf
       1.8802665 1.8285091 0.04621111 -0.7797435
000220 bf 72 fc bf 83 28 b5 3f 94 f3 8b bf 83 07 06 40
       -1.9722518 1.4152988 -1.0933709 2.0942085
000230 92 de a1 3f ee e3 df be 2b d0 06 bf 0c 01 a4 bf
       1.2646048 -0.43728584 -0.5266139 -1.281282
000240 63 a0 c2 be 09 c9 00 bf bd af a2 3f 15 09 b3 be
       -0.3801299 -0.50306755 1.2709881 -0.34967867
000250 3b fb 3a bf 48 ef f0 be 88 cc e9 be a3 fd ee be
       -0.730396 -0.47057557 -0.45663857 -0.46677884
000260 c5 01 4d c0 ba 31 2f 3d d2 26 ad bd 8b ca 28 bf
       -3.203233 0.042772032 -0.0845467 -0.65934056
000270 60 04 13 3f e8 83 d8 3f 31 35 55 3e 3d 34 b7 3f
       0.5742855 1.6915255 0.20821072 1.4312817
000280 f0 51 48 bd e1 ec 7f bf df 3f b7 3f 18 e4 dc bd
       -0.048906267 -0.99970824 1.4316367 -0.10785693
000290 7c 17 52 3f d7 90 8d bf 42 e5 07 3f aa 6e f9 3f
       0.82067084 -1.1059827 0.53084195 1.9486897
0002a0 db 2d 13 3f 87 19 0f 40 b4 a7 1c 3f 12 d2 c0 3c
       0.57491845 2.235933 0.61193395 0.02353767
0002b0 97 ee f9 be 01 e9 ec bf db 00 8a 3f 14 a3 08 bf
       -0.48814842 -1.8508607 1.0781511 -0.5337384
0002c0 81 e4 fe bf 1c 3e 9e 3d 4f 08 ce 3f 0d a8 72 3e
       -1.9913484 0.0772669 1.6096286 0.23696919
0002d0 b1 5e 3f 3f 73 15 77 3f 31 81 26 c0 b3 5e d4 be
       0.7475386 0.96517104 -2.6016352 -0.414785
0002e0 9f 63 64 bf e7 b0 38 bf e0 0e f6 be 40 43 30 3f
       -0.8921451 -0.7214493 -0.48058224 0.68852615
0002f0 3e e3 2a bf a2 a9 0b c0 d3 04 97 bf 15 0c f2 3f
       -0.66752994 -2.1822286 -1.1798347 1.8909937
000300 7e 8e 0f 3f 17 9a 87 be c2 08 73 bf b1 87 d3 bd
       0.560768 -0.2648475 -0.9493524 -0.103286155
000310 07 1e 86 bf bd aa 0a 3f 5a d0 26 bf 73 bb 04 3f
       -1.0477914 0.54166776 -0.6516167 0.51848525
000320 60 5e 8f 3f e3 48 af bf b1 5b 85 3d 3b 70 a6 3f
       1.1200676 -1.3694118 0.065116294 1.3003
000330 fa db d9 3e 08 52 ce bd 16 4b 09 be ce 3d ca 3f
       0.4255064 -0.1007424 -0.1340755 1.5800111
000340 4d 8e b6 3d d9 91 ce 3f a2 a0 e8 bd 8e 16 0c 40
       0.089138605 1.6138259 -0.11358763 2.1888766
000350 4b f8 97 3f c8 98 eb 3f 66 8f 02 3f 9c ea 0f bd
       1.1872648 1.8406 0.5100006 -0.03513585
000360 fa 13 3b 3e a8 32 85 be 27 0d e6 bf 8e d1 1b 3f
       0.18269339 -0.2601521 -1.7972764 0.6086663
000370 13 0d 9b 3f 02 17 d9 3e e1 64 ad bf eb f1 14 40
       1.2113365 0.42400366 -1.3546411 2.3272655
000380 b7 54 10 be de dc ca 3f 06 10 87 3f ff 74 25 bf
       -0.14094816 1.5848653 1.0551765 -0.64631647
000390 b9 37 c6 3f a1 f1 d5 be 0b d7 cf 3e ae 1f 34 bf
       1.5485755 -0.4178591 0.40593752 -0.7036084
0003a0 e0 6f 20 be 10 b0 ca 3f 7c 4f 36 3f 18 71 40 bf
       -0.15667677 1.583498 0.71215034 -0.7517257
0003b0 a7 2b cc bf 1d 4e 71 3f 28 9d 82 bf 53 d5 e3 3f
       -1.5950822 0.94259816 -1.020421 1.7799476
0003c0 e6 37 a9 be 88 08 11 3e 5d ae 1b 3f 88 79 36 bf
       -0.3305046 0.1416341 0.6081293 -0.7127919
0003d0 81 e1 a5 3f 9b 37 5b 3f e3 51 be 3f 05 fb 77 3f
       1.2959443 0.8563172 1.486874 0.968674
0003e0 6c 0f c8 3f 03 03 82 3f bf 27 f8 3e 32 af 79 be
       1.5629706 1.0157169 0.48467824 -0.24383238
0003f0 35 79 15 bd 46 f6 fb 3e ca 20 08 bf 94 06 c4 3f
       -0.036492545 0.4921133 -0.5317503 1.5314507

model.func.layer0_convnet.conv.tp.output_mask f4 [288]
000000 00 00 80 3f 00 00 80 3f 00 00 80 3f 00 00 80 3f
       1.0 1.0 1.0 1.0
000010 00 00 80 3f 00 00 80 3f 00 00 80 3f 00 00 80 3f
       1.0 1.0 1.0 1.0
000020 00 00 80 3f 00 00 80 3f 00 00 80 3f 00 00 80 3f
       1.0 1.0 1.0 1.0
000030 00 00 80 3f 00 00 80 3f 00 00 80 3f 00 00 80 3f
       1.0 1.0 1.0 1.0
000040 00 00 80 3f 00 00 80 3f 00 00 80 3f 00 00 80 3f
       1.0 1.0 1.0 1.0
000050 00 00 80 3f 00 00 80 3f 00 00 80 3f 00 00 80 3f
       1.0 1.0 1.0 1.0
000060 00 00 80 3f 00 00 80 3f 00 00 80 3f 00 00 80 3f
       1.0 1.0 1.0 1.0
000070 00 00 80 3f 00 00 80 3f 00 00 80 3f 00 00 80 3f
       1.0 1.0 1.0 1.0
000080 00 00 80 3f 00 00 80 3f 00 00 80 3f 00 00 80 3f
       1.0 1.0 1.0 1.0
000090 00 00 80 3f 00 00 80 3f 00 00 80 3f 00 00 80 3f
       1.0 1.0 1.0 1.0
0000a0 00 00 80 3f 00 00 80 3f 00 00 80 3f 00 00 80 3f
       1.0 1.0 1.0 1.0
0000b0 00 00 80 3f 00 00 80 3f 00 00 80 3f 00 00 80 3f
       1.0 1.0 1.0 1.0
0000c0 00 00 80 3f 00 00 80 3f 00 00 80 3f 00 00 80 3f
       1.0 1.0 1.0 1.0
0000d0 00 00 80 3f 00 00 80 3f 00 00 80 3f 00 00 80 3f
       1.0 1.0 1.0 1.0
0000e0 00 00 80 3f 00 00 80 3f 00 00 80 3f 00 00 80 3f
       1.0 1.0 1.0 1.0
0000f0 00 00 80 3f 00 00 80 3f 00 00 80 3f 00 00 80 3f
       1.0 1.0 1.0 1.0
000100 00 00 80 3f 00 00 80 3f 00 00 80 3f 00 00 80 3f
       1.0 1.0 1.0 1.0
000110 00 00 80 3f 00 00 80 3f 00 00 80 3f 00 00 80 3f
       1.0 1.0 1.0 1.0
000120 00 00 80 3f 00 00 80 3f 00 00 80 3f 00 00 80 3f
       1.0 1.0 1.0 1.0
000130 00 00 80 3f 00 00 80 3f 00 00 80 3f 00 00 80 3f
       1.0 1.0 1.0 1.0
000140 00 00 80 3f 00 00 80 3f 00 00 80 3f 00 00 80 3f
       1.0 1.0 1.0 1.0
000150 00 00 80 3f 00 00 80 3f 00 00 80 3f 00 00 80 3f
       1.0 1.0 1.0 1.0
000160 00 00 80 3f 00 00 80 3f 00 00 80 3f 00 00 80 3f
       1.0 1.0 1.0 1.0
000170 00 00 80 3f 00 00 80 3f 00 00 80 3f 00 00 80 3f
       1.0 1.0 1.0 1.0
000180 00 00 80 3f 00 00 80 3f 00 00 80 3f 00 00 80 3f
       1.0 1.0 1.0 1.0
000190 00 00 80 3f 00 00 80 3f 00 00 80 3f 00 00 80 3f
       1.0 1.0 1.0 1.0
0001a0 00 00 80 3f 00 00 80 3f 00 00 80 3f 00 00 80 3f
       1.0 1.0 1.0 1.0
0001b0 00 00 80 3f 00 00 80 3f 00 00 80 3f 00 00 80 3f
       1.0 1.0 1.0 1.0
0001c0 00 00 80 3f 00 00 80 3f 00 00 80 3f 00 00 80 3f
       1.0 1.0 1.0 1.0
0001d0 00 00 80 3f 00 00 80 3f 00 00 80 3f 00 00 80 3f
       1.0 1.0 1.0 1.0
0001e0 00 00 80 3f 00 00 80 3f 00 00 80 3f 00 00 80 3f
       1.0 1.0 1.0 1.0
0001f0 00 00 80 3f 00 00 80 3f 00 00 80 3f 00 00 80 3f
       1.0 1.0 1.0 1.0
000200 00 00 80 3f 00 00 80 3f 00 00 80 3f 00 00 80 3f
       1.0 1.0 1.0 1.0
000210 00 00 80 3f 00 00 80 3f 00 00 80 3f 00 00 80 3f
       1.0 1.0 1.0 1.0
000220 00 00 80 3f 00 00 80 3f 00 00 80 3f 00 00 80 3f
       1.0 1.0 1.0 1.0
000230 00 00 80 3f 00 00 80 3f 00 00 80 3f 00 00 80 3f
       1.0 1.0 1.0 1.0
000240 00 00 80 3f 00 00 80 3f 00 00 80 3f 00 00 80 3f
       1.0 1.0 1.0 1.0
000250 00 00 80 3f 00 00 80 3f 00 00 80 3f 00 00 80 3f
       1.0 1.0 1.0 1.0
000260 00 00 80 3f 00 00 80 3f 00 00 80 3f 00 00 80 3f
       1.0 1.0 1.0 1.0
000270 00 00 80 3f 00 00 80 3f 00 00 80 3f 00 00 80 3f
       1.0 1.0 1.0 1.0
000280 00 00 80 3f 00 00 80 3f 00 00 80 3f 00 00 80 3f
       1.0 1.0 1.0 1.0
000290 00 00 80 3f 00 00 80 3f 00 00 80 3f 00 00 80 3f
       1.0 1.0 1.0 1.0
0002a0 00 00 80 3f 00 00 80 3f 00 00 80 3f 00 00 80 3f
       1.0 1.0 1.0 1.0
0002b0 00 00 80 3f 00 00 80 3f 00 00 80 3f 00 00 80 3f
       1.0 1.0 1.0 1.0
0002c0 00 00 80 3f 00 00 80 3f 00 00 80 3f 00 00 80 3f
       1.0 1.0 1.0 1.0
0002d0 00 00 80 3f 00 00 80 3f 00 00 80 3f 00 00 80 3f
       1.0 1.0 1.0 1.0
0002e0 00 00 80 3f 00 00 80 3f 00 00 80 3f 00 00 80 3f
       1.0 1.0 1.0 1.0
0002f0 00 00 80 3f 00 00 80 3f 00 00 80 3f 00 00 80 3f
       1.0 1.0 1.0 1.0
000300 00 00 80 3f 00 00 80 3f 00 00 80 3f 00 00 80 3f
       1.0 1.0 1.0 1.0
000310 00 00 80 3f 00 00 80 3f 00 00 80 3f 00 00 80 3f
       1.0 1.0 1.0 1.0
000320 00 00 80 3f 00 00 80 3f 00 00 80 3f 00 00 80 3f
       1.0 1.0 1.0 1.0
000330 00 00 80 3f 00 00 80 3f 00 00 80 3f 00 00 80 3f
       1.0 1.0 1.0 1.0
000340 00 00 80 3f 00 00 80 3f 00 00 80 3f 00 00 80 3f
       1.0 1.0 1.0 1.0
000350 00 00 80 3f 00 00 80 3f 00 00 80 3f 00 00 80 3f
       1.0 1.0 1.0 1.0
000360 00 00 80 3f 00 00 80 3f 00 00 80 3f 00 00 80 3f
       1.0 1.0 1.0 1.0
000370 00 00 80 3f 00 00 80 3f 00 00 80 3f 00 00 80 3f
       1.0 1.0 1.0 1.0
000380 00 00 80 3f 00 00 80 3f 00 00 80 3f 00 00 80 3f
       1.0 1.0 1.0 1.0
000390 00 00 80 3f 00 00 80 3f 00 00 80 3f 00 00 80 3f
       1.0 1.0 1.0 1.0
0003a0 00 00 80 3f 00 00 80 3f 00 00 80 3f 00 00 80 3f
       1.0 1.0 1.0 1.0
0003b0 00 00 80 3f 00 00 80 3f 00 00 80 3f 00 00 80 3f
       1.0 1.0 1.0 1.0
0003c0 00 00 80 3f 00 00 80 3f 00 00 80 3f 00 00 80 3f
       1.0 1.0 1.0 1.0
0003d0 00 00 80 3f 00 00 80 3f 00 00 80 3f 00 00 80 3f
       1.0 1.0 1.0 1.0
0003e0 00 00 80 3f 00 00 80 3f 00 00 80 3f 00 00 80 3f
       1.0 1.0 1.0 1.0
0003f0 00 00 80 3f 00 00 80 3f 00 00 80 3f 00 00 80 3f
       1.0 1.0 1.0 1.0

model.func.layer0_convnet.conv.linear_2.weight f4 [5120]
000000 a1 ac d6 3c a2 2a 13 c0 d7 8a 8a be 19 d5 d1 be
       0.026205363 -2.299477 -0.2705905 -0.40982893
000010 6c a3 c1 bf f5 bc 88 bf a4 6c 45 3f 9b b8 ce 3f
       -1.5127997 -1.0682665 0.771189 1.6150087
000020 76 e3 f7 be 75 ab 81 3e 14 fe e3 3e 6d c0 e7 3e
       -0.48415726 0.25326124 0.44529784 0.45263997
000030 51 ea 86 3f 48 fd 89 bf ec 75 9f bf ea 63 0b bf
       1.0540258 -1.078042 -1.2457862 -0.5444933
000040 95 72 2a be 16 36 af 3e 88 d2 50 3f 2c f3 c1 3d
       -0.16645272 0.34220952 0.81571245 0.094702095
000050 50 86 25 3f e0 e3 32 3d df 90 30 3f a5 5b 65 3f
       0.6465807 0.04367435 0.68971056 0.89592963
000060 4d 6d 54 be d7 75 2f 3f 82 58 d6 bf 24 9b 5f be
       -0.2074482 0.68539184 -1.674576 -0.21836525
000070 01 3f ed 3e a1 91 46 bf 88 3c 9c bf cf b4 c3 3f
       0.4633713 -0.7756596 -1.2205973 1.5289553
000080 96 4d c8 bf 7d 76 e9 3e 49 83 c3 3f 22 9f 6c bf
       -1.5648677 0.45598212 1.527444 -0.9243032
000090 c1 d5 73 be 78 f0 8e be 4b be eb 3e d4 82 b8 bf
       -0.2381201 -0.27917838 0.4604362 -1.4414926
0000a0 00 34 02 bf 5c bd 27 3f c2 ec 27 3f 54 17 c3 bf
       -0.50860596 0.65523314 0.6559564 -1.5241494
0000b0 5c c9 8b bf de bf 88 bd 4f 8e 54 3f ba 14 0f 3f
       -1.0920825 -0.06677221 0.83029646 0.55891
0000c0 97 e0 83 be 80 1e bb bd 3e b9 f6 bf 31 8c 53 bf
       -0.25757286 -0.09136677 -1.9275281 -0.8263579
0000d0 2a 68 ea bf 46 bd ae 3e 44 ae 8b 3f 9f b6 1b c0
       -1.8313038 0.3412878 1.0912557 -2.4330213
0000e0 f5 7e b5 3f 87 82 ea be fb be 20 c0 5c b2 96 be
       1.4179369 -0.4580271 -2.5116565 -0.29432952
0000f0 e6 b9 62 bf 82 c3 13 bf 87 4a 04 c0 72 83 dd 3f
       -0.8856491 -0.57720196 -2.0670488 1.7305739
000100 85 21 00 bf 16 4c d7 3f 03 3c a7 3e 75 19 6a bf
       -0.50051147 1.6820095 0.32662973 -0.91445094
000110 9e 26 a2 3f 7a 6d 35 bf e7 8b b6 be 3f ba e0 bf
       1.2668035 -0.7087017 -0.35653612 -1.7556838
000120 1a af ca be d8 30 99 3f e9 b0 59 bf 73 40 86 3f
       -0.39586717 1.1968031 -0.8503557 1.0488418
000130 79 2f 16 bf 12 19 ef bf 01 4b 2d c0 c1 19 d2 3d
       -0.5866619 -1.8679526 -2.7077029 0.102588184
000140 3a 68 0c c0 2f fd cc bf fc 32 98 3e 24 75 27 3f
       -2.1938615 -1.6014766 0.29726398 0.6541312
000150 c4 c7 f9 3d 59 0f 0f bf 5f 42 7e 3f 54 8a 8f be
       0.121963054 -0.55882794 0.99320024 -0.28035223
000160 ee 20 6d 3f dd 4f b5 bf 0d 2b 7a bd 79 43 01 40
       0.9262837 -1.4164997 -0.061076213 2.0197432
000170 df 26 e4 be a9 84 32 bf d2 6a 98 bf 92 e4 01 3d
       -0.44560906 -0.69733673 -1.1907599 0.031712122
000180 0d 51 e8 3e 57 8b a7 bf 8f 52 99 bf 5d 04 89 bd
       0.45374337 -1.3089398 -1.197832 -0.06690285
000190 dc 7a de bf b5 97 36 3f 38 66 4f bf 74 14 76 bf
       -1.7381244 0.71325237 -0.8101535 -0.9612496
0001a0 1b 8a c6 bd c7 6c a8 3f e7 45 06 bf c3 a6 ca 3f
       -0.0969431 1.3158196 -0.5245041 1.5832142
0001b0 70 b6 18 bf 06 a4 df 3e dd e0 e8 be d6 0c 84 bf
       -0.5965338 0.43679827 -0.45484057 -1.0316417
0001c0 e3 4e c4 3e cb f5 08 40 43 11 a5 3e a4 70 0f c0
       0.38341436 2.140002 0.32239732 -2.24125
0001d0 75 74 22 3f 48 49 ec be 58 5f 37 3f 76 89 49 be
       0.6345895 -0.4614966 0.7162986 -0.19681343
0001e0 1e cb d8 3f 2c 21 96 3f fa 43 df 3f 2a 81 c1 3f
       1.6936986 1.1728873 1.744262 1.5117543
0001f0 54 e1 3b 3e 17 47 ef bf 48 c6 af 3e e0 d9 d8 bf
       0.18347675 -1.869357 0.34330964 -1.694149
000200 d5 a1 b1 bf 8b 3f 43 bf 36 f7 74 bf 96 07 0e 3f
       -1.3877512 -0.76268834 -0.95689714 0.55480325
000210 82 99 6d 3f 10 84 2e be 47 0c 05 3f 34 51 7d be
       0.9281236 -0.17042565 0.5197186 -0.24738008
000220 32 aa a5 be 44 32 b6 bf 4a c4 be bd 26 b8 a6 3f
       -0.3235641 -1.423409 -0.09314783 1.3024948
000230 ae 1d 2f bf 2f cd 98 bf 28 0e 5e bf e7 e4 64 3e
       -0.6840466 -1.1937617 -0.8674035 0.22352944
000240 2c 97 9b bf bd bc 84 3f b6 c4 18 bd b7 63 a8 3f
       -1.2155509 1.0370098 -0.037296973 1.315543
000250 b6 e5 dc bf b0 8b 63 3d 3e e4 85 bf 50 1e ad 3f
       -1.7257602 0.05555314 -1.0460279 1.3524876
000260 a3 ea 2f 3f bb 79 00 bf 21 48 6b 3f 21 63 9a bf
       0.687174 -0.50185746 0.91906935 -1.2061502
000270 20 1a 9c bd cb 96 25 3f 78 69 2f 3e 3c cf 93 bf
       -0.076221704 0.64683217 0.17130077 -1.1547618
000280 7b 84 62 bf 7b e4 80 bf e8 03 6a 3f af 0c f3 be
       -0.884834 -1.0069727 0.9141221 -0.47470614
000290 60 d9 eb be 6c 8d 26 3f 98 c7 0b 3e bc 1e e2 bf
       -0.4606428 0.6505954 0.13650358 -1.7665629
0002a0 8d 46 5f bf 87 94 bb be fd 00 7d 3f 02 93 30 40
       -0.87217027 -0.36636755 0.98829633 2.7589726
0002b0 50 40 f6 bc 3e b5 8d bf 5b a7 1b bf 83 04 5c bf
       -0.030059963 -1.1070936 -0.6080224 -0.85944384
0002c0 ec bf 8b 3f 62 f3 20 c0 71 18 75 3e c8 8e 20 bf
       1.0917945 -2.514855 0.23935105 -0.62717867
0002d0 58 f8 d9 3d 7f 7c 29 3f dc 92 a7 bf f6 28 83 bf
       0.10643071 0.6620559 -1.3091693 -1.0246875
0002e0 17 ad 99 bf 00 8d 01 3f 90 a5 8f bf 1b 40 19 40
       -1.2005948 0.50605774 -1.1222401 2.3945377
0002f0 34 e2 12 bf c7 7a 46 c0 60 3b 27 ba d3 90 1e bf
       -0.5737641 -3.1012437 -0.0006379392 -0.61939734
000300 55 0b c7 bf 2e 09 9e 3d 69 f5 a4 3f 5f f4 2f 3f
       -1.5550333 0.07716595 1.2887393 0.68732256
000310 9d 8f ae 3e fc 98 12 bf c5 03 1b 3f e2 1f 22 3e
       0.34093943 -0.57264686 0.60552627 0.15832475
000320 ae 2b 01 40 3e 5f 94 3f fb 69 2a bf 0d 73 af 3f
       2.018291 1.1591566 -0.66567963 1.3706986
000330 d2 d4 b3 3f 3d 86 35 3f 94 9b 07 3e 0a 64 0b be
       1.4049323 0.70907956 0.13242942 -0.1361238
000340 71 b4 a6 3f 0a 2b a2 3e 40 87 59 bf 63 8b 94 3f
       1.3023816 0.3167346 -0.84972 1.1605037
000350 5f de c0 bf 4e 00 d8 bf f8 92 32 bf 60 f7 90 be
       -1.5067862 -1.6875093 -0.69755507 -0.28313732
000360 8f 9a 0b c0 38 1b e3 3e 0a 96 0a 40 e0 72 4c 3f
       -2.1813085 0.44356704 2.1654077 0.79862785
000370 ff 90 c8 bf 71 0f eb be c3 e0 24 3f cf 08 4f 3e
       -1.5669249 -0.45910218 0.6440546 0.20218204
000380 c7 42 60 bf d4 58 55 bf 04 6b 9e be cb 9b f6 3e
       -0.87601894 -0.83338666 -0.3094102 0.48165736
000390 d0 6f 83 3f 10 89 14 bf 24 1e 91 3f b8 5d 02 c0
       1.0268497 -0.5802164 1.1337323 -2.0369701
0003a0 24 50 b6 bf f1 b8 4d bf 4f a0 09 3d a3 61 1b 3f
       -1.4243207 -0.80360323 0.033600148 0.60695857
0003b0 26 ed f4 be 31 5d a7 3f 48 e3 25 bd a3 c9 a5 3e
       -0.4783718 1.3075315 -0.040499955 0.323804
0003c0 fa f8 41 3f e1 5c e5 bd 4f d6 74 bd 45 0e 37 be
       0.75770533 -0.11199356 -0.059774693 -0.17876537
0003d0 54 93 28 3c 4b 81 98 3f 1d f2 bd bf b8 6c d1 bf
       0.010289032 1.1914457 -1.4839512 -1.6361303
0003e0 b1 8c c7 3f dd ba 89 bf 58 9e 84 3f df 35 5e be
       1.5589811 -1.0760151 1.0360823 -0.21700238
0003f0 fb ad 2b bf 72 22 b8 3f 60 2e b8 bf 23 9a 0c 3f
       -0.6706235 1.4385512 -1.4389153 0.54922694

model.func.layer0_convnet.conv.linear_2.output_mask f4 [352]
000000 00 00 80 3f 00 00 80 3f 00 00 80 3f 00 00 80 3f
       1.0 1.0 1.0 1.0
000010 00 00 80 3f 00 00 80 3f 00 00 80 3f 00 00 80 3f
       1.0 1.0 1.0 1.0
000020 00 00 80 3f 00 00 80 3f 00 00 80 3f 00 00 80 3f
       1.0 1.0 1.0 1.0
000030 00 00 80 3f 00 00 80 3f 00 00 80 3f 00 00 80 3f
       1.0 1.0 1.0 1.0
000040 00 00 80 3f 00 00 80 3f 00 00 80 3f 00 00 80 3f
       1.0 1.0 1.0 1.0
000050 00 00 80 3f 00 00 80 3f 00 00 80 3f 00 00 80 3f
       1.0 1.0 1.0 1.0
000060 00 00 80 3f 00 00 80 3f 00 00 80 3f 00 00 80 3f
       1.0 1.0 1.0 1.0
000070 00 00 80 3f 00 00 80 3f 00 00 80 3f 00 00 80 3f
       1.0 1.0 1.0 1.0
000080 00 00 80 3f 00 00 80 3f 00 00 80 3f 00 00 80 3f
       1.0 1.0 1.0 1.0
000090 00 00 80 3f 00 00 80 3f 00 00 80 3f 00 00 80 3f
       1.0 1.0 1.0 1.0
0000a0 00 00 80 3f 00 00 80 3f 00 00 80 3f 00 00 80 3f
       1.0 1.0 1.0 1.0
0000b0 00 00 80 3f 00 00 80 3f 00 00 80 3f 00 00 80 3f
       1.0 1.0 1.0 1.0
0000c0 00 00 80 3f 00 00 80 3f 00 00 80 3f 00 00 80 3f
       1.0 1.0 1.0 1.0
0000d0 00 00 80 3f 00 00 80 3f 00 00 80 3f 00 00 80 3f
       1.0 1.0 1.0 1.0
0000e0 00 00 80 3f 00 00 80 3f 00 00 80 3f 00 00 80 3f
       1.0 1.0 1.0 1.0
0000f0 00 00 80 3f 00 00 80 3f 00 00 80 3f 00 00 80 3f
       1.0 1.0 1.0 1.0
000100 00 00 80 3f 00 00 80 3f 00 00 80 3f 00 00 80 3f
       1.0 1.0 1.0 1.0
000110 00 00 80 3f 00 00 80 3f 00 00 80 3f 00 00 80 3f
       1.0 1.0 1.0 1.0
000120 00 00 80 3f 00 00 80 3f 00 00 80 3f 00 00 80 3f
       1.0 1.0 1.0 1.0
000130 00 00 80 3f 00 00 80 3f 00 00 80 3f 00 00 80 3f
       1.0 1.0 1.0 1.0
000140 00 00 80 3f 00 00 80 3f 00 00 80 3f 00 00 80 3f
       1.0 1.0 1.0 1.0
000150 00 00 80 3f 00 00 80 3f 00 00 80 3f 00 00 80 3f
       1.0 1.0 1.0 1.0
000160 00 00 80 3f 00 00 80 3f 00 00 80 3f 00 00 80 3f
       1.0 1.0 1.0 1.0
000170 00 00 80 3f 00 00 80 3f 00 00 80 3f 00 00 80 3f
       1.0 1.0 1.0 1.0
000180 00 00 80 3f 00 00 80 3f 00 00 80 3f 00 00 80 3f
       1.0 1.0 1.0 1.0
000190 00 00 80 3f 00 00 80 3f 00 00 80 3f 00 00 80 3f
       1.0 1.0 1.0 1.0
0001a0 00 00 80 3f 00 00 80 3f 00 00 80 3f 00 00 80 3f
       1.0 1.0 1.0 1.0
0001b0 00 00 80 3f 00 00 80 3f 00 00 80 3f 00 00 80 3f
       1.0 1.0 1.0 1.0
0001c0 00 00 80 3f 00 00 80 3f 00 00 80 3f 00 00 80 3f
       1.0 1.0 1.0 1.0
0001d0 00 00 80 3f 00 00 80 3f 00 00 80 3f 00 00 80 3f
       1.0 1.0 1.0 1.0
0001e0 00 00 80 3f 00 00 80 3f 00 00 80 3f 00 00 80 3f
       1.0 1.0 1.0 1.0
0001f0 00 00 80 3f 00 00 80 3f 00 00 80 3f 00 00 80 3f
       1.0 1.0 1.0 1.0
000200 00 00 80 3f 00 00 80 3f 00 00 80 3f 00 00 80 3f
       1.0 1.0 1.0 1.0
000210 00 00 80 3f 00 00 80 3f 00 00 80 3f 00 00 80 3f
       1.0 1.0 1.0 1.0
000220 00 00 80 3f 00 00 80 3f 00 00 80 3f 00 00 80 3f
       1.0 1.0 1.0 1.0
000230 00 00 80 3f 00 00 80 3f 00 00 80 3f 00 00 80 3f
       1.0 1.0 1.0 1.0
000240 00 00 80 3f 00 00 80 3f 00 00 80 3f 00 00 80 3f
       1.0 1.0 1.0 1.0
000250 00 00 80 3f 00 00 80 3f 00 00 80 3f 00 00 80 3f
       1.0 1.0 1.0 1.0
000260 00 00 80 3f 00 00 80 3f 00 00 80 3f 00 00 80 3f
       1.0 1.0 1.0 1.0
000270 00 00 80 3f 00 00 80 3f 00 00 80 3f 00 00 80 3f
       1.0 1.0 1.0 1.0
000280 00 00 80 3f 00 00 80 3f 00 00 80 3f 00 00 80 3f
       1.0 1.0 1.0 1.0
000290 00 00 80 3f 00 00 80 3f 00 00 80 3f 00 00 80 3f
       1.0 1.0 1.0 1.0
0002a0 00 00 80 3f 00 00 80 3f 00 00 80 3f 00 00 80 3f
       1.0 1.0 1.0 1.0
0002b0 00 00 80 3f 00 00 80 3f 00 00 80 3f 00 00 80 3f
       1.0 1.0 1.0 1.0
0002c0 00 00 80 3f 00 00 80 3f 00 00 80 3f 00 00 80 3f
       1.0 1.0 1.0 1.0
0002d0 00 00 80 3f 00 00 80 3f 00 00 80 3f 00 00 80 3f
       1.0 1.0 1.0 1.0
0002e0 00 00 80 3f 00 00 80 3f 00 00 80 3f 00 00 80 3f
       1.0 1.0 1.0 1.0
0002f0 00 00 80 3f 00 00 80 3f 00 00 80 3f 00 00 80 3f
       1.0 1.0 1.0 1.0
000300 00 00 80 3f 00 00 80 3f 00 00 80 3f 00 00 80 3f
       1.0 1.0 1.0 1.0
000310 00 00 80 3f 00 00 80 3f 00 00 80 3f 00 00 80 3f
       1.0 1.0 1.0 1.0
000320 00 00 80 3f 00 00 80 3f 00 00 80 3f 00 00 80 3f
       1.0 1.0 1.0 1.0
000330 00 00 80 3f 00 00 80 3f 00 00 80 3f 00 00 80 3f
       1.0 1.0 1.0 1.0
000340 00 00 80 3f 00 00 80 3f 00 00 80 3f 00 00 80 3f
       1.0 1.0 1.0 1.0
000350 00 00 80 3f 00 00 80 3f 00 00 80 3f 00 00 80 3f
       1.0 1.0 1.0 1.0
000360 00 00 80 3f 00 00 80 3f 00 00 80 3f 00 00 80 3f
       1.0 1.0 1.0 1.0
000370 00 00 80 3f 00 00 80 3f 00 00 80 3f 00 00 80 3f
       1.0 1.0 1.0 1.0
000380 00 00 80 3f 00 00 80 3f 00 00 80 3f 00 00 80 3f
       1.0 1.0 1.0 1.0
000390 00 00 80 3f 00 00 80 3f 00 00 80 3f 00 00 80 3f
       1.0 1.0 1.0 1.0
0003a0 00 00 80 3f 00 00 80 3f 00 00 80 3f 00 00 80 3f
       1.0 1.0 1.0 1.0
0003b0 00 00 80 3f 00 00 80 3f 00 00 80 3f 00 00 80 3f
       1.0 1.0 1.0 1.0
0003c0 00 00 80 3f 00 00 80 3f 00 00 80 3f 00 00 80 3f
       1.0 1.0 1.0 1.0
0003d0 00 00 80 3f 00 00 80 3f 00 00 80 3f 00 00 80 3f
       1.0 1.0 1.0 1.0
0003e0 00 00 80 3f 00 00 80 3f 00 00 80 3f 00 00 80 3f
       1.0 1.0 1.0 1.0
0003f0 00 00 80 3f 00 00 80 3f 00 00 80 3f 00 00 80 3f
       1.0 1.0 1.0 1.0

model.func.layer0_convnet.conv.sc.weight f4 [9216]
000000 4c 4b 39 be 7c fb 76 bf 77 b6 ae 3e f3 0b 06 3e
       -0.1809513 -0.96477485 0.34123585 0.13090496
000010 e2 d8 17 bf b0 f0 10 bb 99 c6 5d 3f 3a 2c b3 3f
       -0.5931531 -0.0022116117 0.8663116 1.3997872
000020 8e ce 4d 3f cb d3 0d bf 1a 69 ba 3f c5 99 3b 3f
       0.803933 -0.55401295 1.4563324 0.7328151
000030 0b e1 1f 3f 6c 15 0a 3f aa b7 9a 3f 10 9f 16 3f
       0.62452763 0.5393894 1.20873 0.5883646
000040 a1 9b 63 3e 0f b4 2f 3e 6d 79 d1 bf 53 ad e3 be
       0.22227336 0.1715853 -1.6365181 -0.44468173
000050 ee 81 68 3f ec d0 09 3f 06 3f fb bf 39 99 e0 bf
       0.90823257 0.53834414 -1.9628608 -1.754676
000060 ec 7a e7 be 1c 1a 7a be df 42 8b 3f 83 1d 8a 3d
       -0.4521097 -0.24424022 1.0879782 0.0674391
000070 db b0 13 3f 88 d3 af bf 53 55 1a 3f 1b 84 bb 3f
       0.57691735 -1.3736429 0.60286444 1.464969
000080 8f 30 65 3f 5d 51 09 c0 37 86 2b bf 4a fd 2a bf
       0.8952722 -2.145591 -0.6700167 -0.6679274
000090 0f e3 75 bf a8 bd 19 40 c7 a7 ae 3e 94 ba 9a be
       -0.9604959 2.4022007 0.3411238 -0.30220473
0000a0 ca c5 ae 3c 65 25 83 3f 8d a1 24 3f 8f e5 a9 3d
       0.021334548 1.0245787 0.64309007 0.08295738
0000b0 af e8 8c bf 66 e9 1e be a2 c2 15 3f 73 65 58 be
       -1.1008509 -0.15518722 0.5850011 -0.2113245
0000c0 8c 8c a8 3f d9 02 c4 3f 1e 98 ed be 2b bc 41 3d
       1.3167892 1.5313369 -0.4640512 0.04729859
0000d0 cb 3d 52 bf ec 77 50 bb 8e ec d1 be ce 54 8b 3f
       -0.8212554 -0.003180976 -0.4100079 1.0885255
0000e0 69 53 26 40 75 42 56 be 04 32 19 3f 7d 90 7a bf
       2.598841 -0.20923789 0.5984194 -0.9787672
0000f0 69 2b e1 bc 12 a7 95 bf 0e 4b ba be 07 8e 90 be
       -0.02748652 -1.1691611 -0.36385387 -0.28233358
000100 89 cc 13 c0 74 46 50 3f cf 56 02 bd 5c 89 f7 3e
       -2.3093588 0.813575 -0.03182107 0.48346984
000110 62 bb 67 be 0e 4f ca bd ef c6 2c bf ae 79 0e bf
       -0.22630075 -0.0987836 -0.6749105 -0.5565442
000120 07 fc 44 be 97 b6 62 bf fe 48 b1 3f f9 b4 61 be
       -0.19236766 -0.8855986 1.38504 -0.22041692
000130 d5 7c ba bd 01 4e a5 bf d4 04 0a 3f eb 7d 9e 3d
       -0.09105841 -1.291443 0.5391362 0.07738861
000140 75 3e 2c bd 9d 0f e6 bf 07 f6 26 3f e4 c5 1e bc
       -0.04205175 -1.7973515 0.6521916 -0.0096907355
000150 bf 0d c7 3f 51 8c 4f c0 cd 68 8e be 0c da ed bf
       1.555107 -3.2429392 -0.27814332 -1.8582168
000160 6e dd ac 3f 87 8c e7 bf e9 5b e6 be d6 1c 4e be
       1.3505075 -1.808976 -0.44991997 -0.20128188
000170 c5 dc da bf 68 5b 8b bd ea 38 95 3f da 24 8f bf
       -1.7098624 -0.06804544 1.1657994 -1.1183121
000180 b6 86 1b 3f ea 77 e9 be 66 77 02 3f 07 93 23 40
       0.6075243 -0.455993 0.5096344 2.5558488
000190 1d b5 be 3f 99 3d 14 3f 91 cc 02 bf de 98 28 c0
       1.4899021 0.5790649 -0.51093394 -2.6343303
0001a0 69 e7 80 bd 51 4f 5c bf a6 7c 28 3f d6 94 8a 3f
       -0.06294138 -0.8605853 0.658152 1.0826671
0001b0 61 7b 2a bf f5 b0 de 3f a9 b5 62 bf f5 6f 73 bf
       -0.6659451 1.7397753 -0.8855844 -0.9509271
0001c0 76 75 aa bf 82 06 e1 be 8b 4e 0a c0 9f 00 c9 3f
       -1.3317096 -0.43950278 -2.161044 1.5703315
0001d0 73 a0 9e bf 6c 6f 44 be be 16 5b be 06 cf ba 3e
       -1.2392715 -0.19183129 -0.21395394 0.3648607
0001e0 b1 2b bb bd ed 60 ae 3f 7b 84 db bf 9f d8 50 be
       -0.09139193 1.3623329 -1.7149805 -0.20395134
0001f0 1f 6b ea 3f 94 9b 3a 3f 18 eb 99 3e c7 aa 90 3e
       1.8313941 0.72893643 0.30062175 0.28255293
000200 9b b7 f0 bf 5b c2 31 3e 46 84 ce 3e 99 b6 54 c0
       -1.8806032 0.17359297 0.40335292 -3.3236449
000210 f2 d3 f4 3e 0e 35 52 3d dd f2 63 3e 7a f0 58 3f
       0.4781795 0.05132013 0.22260614 0.8474194
000220 21 f8 d7 bf 95 61 dc bf c9 31 0e be 17 02 71 40
       -1.6872598 -1.721728 -0.13886179 3.7657526
000230 d5 d5 b2 3f 6b 1f 71 3c 36 ed 4b 3f 6b 01 09 bf
       1.3971506 0.014716963 0.7965883 -0.5351779
000240 a2 5d 85 3e 09 7e e0 3f e8 56 b6 bf f8 35 04 40
       0.26048 1.7538463 -1.4245272 2.065794
000250 89 42 cb be 7e 14 4b 3e d7 8a fc 3d 07 a4 1f 40
       -0.396992 0.19832036 0.12331169 2.4943864
000260 e6 93 42 bf 03 ff e1 3f 34 cd 49 3f 19 33 ac bf
       -0.76006925 1.7655948 0.7882874 -1.3453094
000270 6b bc ca 3f bb 98 6a bf 6f ea bb be af c5 00 40
       1.5838751 -0.916393 -0.36702296 2.0120656
000280 e7 cf 32 3f 61 19 b0 3f 53 ca d1 3e 4d 9d 0c 40
       0.69848484 1.3757745 0.40974674 2.1971009
000290 bb 21 17 3f a0 28 5f bf 0d a0 2b 3f de 13 9b bf
       0.59035844 -0.87171364 0.67041093 -1.2115438
0002a0 c6 a6 8f bf 3d 7f de 3f 51 ea 21 bf bb 04 e3 3e
       -1.122277 1.738258 -0.63248163 0.44339547
0002b0 c2 6f f4 bf 2e 44 ad be b8 d5 c0 3f c6 90 28 c0
       -1.9096606 -0.3384108 1.5065222 -2.6338363
0002c0 49 b0 29 3f da e1 14 bf d7 d8 18 bf 8c 80 52 bf
       0.66284615 -0.5815712 -0.5970587 -0.82227397
0002d0 95 3b a1 bf 4e e8 db 3e 58 79 c7 c0 4f 5f 99 bf
       -1.2596308 0.42950672 -6.2335625 -1.1982211
0002e0 c7 e5 0a 40 b9 11 92 bf 36 7e c9 bf 30 1e 9e 3e
       2.1702745 -1.1411659 -1.5741642 0.30882406
0002f0 29 fc 86 bf 0e 72 81 3f 61 c1 98 bf 6e 73 97 bf
       -1.0545703 1.0112932 -1.1934015 -1.1832101
000300 1a 43 72 3f c4 18 8d 3e c3 8a d5 3e f2 e6 f2 be
       0.9463364 0.27557957 0.4170743 -0.47441822
000310 33 de 08 bf de 77 07 3e 51 96 2e be 4f 88 cd 3f
       -0.5346405 0.1322932 -0.17049529 1.6057223
000320 d3 d9 08 c0 ed 39 3b 3f 60 c1 b3 bf cc 5b 16 bf
       -2.138295 0.7313526 -1.4043388 -0.5873382
000330 98 03 8e 3e 49 5f 64 bf e1 7e 2c 3d e6 3b 76 bf
       0.27737117 -0.89207894 0.04211319 -0.9618515
000340 33 d2 cd 3d 7e 8f 37 3f 63 1e bd 3f 75 06 05 bf
       0.10049858 0.71703327 1.4774898 -0.5196298
000350 ae c6 80 bf 83 c6 6b 3e 8a 83 e2 be 28 b6 e0 3d
       -1.0060632 0.23024945 -0.4424098 0.109722435
000360 55 9a a7 be 92 7e 15 3f 1e f3 bf 3d 77 db a6 be
       -0.32734933 0.58396256 0.09372543 -0.32589313
000370 8e 44 2f bf ae dc 4e be 34 aa ac 3e 53 f7 53 bf
       -0.6846398 -0.2020137 0.33723605 -0.8279926
000380 89 a9 25 3f 4c ec 33 3e 83 5c b0 3e 66 bd d1 bf
       0.64711815 0.17570609 0.3444558 -1.6385925
000390 60 e3 2e bf b9 c6 93 bf fd ea bb 3f bb da c9 3e
       -0.68315697 -1.154502 1.4681088 0.3942469
0003a0 e6 94 ff 3e 9a db 55 3f e2 3b 54 3e 91 dc 97 bf
       0.49918288 0.8353821 0.20725968 -1.1864187
0003b0 3b 75 21 3f 2f c0 64 bd f5 6a ab 3e e9 4e e9 bf
       0.63069504 -0.055847343 0.3348004 -1.8227206
0003c0 a0 ad 35 3f f0 8e b9 bd a9 5d cc 3e 42 fa bd 3f
       0.70968056 -0.09060466 0.39915207 1.4841998
0003d0 0a 66 ac bf ff 8e 02 3f 25 d5 1d bf b8 34 e0 3e
       -1.346864 0.50999445 -0.6165336 0.4379022
0003e0 ac f3 48 3e 52 30 82 bf 77 22 d5 bf 2b 9e 10 3f
       0.19624203 -1.0170996 -1.6651143 0.56491345
0003f0 fb 36 9e 3f 85 d1 a4 bf ee fd a6 3f f8 e9 04 bd
       1.2360529 -1.287644 1.3046243 -0.032449692
