examples/potential/trainer/eann/m0/eann_latest_py_DOUBLE.pt (torch, 539675 bytes, 24 tensors)

rshift f8 [1, 8]
00000000: 3d9e c0f1 00a2 e13f 24fc b141 b131 f13f
00000010: e545 6db5 c405 f63f a32d ea93 4238 0140
00000020: 145c d82f 564c 0740 4434 0b8a 7e86 1040
00000030: 13cf b27a 1a0a 1440 6f18 4967 4304 1740
0.5510258409239622 1.0746319357128948 1.3764082991586915 2.152470737060598 2.9122737634566054 4.131342083867882 5.009866635478619 5.754163373791115

eta f8 [1, 8]
00000000: c8e7 2106 f7ad f23f d4e9 89e7 4b31 fa3f
00000010: 2903 5832 6253 0240 61d9 6ad5 d5c8 0040
00000020: 5108 beef 3e97 f73f b27d 3529 8dd2 f53f
00000030: 5991 7e41 5155 f63f 00c8 dfc6 9811 f73f
1.1674719085262826 1.6370352787476934 2.290714639006542 2.0980641053421754 1.4744252552923351 1.363904152843912 1.3958294447303017 1.4417960899850186

params f8 [1, 8]
00000000: 3bf0 7afb 2398 e53f f831 a864 b478 df3f
00000010: f43a 1550 6f83 d53f fe01 9c22 c31c d03f
00000020: e7b8 6ad7 0f8f c93f 6134 2960 5093 c83f
00000030: 47f3 a692 c3d2 c43f e2ca ff3c 52ef c1bf
0.6748218452189642 0.4917422278383863 0.33614714451407157 0.25175550823044535 0.19967840212252172 0.19199566550597338 0.16268200550794118 -0.14011600473857927

hyper f8 [1, 4, 8, 64]
00000000: 8a81 a345 aef2 ee3f eb86 d377 3ece eebf
00000010: d78c 57e3 b652 e73f 2bfb 1db8 7907 cd3f
00000020: fd18 107a 87b2 de3f 4b22 567f 02a3 e83f
00000030: 6c5e dd6d 1594 e6bf 9053 25ae aa25 e73f
00000040: 1957 cbbb 26ff d93f 618e 37d4 68a8 e8bf
00000050: dbe3 87c3 6ba2 e7bf 84c4 e032 ec91 e9bf
00000060: 722d ea48 a04a ddbf a69a 1445 de66 f2bf
00000070: 1fde dbf7 2742 dabf 5032 ff81 2c03 f03f
00000080: c880 7466 4e18 e7bf 7ce7 7b6f 7427 eebf
00000090: b34e 8805 452c eabf f7fd 2e50 69fb ee3f
000000a0: 8931 b840 99b0 d5bf efae 17be 14a8 ef3f
000000b0: 2fdd 510a c2d1 e23f 7c00 a7b4 60bf eb3f
000000c0: 6820 1428 c4fd ecbf 76df 8729 1e30 ed3f
000000d0: a080 6e4b 1c09 e9bf 6dd0 748f 406d ec3f
000000e0: 7842 9b1e 942e e33f 7f2a 09e3 151e f13f
000000f0: b6c3 2526 9e92 e93f d4bc 9b73 e39b e93f
00000100: 0c0b b41b f274 c63f 7299 f4d1 0932 e3bf
00000110: d936 acd4 859e eebf 6489 81f0 6402 ea3f
00000120: 8a6d f7a9 b7f8 eabf 196a eae5 cc77 e03f
00000130: c7ec c4b1 4ada ee3f a6b6 372b e90f e4bf
00000140: 869d be18 fe5c ecbf f946 0923 4aec de3f
00000150: e7e9 09a1 5df2 f03f 688b 3c09 8b6a efbf
00000160: f4ce 0a2d e9f5 e63f 31be 08ac b20f e53f
00000170: c022 26ee 8b6e dcbf 954a b055 261a e53f
00000180: 8394 6677 5577 ee3f 001a 1684 5ad5 e2bf
00000190: 17a4 1d1a d0d4 e73f 9319 fab1 6b24 ebbf
000001a0: 1587 9ac4 a801 e7bf 9b1d 9a73 1342 e83f
000001b0: c794 bf22 c053 ea3f 5922 a2b8 bb67 e7bf
000001c0: 64a5 800e 1b3a e3bf 57d4 8d78 37bd d7bf
000001d0: 68ea fdbf b280 e83f a7b5 5828 ef7b e53f
000001e0: 15b7 be5e 2e91 ee3f c60d c1fd 556c df3f
000001f0: 4013 44a1 5c61 e73f e9d0 dc21 fd57 e83f
00000200: d356 9d73 cf55 e53f 1081 375f ec04 eebf
00000210: 3a43 7afb 5ee8 e63f a92d 3e5a da7d c13f
00000220: ff6e 62ac d322 dd3f 6ba5 6e3f b3b6 e33f
00000230: 7d2c 4024 583d e8bf f726 7f64 cc77 e03f
00000240: eb10 947a fea4 da3f e319 1843 8278 e5bf
00000250: edef def3 f0ae ecbf d8d4 4391 3616 e7bf
00000260: ed16 1eb7 555e c7bf 92e3 8844 c4e8 e4bf
00000270: 3232 ef45 c48f d3bf 327d 2ebc d0da eb3f
00000280: 8d9d 3efe 2257 e2bf d3f0 248b f303 e4bf
00000290: ed23 c1d4 da7d ebbf aed6 44ac 551f e23f
000002a0: 0a90 66ec 6653 ddbf a509 9061 3d31 e23f
000002b0: 6a26 4b0d 960e e83f 9b68 09a6 964a e63f
000002c0: ac89 e3c8 bcf3 e1bf 3ec1 4671 13ed e13f
000002d0: b22c 5355 01ae e4bf 4213 a68a a6c6 eb3f
000002e0: f792 d03b d8b2 e03f 589e 6121 647b e83f
000002f0: f15c a127 de9f e43f a935 3b91 12d9 f13f
00000300: f985 539d 1148 c9bf ceaa def7 929c d8bf
00000310: 129a cb0a 775a e3bf e969 19cd ccb1 e33f
00000320: 8efd 0b99 f590 d9bf 0eb3 2a09 1524 de3f
00000330: 2563 d2fe ac00 e23f 68a7 fc0a dc26 e4bf
00000340: ff6b c1a3 3ed3 eabf c45a 0857 2c85 cc3f
00000350: 51f8 6735 d62f ea3f bb74 ed12 509f e3bf
00000360: a36b 9c9a bb1a ec3f 4fe3 c3e1 98da d53f
00000370: 5008 d9be ab16 ddbf 0c0d aced 3e2f e13f
00000380: aaef f458 551f e43f 7942 4797 4d81 ddbf
00000390: d29b 1aa8 7d75 e23f 5948 ea70 d76c dabf
000003a0: 5b9a 2221 faea e3bf 659f 3ed0 fd5c dd3f
000003b0: 4eef 1708 4827 ec3f ef12 d570 ca70 e4bf
000003c0: 0266 2bad 2570 e9bf 8d6b 1337 0790 dbbf
000003d0: 5131 6f23 3775 dc3f 277a 16dc add3 e53f
000003e0: d414 5721 2969 e33f f48c b6af b3f8 d93f
000003f0: fc94 27db f013 e53f 7064 2636 336d e03f
00000400: ee19 c2fa 6c56 d93f 40f4 f006 062b e1bf
00000410: ef7c 7c82 e047 e73f 9774 8d8a 4939 97bf
00000420: 7289 304d 6a62 d13f 7870 2f57 7c3b da3f
00000430: de0c f1f1 dd33 e2bf a95c 0136 66c1 e53f
00000440: ac71 f644 ddc5 d73f aef6 1937 8b06 c1bf
00000450: 09f7 10a3 f3d7 ddbf 46d3 a10b dee2 e5bf
00000460: 3827 86cd 0773 bebf dced 7ce5 5501 e3bf
00000470: 84f1 0920 8e7e d3bf a6f5 0f97 fa25 de3f
00000480: 5086 2f89 2148 e1bf 766f 6882 b587 e1bf
00000490: 6524 0c1f 9021 e1bf 9dbd 9883 b2af e13f
000004a0: a06a 1a53 2c9c c8bf fab3 e2a5 e797 e23f
000004b0: 5ccf 48d2 45e3 e53f a998 a690 2151 e43f
000004c0: 1ee1 2d2d a811 d9bf 15d8 a66b 2ff0 c83f
000004d0: a2fa 0cd4 9be3 e3bf 44f4 75a9 f3d5 e03f
000004e0: 675e 00e4 4112 d53f 1a89 7abe ead1 e43f
000004f0: 3f10 e05f 13fe d23f cb00 0304 779a df3f
00000500: 785a b3a3 b24e c73f 2bbc c3ce b2c4 c8bf
00000510: 250a 70c1 7457 e0bf 578e 3168 85ba e13f
00000520: 881c 2927 8131 c4bf 7d37 0833 6e8f e13f
00000530: 0490 2262 69b6 d83f 20d2 f62c f2b7 e2bf
00000540: 956c de18 1092 e2bf c586 c030 ff02 d73f
00000550: 177c c0e8 2817 e43f f9ab 08e7 e4a5 e0bf
00000560: a3da 22c0 a96f e33f 34bb abf9 199f d73f
00000570: 69c4 cd56 8ce8 a83f 6482 6ec4 6141 db3f
00000580: e475 5aba 5706 e03f 2adb cfd3 2498 e2bf
00000590: 4bf3 6c37 7e32 e73f 8214 90c4 c4f8 bebf
000005a0: 0360 cb9c 710c e3bf e7bd 5d6c 66c9 d03f
000005b0: ad3f 3c2b cbb2 e53f 14b4 d91f c92a debf
000005c0: 6238 6b44 ee42 d5bf f8ae 887c 3181 cbbf
000005d0: 15b7 fdfc 91ca df3f 17a7 0145 b5c6 e43f
000005e0: 4952 1380 6e3b ca3f 6d1f 9ec6 0980 d23f
000005f0: e635 7685 1f24 d23f 63fc 6d09 1e6b d33f
00000600: 10aa 12b2 2478 97bf 8e3d 4726 ca10 96bf
00000610: 5b70 affa 87d6 b93f 4244 bc4a 50ba 9cbf
00000620: a256 e56d bee7 a6bf 818e 3649 e33e 2cbf
00000630: b3e8 6835 4cc8 b6bf edd8 21a0 2aec 883f
00000640: 89d6 5a8e a12b abbf 2ed4 8fdc b96b e53f
00000650: 8593 0569 7be2 8a3f cd1f e862 09c4 b7bf
00000660: 4651 b74e dec2 b23f 1d47 3d83 cb04 7d3f
00000670: 03f5 e2da c88a a53f ca3a 9ac1 bde1 ae3f
00000680: fe72 0d59 44a0 a5bf 90d9 e11d 7209 b7bf
00000690: 7e3d 57fa f042 abbf 3337 4fc1 ae9f be3f
000006a0: b647 fd5f 56fb b63f 53c2 745d 8d44 af3f
000006b0: 92d4 3af9 f101 d13f cc41 bc5f df13 83bf
000006c0: 7960 efe3 c2e3 b4bf 28bf 447d ffc1 e4bf
000006d0: a6d7 08d9 4aa3 afbf 9df2 97de 54a2 d13f
000006e0: 281e d181 9a43 b6bf 024c f9b7 233c af3f
000006f0: e2cd 89a0 2a5e 933f c26d 962a 8c95 b83f
00000700: 7579 b906 e889 a4bf 11b4 e4c0 0050 ba3f
00000710: eafc 3fcf b8b2 a13f 2423 115a d15d c63f
00000720: 64cd 0a71 74e0 e53f fcd9 6f65 c16c d43f
00000730: 905d b5e9 6b74 b8bf ba95 ed14 582b 8d3f
00000740: 5c19 8ed4 bffd a4bf df26 d7fc e78e a3bf
00000750: 5147 8954 4c03 cf3f 2bd2 5ead 886b b3bf
00000760: fd30 c0c3 0cf4 c13f d21e 6fbf 3c85 ae3f
00000770: 39b4 4da9 3998 c33f 17b7 acf6 e80b a53f
00000780: 763e 7e3a 43a6 cd3f b813 b8cd 2aef aa3f
00000790: 46d6 727b 1478 b03f bd99 85f1 fe79 dc3f
000007a0: a70a 0543 d151 95bf 18fa db45 7ce2 a4bf
000007b0: ad7f 747f fb29 bd3f 432a cb84 894d babf
000007c0: f94b aa7f eb63 a9bf 812e 4d35 321a bc3f
000007d0: 5b3f 0101 4460 a4bf 4658 6c02 5b79 bf3f
000007e0: c480 870d badd e0bf d1c4 a9c6 f9ee c1bf
000007f0: 45ef e82f c7de e3bf c4bb c62e 81fe e5bf
0.9671241150027055 -0.962676271472643 0.7288469734452531 0.22679063310712286 0.4796465580005956 0.7698986517944574 -0.7055766244693138 0.7233479882512359
0.40619819964682474 -0.7705577988494491 -0.7385767764054622 -0.7990628236494932 -0.4576798164423145 -1.1501143167931018 -0.4102878494736348 1.0007748678209687
-0.7217170716358163 -0.9423162629529851 -0.8179040058189088 0.9681898656926354 -0.33890372581733935 0.9892677033180614 0.5881052209432819 0.867111542545913
-0.905977323797754 0.9121237574718026 -0.782362124755327 0.8883364488488162 0.5994358632834311 1.0698450916849251 0.7991476769512846 0.8002793558097445
0.17544390061092263 -0.5998581982319549 -0.9568509248508362 0.8127922723181595 -0.8428610152872562 0.5146240702191022 0.9641469451957158 -0.6269422382444716
-0.8863516314785762 0.483171972479894 1.0591713228774269 -0.9817557506943162 0.7175184135180346 0.658166252140239 -0.4442472291635049 0.6594421075445377
0.9520671207470887 -0.588544137936708 0.7447281370233466 -0.8481958843338354 -0.7189525451578641 0.7580659158565369 0.8227234533957465 -0.7314127546424728
-0.6008429797413268 -0.3709238698277821 0.7657102346268632 0.6713786876695637 0.9552223062980568 0.49098729878116065 0.730634989712236 0.7607408200624636
0.6667248972032332 -0.938100992174471 0.7158656036063811 0.1366532269133647 0.45525066217827254 0.6160522688780196 -0.757488318254573 0.5146238291574424
0.4163204381041072 -0.6709605513031501 -0.8963551295378217 -0.7214615666586282 -0.18256637040410997 -0.6534139002388761 -0.3056498225167018 0.8704608607694466
-0.573136803218334 -0.6254823415433982 -0.8591131358490408 0.5663250317217796 -0.4582154568290667 0.5685107141037419 0.751780534709906 0.6966050379662819
-0.5610031055078273 0.560189934962217 -0.6462408701421707 0.8679993350966486 0.5218316238648119 0.7650623943308785 0.6445151113538526 1.1154962227914018
-0.19751186544367252 -0.38455652433428333 -0.604793091854676 0.6154541021199381 -0.3994726175878548 0.47095228095240393 0.5625824906338478 -0.6297435965145555
-0.8382867048597972 0.22281412362709407 0.8183394473160296 -0.6131973619154886 0.8782632846590456 0.34146711394673884 -0.4545087207553751 0.5370173112900445
0.6288248765408657 -0.4610170342757907 0.576842144325264 -0.41289316202995036 -0.6224337241336103 0.45880074821842803 0.8797950895382003 -0.6387684062725308
-0.7949398405282297 -0.4306657827234453 0.4446542593039072 0.6820897387113448 0.6065869952368765 0.40580455932122494 0.6586841850627532 0.5133300836197474
0.395900006180823 -0.5365018973894919 0.7275240467605765 -0.022679471093728223 0.2716317895702992 0.40988071932020587 -0.5688314176008153 0.6798583082953843
0.3714516805137247 -0.13301220121859586 -0.4663056461757696 -0.6839437701406517 -0.1189427258269945 -0.5939130289256656 -0.30459931496422876 0.4710680461137947
-0.5400550536543935 -0.5478160426168717 -0.5353470426936268 0.5526974268195094 -0.19226602609417842 0.5810430755569762 0.6839932543866598 0.63490370037177
-0.3917026940539631 0.19482987171585422 -0.621534265672228 0.5261171636372031 0.32923934236303015 0.6506246300016614 0.29675754893128564 0.4938027896096286
0.1820891665763218 -0.19350276084830517 -0.5106757906035609 0.554018691542704 -0.15776075756204855 0.5487586018295897 0.38613352378365584 -0.5849543455320294
-0.5803299413413635 0.3595579124540616 0.6278271242080135 -0.5202507507686952 0.6073807480487016 0.3690857828323033 0.048649201961674056 0.4258655946996781
0.5007742538179483 -0.581072248168174 0.724913700345135 -0.12098340796372223 -0.5952690184012684 0.2622924860251871 0.6780753941002239 -0.4713614283598997
-0.3322101276543262 -0.2148801668239384 0.4967389078727689 0.649256357935175 0.20493870977101583 0.2890648307443289 0.283454780896902 0.30341292305815254
-0.022919247978885393 -0.021548422418900474 0.10092973585364133 -0.02805448013447554 -0.044736815371533525 -0.00021549725043456053 -0.0889938002009412 0.012169201862189694
-0.05306725371103222 0.6694001491401929 0.01312729276896519 -0.0928350321265718 0.07328595563678161 0.0070846509659803466 0.04207446739153833 0.06031601894675516
-0.04223836505000199 -0.0899878809885648 -0.053245096739938255 0.11962406367748883 0.08977260440340626 0.06106988683530248 0.26574372614715813 -0.00931524763976279
-0.08160036148854201 -0.6486813971186836 -0.06179269694659632 0.27553292977953864 -0.08696904820782747 0.06100570317052957 0.018913904236297692 0.09603191413628223
-0.04011464197241114 0.1027832480364881 0.0345666649809518 0.17473809144782948 0.6836492736678506 0.31913790613126003 -0.09552645164273188 0.014242828501390348
-0.0409984538046497 -0.03819966279440989 0.24228815200563728 -0.07585958702731747 0.14026031072751968 0.059610269897857684 0.1530830456426047 0.04110649119534864
0.23163643222914104 0.05260595093935855 0.06433227552300833 0.4449460371601182 -0.02081992122226475 -0.040790446784729706 0.11392185079284785 -0.10274562351256926
-0.049590453466542735 0.10977472115808419 -0.039796948549904974 0.12294548806343739 -0.5270662559742267 -0.1401054592165907 -0.620944589208627 -0.6873174584960613

cutoff f8 [1]
00000000: 0000 0000 0000 1840
6.0

initpot f8 [1]
00000000: 0bd0 b69a d976 0cc0
-3.558032234863281

weight f8 [256, 64]
00000000: 0c23 bf3f 17d2 d53f d05a 271e 9667 c03f
00000010: b339 47d6 a503 c13f 4c0b 3fe2 63f1 cdbf
00000020: ae70 907c 6590 d5bf ed05 19c9 76a9 c23f
00000030: 2200 4749 c66f d1bf 30bc 6a78 2876 7dbf
00000040: f2d1 97a3 cf04 c53f e319 e554 5c5c ae3f
00000050: 9745 8602 f375 c53f 03da 31e0 2d2b b53f
00000060: 72f0 fe40 4a17 a0bf b644 93d1 545b d13f
00000070: cbd9 c569 ef3d c0bf 6302 bc56 62c5 a93f
00000080: 8511 47d3 2563 96bf 99b9 d0d7 df84 42bf
00000090: c960 9aba 287d b93f 95d2 2381 1908 d33f
000000a0: 7886 e185 7fdd 8cbf bfc0 3b94 a24b c93f
000000b0: b683 c0d9 9ab7 ac3f bc1e 18b5 e595 c63f
000000c0: 6557 aa1f 9bef c4bf 3587 a7be 875e c6bf
000000d0: f263 a2bd 2285 c33f 724b 70c9 f693 df3f
000000e0: 66af 8244 4291 a73f 5160 45c0 4c02 b23f
000000f0: 6b15 deb2 b675 ca3f 34da 650a 2d6d d63f
00000100: 5ad7 e700 eb3a d8bf 4e3d 8d88 2477 c13f
00000110: dd11 a1be e1cd ce3f 99b2 9bff ed23 c63f
00000120: aac8 eba7 e57b 92bf 0666 eff0 783b c73f
00000130: 2ee0 6a18 a34f ba3f cb22 a082 2a2c 803f
00000140: a51f f71a dd47 c23f c9b7 0739 55f4 7abf
00000150: f733 69e6 5a78 a1bf 9484 acbe 6f2f b23f
00000160: 2513 c555 60d1 ccbf 11fa 62b2 f132 a2bf
00000170: fbed ae31 37ef ae3f 1af4 024e ccc9 d9bf
00000180: 2fe4 d71a 23fd c9bf 13f3 5cae ec6a c23f
00000190: 1303 e2ff 3759 d13f d2c5 505e 2169 80bf
000001a0: 8c97 e224 b758 d23f 78c3 ef52 a1f0 a6bf
000001b0: 293f 7b1f b942 d83f e7a1 5d65 2351 9b3f
000001c0: 9411 b99b 7fee ad3f cd86 4a0d 5ffa b03f
000001d0: 6d71 75de 5dd2 d03f 77b7 5dcc 4ea0 c3bf
000001e0: 5cb8 6807 b4b1 933f 9e2d 8441 6d91 c23f
000001f0: 17f1 d20a d9cf bebf 0db0 5059 28b2 a4bf
00000200: 396b 14f5 dcbe 703f 9841 9405 8617 ca3f
00000210: e38e 578f d652 c33f 1542 ad30 9875 a2bf
00000220: 78a4 0488 c4d5 b33f fd12 be93 7aba b33f
00000230: 5d9b 4162 dfc2 ca3f ebd4 a1f0 b5ef cc3f
00000240: 8819 3ab9 533a c93f 9ef7 d4a6 52a2 bfbf
00000250: 0ffa a0ae f554 af3f 7228 564f 4940 dc3f
00000260: 315b d79d 48e6 76bf 616e 3b1e ac0c c53f
00000270: 8871 fea4 6dba ba3f cce1 7ba5 fef0 833f
00000280: 1478 40e0 a3ef c53f f021 ded1 dac8 ac3f
00000290: ccf8 9bdb 4692 c53f 357f fcd0 b0d4 b83f
000002a0: 552b d37a 9ef6 ae3f 6211 a174 7d44 cc3f
000002b0: b18e c126 c8e0 c63f 271d 9dbf fe18 c33f
000002c0: 9f4c 03d1 efcb c33f 4415 cc5f 5a74 bcbf
000002d0: 8605 d063 b50c c53f 54a5 f24e a77a d63f
000002e0: 4ced fde5 7344 70bf fc63 809c d3aa cb3f
000002f0: a816 ed9a d35c bd3f 9b30 7231 126c cc3f
00000300: 1f36 2ea9 e35d abbf 28b2 9012 c85b c03f
00000310: 90e2 cdab dab0 ca3f f86a 9a9f c456 d03f
00000320: 58fd 69a9 1dca 84bf d24d 599e 5577 cb3f
00000330: db89 589d 5c02 a5bf bdc9 7b15 5187 c33f
00000340: 3906 d59e 6b39 cf3f 5278 ecaf 988b babf
00000350: 55ed 0418 79f3 bc3f 01c8 16a6 885e d23f
00000360: f503 d876 c52f d23f 40d7 0139 9d37 c53f
00000370: 051f 7fbb 90ed c53f ad30 ef8f 41fc 9c3f
00000380: 1292 daf4 17e3 b73f 37ca aa3e 6b39 b83f
00000390: d904 f845 a753 d03f 25ad 46e0 a239 a73f
000003a0: 7613 f892 68b4 ce3f 8c41 fe81 8119 c93f
000003b0: e680 81c9 656a b93f fe66 efed 02cf 7f3f
000003c0: bba7 cd94 2f6b c23f e6e9 72d1 a8a1 783f
000003d0: b9e9 3c0c 291e bc3f 48e9 5f3a a5da cd3f
000003e0: b61e d88f 6547 c9bf e909 ec95 7c4c 96bf
000003f0: b7fc 0f47 a1f7 a4bf 646c da89 4e88 ccbf
00000400: 0c3e a674 1020 96bf 655f 5de3 6e47 b73f
00000410: d91b b95a e5b1 aa3f dca8 9d37 6666 bc3f
00000420: 9baa f442 0e59 9a3f e48b 9508 0ff9 bd3f
00000430: 9534 065a 613d 673f 7e3b b07e c4c3 cd3f
00000440: 897e 9b62 1cf7 a93f 0550 b423 e630 8cbf
00000450: e620 6f4e 7c2e c43f c879 206c a8ec c13f
00000460: a705 c58f afd0 b03f 3fdd f442 f906 c23f
00000470: c36a 7e83 1779 b53f 0c87 b5be 4085 883f
00000480: 5b92 bab8 2c6a b8bf b5de 4934 df85 acbf
00000490: 3c47 804b 8ee3 c13f 4115 2852 13e0 ce3f
000004a0: f460 e32d 0cf7 b0bf e95c b8e2 41e3 c63f
000004b0: 1d5d 403f 2b53 913f 77f4 084a 920b c23f
000004c0: b608 0fb6 2b9b b13f 36bd 2032 4a1d a4bf
000004d0: f58c 05cd 3419 b03f e7a3 7a5c e2fb bb3f
000004e0: 7105 62bd b3c9 c33f 071b 53ab 037c 993f
000004f0: 088e d973 e20a b33f caee ee32 bfb0 c73f
00000500: 97bc 7db5 b050 98bf fae7 0631 eb7f b5bf
00000510: 55bc 25c3 f9fc a8bf 4cd0 41bf e087 be3f
00000520: 6a36 cc10 9c5d c8bf ef54 7e46 9492 973f
00000530: 71c1 c43c 1964 443f 7cd1 da5e b4e3 b13f
00000540: 0c00 00ec d183 b13f a69f 3f86 0432 af3f
00000550: faf9 af0b 5f88 ac3f c6cc 16ba 3e8f ad3f
00000560: 1e28 f845 9863 ca3f 2cf5 f500 c2b5 a5bf
00000570: 8b97 2f9b 7bf5 be3f c2e6 2767 2ed6 a4bf
00000580: 3a2a df71 9e88 923f d910 74cc 38fe 95bf
00000590: ce3c 16fe a716 b53f 61a6 2f1f 5f0a c3bf
000005a0: 4024 e5d9 ffcd b23f 5a1c 1e3d bc31 bfbf
000005b0: 0ac8 6945 2150 623f 7c7c bf0a ea00 c03f
000005c0: 3090 090c cffa ab3f 6c5d fb46 6e8a babf
000005d0: 206a 2814 1ed9 92bf dd62 7ee9 ce29 81bf
000005e0: 535b 3e25 605b 9b3f 13bd 962e 2e52 bfbf
000005f0: 97a2 4207 8256 d0bf 8cce 0927 acfc c7bf
00000600: 401d 8dec dd5d b23f 6dac 2d2f 84b0 c4bf
00000610: a714 34fe ad5a 913f ede9 0057 ad2f c1bf
00000620: 8683 1a86 0361 c7bf 157e 1a44 0584 abbf
00000630: 20de 0062 e1ae a3bf 4ced f5f5 881e b5bf
00000640: e322 903a 61e2 acbf 0ffd 6fad 2b9a c13f
00000650: 006b 3e93 7b9c 80bf c445 7790 c19a cebf
00000660: 6208 1345 fb68 c33f 8ac8 e1c7 92b8 a0bf
00000670: 8376 7c6b 4f11 c7bf 5839 7a96 33d9 9f3f
00000680: a344 9fad 9a63 a93f d641 4ce8 be45 afbf
00000690: 28bc a7a8 9fbf d0bf 66ee 8e04 815e b2bf
000006a0: f98d fc70 b605 c1bf 7ac8 bb4f 4de5 cfbf
000006b0: 5530 d77e 8e6e 8ebf 2693 725e 4460 c1bf
000006c0: 4d72 8bed 77f1 8abf 655b d37d d1be c63f
000006d0: 0b69 71d6 25b2 a5bf 591a d2aa 662e afbf
000006e0: 02a0 6d9d 0360 c3bf fc3b cdec f467 7bbf
000006f0: 4b93 5b80 fb7f bdbf 794b db7a 9948 b1bf
00000700: 245a 098b 1cf9 adbf 81ed 7b8f 9235 ba3f
00000710: d06d 0cdd 29ad acbf 0654 6f18 8dac 80bf
00000720: 0cf2 5950 12c9 b03f a465 c3d2 23cb c0bf
00000730: 2e37 28e2 a823 acbf 996c c191 fecf c7bf
00000740: b2e4 df0d ef04 c5bf 9697 54c9 ffd7 b4bf
00000750: c279 c6b4 66e8 993f a487 eb02 09bd b2bf
00000760: 35f7 5c35 cf7f bdbf 4910 684a ee76 ae3f
00000770: 225c 43c7 ec7e c0bf 58f2 1d34 b25a bcbf
00000780: 2629 c805 a719 9e3f b527 f96a b06b c5bf
00000790: 191a e1fe fee6 c5bf d945 3aeb d603 a73f
000007a0: 70d8 72e0 3371 96bf 2a8f 4735 481f a73f
000007b0: 9d87 ddd2 c9af a0bf 8e5b ecf5 4ca2 a3bf
000007c0: 64f6 328b 75a7 c1bf 7a18 d244 0b64 933f
000007d0: 89d2 afc0 99bf c3bf fcf6 c178 f7d2 95bf
000007e0: bba5 2aa9 329f c73f f7dd 1a9b 4e5f ac3f
000007f0: a7e5 97ff f09c cf3f c5cc 9b2a e045 be3f
0.34094792580849353 0.12816120598173208 0.1329238220482246 -0.23392914340191806 -0.33693825878595873 0.14579663104272758 -0.27244717746725844 -0.007192762458244892
0.164209322814386 0.05929840599360483 0.16766202567354746 0.08269011233810634 -0.03142768901258898 0.27119942156157195 -0.12689011254015123 0.05033404644746466
-0.02186259367023659 -0.0005651562675035748 0.09956602626550927 0.2973693619854115 -0.014094349168036077 0.19762069929084267 0.05608829410653675 0.17644950239649926
-0.16356219335710445 -0.17475983437821588 0.15250047931183947 0.49340600654357225 0.04603011213597945 0.07034759229770883 0.20671733602300021 0.35041357055107203
-0.3785960682720223 0.136448446918147 0.24065801437440273 0.17297148686283917 -0.018050754903875678 0.18150245441829344 0.10277766557817422 0.007896740065932125
0.14281810585657442 -0.006580670262776375 -0.03412136137612969 0.07103632359623396 -0.22513965785960824 -0.03554492285319467 0.06041882020459962 -0.4029417764502924
-0.2030376320906568 0.14388807786772215 0.271070480237584 -0.00801302022054787 0.2866647587019251 -0.04480461251649265 0.37907245706900256 0.026676705419420712
0.058460223921915105 0.06632036280145855 0.2628397629212234 -0.15332970598995718 0.01923257155629475 0.14506307314910044 -0.1203590060640106 -0.04042173471711417
0.004088271250362757 0.20384288093965774 0.1509655189430453 -0.036053424779883304 0.0774805862498783 0.07706419093126367 0.20907203958196421 0.2260653901063628
0.19709250015530366 -0.12357060025257602 0.06119506603907975 0.44142372844419875 -0.005590709360567201 0.16444922901324602 0.10440717008754608 0.009737004685562399
0.17137573671146866 0.056219900244346976 0.16852651332005164 0.09699540235714894 0.06047530412032268 0.22084015078338398 0.1787347974051179 0.14920029026164025
0.15466115670878808 -0.1111504062538034 0.16445033429776518 0.3512361784911111 -0.003971531608722611 0.2161507143180471 0.11469767124534747 0.22204806722982515
-0.05345069351379216 0.12780095011238868 0.20852216137770485 0.2552959021210621 -0.010151130421262408 0.21457929832341321 -0.04103364392019034 0.15256703900338478
0.24393983130907929 -0.10369257254612421 0.11309010349662192 0.28701988429668296 0.28416573148575647 0.16575970920137628 0.1713124194632131 0.028306030664496152
0.09330892303348318 0.09462614326438588 0.25510579903500524 0.04536160457368003 0.23988063026640888 0.19609087798427216 0.09927974862648944 0.007765780871489046
0.14389605298793903 0.006013545461593916 0.10983521031167855 0.2332350287468421 -0.19749135516780364 -0.021776148462786003 -0.04095176689588114 -0.22290975314249117
-0.021606690520966906 0.09093373347184082 0.052138488125414724 0.11093748910721807 0.025730345570233664 0.11708158454489098 0.0028368855857424193 0.232536851749014
0.050713431393657755 -0.013765142407045525 0.1576686270693763 0.14003472594863653 0.06568429241180827 0.14083781976089857 0.08387896499918228 0.011972909755687343
-0.09537009725551952 -0.055708861477737605 0.13975695311142455 0.24121324073363762 -0.06626964683835351 0.17881034441300095 0.016918826804695464 0.14097813239087362
0.06877396769326335 -0.03928596364891705 0.06288461690342102 0.1093121982363666 0.15459295985423752 0.024887139636827118 0.0743848355137332 0.18508138644198474
-0.023745308949795953 -0.08398313471744237 -0.04880505091829749 0.1192608324943773 -0.190356739236836 0.023020092775898723 0.0006222842435246579 0.06988074603834166
0.06841766368597763 0.06092847956443785 0.055727930237470205 0.05773349782557484 0.20616439262840996 -0.04240232717254808 0.12093327082365428 -0.04069657334544054
0.018099284839801145 -0.021477591971248742 0.08237695649426088 -0.14875401518593193 0.07345580167488297 -0.1218526505673351 0.0022354745699937383 0.12502789997867925
0.05464789411487947 -0.10367478592831042 -0.018406362514818864 -0.008380524159109221 0.026715757630508218 -0.12234772336409021 -0.25528002461445837 -0.18739845186393145
0.07174479508568243 -0.1616368513453809 0.016947477951380432 -0.13426748989316142 -0.1826481251528344 -0.05374161201802622 -0.038443606580070844 -0.0824971771707414
-0.05641464080696836 0.1375174137938093 -0.00811096709349135 -0.23909778169631413 0.15164128182192643 -0.03265818300214203 -0.18021576641415402 0.031101995524801168
0.04958804482851888 -0.06107899270694232 -0.261695780470236 -0.07175451623236881 -0.13298683659478153 -0.2491852416347376 -0.01485930752360091 -0.1357503377122608
-0.013155877053059895 0.1776983131773832 -0.04237478487694276 -0.0609008868714695 -0.15136761843609753 -0.006690937746340882 -0.11523410686238582 -0.06751403092793663
-0.05854119488929069 0.10237995150594338 -0.056008632882562304 -0.0081416152078564 0.0655681081934249 -0.13119933882880475 -0.05495956192690553 -0.18603498570414415
-0.164213067793559 -0.0814208857087507 0.025300602706573867 -0.07319694825448991 -0.11523146679698189 0.05950112016947224 -0.1288734410252071 -0.11075891277682481
0.029394731262109584 -0.1673489115076429 -0.17111194081572093 0.04495116826468477 -0.02191620881486539 0.04516053820023409 -0.03259115885772632 -0.03834763051980082
-0.13792294785337156 0.018936325145226786 -0.15428468616996252 -0.021312586541617926 0.18454583416068523 0.05541463511820759 0.24697697143691963 0.11825371780632839

bias f8 [256]
00000000: 7d07 ddcd 7aa9 c83f 5dce 3f3e 5ed2 bf3f
00000010: 2b0c 77f1 6a85 cc3f 75a0 802b 2664 d1bf
00000020: c6f1 b6d1 e233 c33f 5157 44ce b7c6 ba3f
00000030: 7e22 d769 dd4b ba3f 51ed 0a33 3f1f c53f
00000040: 01b1 77f8 d5d0 cc3f 6f8b 416a 0302 c2bf
00000050: 429f cb26 1cbe bdbf 3ce2 36e6 3fa0 d53f
00000060: 50ec 19e3 b8aa c1bf 6584 68e2 793f b43f
00000070: 6158 a592 3ee5 c4bf 8e4f 662c f12a b83f
00000080: dd4b 7cc2 1eeb b8bf 328a b39f 2ffd c13f
00000090: e3e6 d7c1 52d0 c7bf 2c99 07e7 c4df ca3f
000000a0: ea83 7e19 5c48 c43f 73bc 9275 d204 d23f
000000b0: b4be d875 5a70 983f d6a3 6519 0a97 b53f
000000c0: 7877 278f 5b60 b8bf 3b53 454b c8f0 b7bf
000000d0: ed8e 02df 679c c53f 0eac 4ea6 e547 afbf
000000e0: e67a 44c0 1fc3 a0bf 975d 1f1c a3ca b8bf
000000f0: 123e fca8 b9cc a9bf 3f02 93f7 8661 babf
00000100: 2695 d971 f70b d5bf 5f6e 2353 c216 cb3f
00000110: 2919 6b6f c544 cfbf 54db 8979 a3a5 c03f
00000120: b49b 50c4 0dab d03f d3bb 5b67 2111 ce3f
00000130: ea2f 1df2 aa18 c9bf 765c 85e3 9f15 c13f
00000140: 216a 0ab0 2269 ce3f 4cb2 a1f6 6178 c73f
00000150: c23d 64eb ce4f a9bf f41a 9bdb 3062 bdbf
00000160: 9c2c 74c8 a015 cbbf 62e9 622b f44a cfbf
00000170: c102 55b3 ffcb c3bf 0747 6200 9ded c83f
00000180: 8c0e 5006 b1a3 c33f 3e8b 4cce 192a a7bf
00000190: 12ff 5d58 eb0a 98bf e877 ea7a 96ab ccbf
000001a0: 5c96 81f3 f554 c7bf 2396 c04a 53cb d13f
000001b0: fc90 c3ee d5ff c8bf 289c bf14 11d7 b4bf
000001c0: 0131 6988 199c a83f 2ac1 8bde 4e70 b33f
000001d0: 53b4 5a35 b29e c0bf 00fb 02a6 cdb8 d3bf
000001e0: 1856 d1fa 0f3b ca3f e49b 253c 5562 c73f
000001f0: 4f94 1ac8 66a2 9dbf d5af 1db0 0e88 cdbf
00000200: dcd9 c4cb bbea ca3f 1475 997c 395d afbf
00000210: aba5 95dc f5bf c73f 797d 2c79 c9e9 cbbf
00000220: 773c af45 8507 d43f ca7b 2e9e cd3e 933f
00000230: 4982 8647 46d8 c1bf f776 879d 38c3 c8bf
00000240: db1a 593d ab3a be3f 572e aa7a f74c cdbf
00000250: 2206 de31 8d20 d53f 259e d0e1 1cde cdbf
00000260: 6719 faaa 18d7 c93f 6d22 25f4 cc19 cfbf
00000270: fb07 d5d7 35e4 c8bf 311c 5584 0c29 c5bf
00000280: e4f6 2f38 6608 c43f bf02 8390 c072 c53f
00000290: d8f5 f191 3075 c8bf 4059 8bff a75a c53f
000002a0: f4e2 da1c ca30 c1bf df7b ad4d f716 d73f
000002b0: 1b5a 6a41 4762 cfbf ca1b ad13 18f3 c03f
000002c0: 98f8 092d b697 b2bf 9c3d 393e 82d4 d53f
000002d0: 9ba2 aec2 5e88 cdbf 029d e418 df8c b3bf
000002e0: 715d b461 395c d03f 69f4 24b8 74f3 a1bf
000002f0: e52e 7db2 8f29 c4bf d22c 7146 ff2d b13f
00000300: 3ab3 7f21 b901 b7bf 9960 1c94 913a acbf
00000310: 99ab d7e2 3f5a d03f 07c2 8adc 097c c23f
00000320: 835c 1a92 09e3 d5bf ff54 0114 faf1 cc3f
00000330: bc78 d5c0 c57b bd3f 244a a158 9e68 cebf
00000340: 65d9 3de4 5a4f bfbf cf69 2111 2f7e b8bf
00000350: a891 6836 b81b d3bf 3d48 34a6 8ca5 abbf
00000360: ce13 2447 acca 8f3f 006c f7ef 55cd c6bf
00000370: fe97 1557 47f0 85bf 0164 4431 fed5 c93f
00000380: 4470 dde2 c48c c3bf 8f54 e5b0 9607 b33f
00000390: 1294 8269 5429 b4bf 7e00 2e90 f3d9 bf3f
000003a0: 2957 4b88 ed52 b53f d317 f1ca 6eef cdbf
000003b0: 3064 630d 63b5 c93f a62a e645 2b51 c03f
000003c0: dba4 455c af70 d23f 5762 399a d603 ca3f
000003d0: 0ab2 b383 372b b23f 1fb5 430b 056c cd3f
000003e0: b896 07de 98bc b5bf 3ae6 a3b0 2e2e a83f
000003f0: d667 1c2c bbcb c43f 088f ed2d 1e27 b5bf
00000400: 3692 0305 adf2 cf3f 8ddb 2ed9 f408 c73f
00000410: 4239 a7d0 5006 c3bf 2641 89b7 2d86 d43f
00000420: 4006 f435 5094 ad3f b816 083f d9a9 cabf
00000430: 0f95 128e 9d32 b33f 333e c7ed 5b0f c13f
00000440: 9295 80ca bf56 b63f 01fa 7157 e009 b6bf
00000450: 63ea 8b52 fcb2 c53f 8670 8f46 a355 adbf
00000460: ab90 8e8c 40db afbf 1a59 974d 6ae8 a53f
00000470: 0e89 062b 619b b73f 774f f757 6764 b0bf
00000480: 0669 65e4 5304 c13f c3c3 310b 6886 cb3f
00000490: 0754 18a4 bcfc 9ebf 3e08 1f6e fc58 ce3f
000004a0: e455 e6fe 72a3 ca3f d125 ed28 b579 bebf
000004b0: 0059 68d6 57fb c6bf 45b2 1453 1940 b4bf
000004c0: 673a ad5e 0e0c cfbf 632f 9673 a035 c73f
000004d0: 082c 8919 cb39 ce3f 3a60 b34f e938 c9bf
000004e0: 32fb 5527 73a7 c2bf 6aed df4f b7c7 b53f
000004f0: 347b 48a3 34c9 9a3f 4fc6 848b c83d cfbf
00000500: 90ba 0cbd 06c8 b23f 1c3b 097b f503 d0bf
00000510: 9f5f e3fe 10f8 9d3f c584 9256 7998 bc3f
00000520: 66a1 8c3e e1c4 c2bf d38f 24b6 a1ab 7a3f
00000530: d18a 59f7 2702 b23f 1b35 242e 95b7 a83f
00000540: f950 3b38 9bde d5bf ac20 21fa b99a 9a3f
00000550: 1852 32f9 efd2 b33f 150b 5f82 4593 c83f
00000560: 33cc 0826 2acb c5bf e9ef 13ec 3a99 d33f
00000570: ec33 f0eb 90eb d2bf 9852 683a 1694 c13f
00000580: 5fec 929a 5890 c7bf 2fa4 150c 5711 ce3f
00000590: c6ff 70ab db24 c13f 62bc ca11 7c06 b7bf
000005a0: 0d0c 7f40 c9b5 c43f 1110 8688 73c1 d03f
000005b0: afa7 eb89 3f65 a6bf 6f94 fcff be4b d2bf
000005c0: 619e 9444 398c c9bf 147a 9ec0 2bb8 d6bf
000005d0: a5bf 92da aebc d03f f573 e9bf d0ae c2bf
000005e0: 9669 c5b0 1623 c73f b564 6fb3 053a c63f
000005f0: 0b96 eca6 6de5 a53f f87f 4a11 2dc6 d13f
00000600: 2646 5571 ed67 bc3f a2ed 8c30 5ac4 c1bf
00000610: 28e4 f98f 49c5 bd3f 86cc 4cfe 4a57 b23f
00000620: eefb 0cee d7fc c13f d4c6 9b11 119b d1bf
00000630: 109d 1eb6 272c c73f 0906 8041 e202 d03f
00000640: e004 ab69 4986 b53f 16cb 8ce9 c7f2 ca3f
00000650: 9ffb db49 64ee ca3f 7ddc 66ed 5ea3 d33f
00000660: cb0d d3e9 1f72 a8bf 1a85 baff 4ca1 abbf
00000670: 17e3 fe77 25fc c13f 7584 9ced 612b c8bf
00000680: 3b79 cd5d 368b c9bf e59b 7512 d40e b2bf
00000690: 1858 551b c84e c23f 3be9 46f4 4244 ce3f
000006a0: 284f 68e2 0cee bc3f 92a4 b21b bbaa ce3f
000006b0: 2cf2 8e51 90c8 c0bf 8033 891f 60a4 b83f
000006c0: 9c56 23e8 2297 c5bf 06c1 393c a667 c33f
000006d0: 3bbb be53 e807 b5bf 7e4c 77fb 36c1 b83f
000006e0: 96f4 b6ed 822f 9f3f e585 a881 9fe2 923f
000006f0: 2ee3 9844 bc45 d4bf 2324 ae8c 70b5 d03f
00000700: da0f 01c7 ec9b a3bf 6217 c29b 1e29 c1bf
00000710: 3ec3 2e4e dcad bebf f847 ca6c e0cd d43f
00000720: 144d 8dcc 9413 cfbf ac5f 91dd 67dd 9cbf
00000730: 9a2d f567 3aa8 d23f 0f0e 60d3 9187 c4bf
00000740: 27a1 6610 089f ca3f 00ed 6b51 6621 92bf
00000750: a1e2 037d f392 cbbf c1df fbed 64db a43f
00000760: ad0a 44c6 0109 c33f 632a 99cb 786a cbbf
00000770: 9dcb ff1e 3fdc b4bf cb44 f2b7 1eda a83f
00000780: c47b 949e 5ffc 78bf 6f9d fec4 c2bb c0bf
00000790: b3df 44f3 074c d0bf a934 4391 eda2 623f
000007a0: fa39 dfb5 2935 c63f d4e4 916f 5a6c d43f
000007b0: 259a 4ba5 de4e b5bf 6eec daf8 07db d43f
000007c0: e32d 34a8 3019 bfbf 0b7e 97b4 9ba9 9cbf
000007d0: 04df bcd2 7938 d3bf c9e6 7e86 ca2d d33f
000007e0: 9100 1f32 eac9 b7bf c750 e27e 3594 c4bf
000007f0: 5084 2742 991b c03f 3e8a 73aa cd80 c0bf
0.19267211009906396 0.12430371303326511 0.22282158651623382 -0.2717376160458181 0.1500209354397965 0.10459469590963734 0.10272010644906435 0.16501607887571848
0.225123163530391 -0.14068644226344015 -0.11618209788468639 0.3379058597743414 -0.1380225285427934 0.0790935685877386 -0.16324598465388632 0.09440524419761528
-0.0973376488512225 0.1405391244689596 -0.18604502167709489 0.2099538925242056 0.15845824475130083 0.2815443180251755 0.023866094057835865 0.08433592910809237
-0.09522030110335133 -0.09351779782930418 0.16883562459144433 -0.06109540610426488 -0.03273867818847069 -0.09684199749550824 -0.05039005458649738 -0.10305064720433509
-0.32885538213879995 0.21163205203525856 -0.24428623142575503 0.1300548881005975 0.2604402939927539 0.23489778086465538 -0.1960653001973463 0.13347242936535836
0.23758348079430028 0.18336128752288727 -0.049437013849565684 -0.11477952348205261 -0.21159753597053033 -0.244474908051255 -0.15466305023621454 0.1947513820528501
0.15343296821821573 -0.04524307864473663 -0.023479153889183264 -0.22398644448998017 -0.18228029622985076 0.27803499507931145 -0.1953074851836688 -0.08140665775827982
0.04806594648525398 0.07593243535280139 -0.1298430214423286 -0.3081544991691061 0.2049274420448206 0.18268838345394933 -0.028939825023048645 -0.23071464156544033
0.21028850030570723 -0.06125812192906657 0.1855456664155047 -0.21807211319626754 0.3129590206635337 0.01879426267589305 -0.13941267483189027 -0.19345767680982082
0.11808271644359129 -0.22891133775225356 0.3301117884621779 -0.23334084535712055 0.2018767199371709 -0.24297487183709468 -0.1944644264095244 -0.16531521283670395
0.15650632613681303 0.16756445938337625 -0.19107634664753337 0.16682910897970693 -0.1343014374631576 0.360776735169507 -0.2451867169772449 0.1324186416697713
-0.07262743568023422 0.34109550549052314 -0.23072418695416705 -0.07636827810039296 0.2556289152284626 -0.035060546377715 -0.15751835074694678 0.06710811109330742
-0.08987004344789976 -0.055134343461930864 0.25550839569648925 0.14441035526898835 -0.3419822623049599 0.22613454796616136 0.11516986806734314 -0.2375677044643264
-0.12230461189560556 -0.09567541282868962 -0.2985668689091434 -0.053997416771509134 0.01552328674416428 -0.17814134804834225 -0.010712201447585553 0.20184304624197583
-0.15273343160049724 0.07433454340692179 -0.07875564170770158 0.12441942472469411 0.08329662873742606 -0.23386940869585135 0.2008479895946791 0.1274770823768751
0.2881277466863829 0.20324213533855826 0.07097193684939654 0.22985899972938115 -0.08490901394506067 0.04722734361889676 0.16246738103728714 -0.08262814160621812
0.24959337944814458 0.17996082882538325 -0.1486302393736399 0.32068961070491964 0.05777216585739753 -0.20830836847033196 0.0749910804612066 0.13328122244137006
0.08726118749526382 -0.08608820090191928 0.1695247080859473 -0.057293989528006725 -0.062219636113952724 0.042788812610228 0.09221465397289227 -0.06403203866585537
0.1329445710387704 0.2150392584476589 -0.030260989680829933 0.23709063889515564 0.20811307379032862 -0.11904461144617719 -0.17954538315888868 -0.07910307195988604
-0.24255542395481486 0.18132405895118628 0.2361387133299504 -0.19704929725298986 -0.1457351629323625 0.08507867527071303 0.026158163515101765 -0.24407297909196976
0.07336465945693704 -0.25024163260688836 0.029266610676898727 0.1117015682562111 -0.14663329652945406 0.006511336980370391 0.07034539974987843 0.04827562511682456
-0.34171181193711636 0.02598085965317469 0.07743739923382298 0.1919943701342041 -0.1702625928606679 0.3062274270484964 -0.2956278137287984 0.13733175136498654
-0.18409259364657068 0.23490417566361674 0.13393731948053594 -0.08994269785283529 0.16179767274124437 0.2618073304404343 -0.04374121245002926 -0.28587317465491585
-0.1995917878023077 -0.3549909001393712 0.2615162977699533 -0.1459599434919309 0.18075832015422283 0.17364569913369157 0.04276602423332684 0.2777207058770723
0.11096080796166827 -0.13880469675664836 0.1162916161064379 0.07164448460098258 0.14052867053575774 -0.2750895187337907 0.18103500740583245 0.25017601391309136
0.0840803034762021 0.21053408531005208 0.2104001389161256 0.3068463629128429 -0.047745702069302697 -0.053965002266759224 0.14050739630854345 -0.18882392980689003
-0.19956092434126468 -0.0705387635294837 0.14302922567975496 0.23645817687595092 0.11300735976720644 0.2395852933162002 -0.13112071974127681 0.09625817079468213
-0.1686748155104184 0.15160062733367158 -0.08215190929943798 0.09669822348887355 0.030454679259254457 0.01844262341376703 -0.31675631236025736 0.26107419718079167
-0.038298987667559195 -0.13406736951236115 -0.11984040173298369 0.32506571411170126 -0.2427850722111563 -0.02818834581225331 0.2915178313457659 -0.16038725682311436
0.20797825623345398 -0.017705534667567413 -0.21542209247833902 0.040736345339552844 0.14871236973711657 -0.21418676320384397 -0.08148569590393469 0.048539123491659085
-0.0061000571379556424 -0.1307300054443021 -0.25464056736700086 0.002274955748453229 0.17349740391223617 0.3191133584546837 -0.08323470626383107 0.32586859991324146
-0.1214781199125166 -0.02799075402970001 -0.3003220136629212 0.2996698678431185 -0.09292472575816847 -0.16077297873983395 0.12584224443620196 -0.1289307672769428

alpha f8 [1, 256]
00000000: f963 2645 898b f23f ed47 a332 0597 f13f
00000010: 9099 8da5 f296 f03f 94a3 d44b 920e f13f
00000020: 840a 33fe aa9c f13f a5f5 318d 2e68 f13f
00000030: 8b14 6a29 5c18 f13f 7729 a1e3 c72b f33f
00000040: 4640 5735 770e f33f 13bb 5bd8 aaad f33f
00000050: 3e21 a803 4e54 f13f 4b4d 2ee1 dd6d f13f
00000060: 5c4a a7b4 0862 f13f 2ea6 eb88 049f f03f
00000070: 517e b175 d361 f13f fe29 4526 f2cb f13f
00000080: 5e4b fb63 0efa f13f 7aad 9571 6866 f33f
00000090: 5aa1 7185 b7d4 f03f 3dfc 530e 893a f23f
000000a0: 6595 c199 9b9b f13f 52e9 c1d7 045f f13f
000000b0: be61 aa9c d775 f33f 109f 3560 a51c f23f
000000c0: 1fea 598b d9a3 f23f a335 7828 7954 f03f
000000d0: b700 860e 0408 f23f 9874 f44d fdf1 f03f
000000e0: 4687 1a7e bd1d f43f 54c1 454b 8544 f13f
000000f0: 214b 1594 689f f13f 37f4 d4fe 5257 f23f
00000100: 5ed2 b885 5791 f13f 2f01 e09c e8d5 f03f
00000110: 3a65 cb1d d0f4 f33f 51e9 34ce 8447 f13f
00000120: cdbb 3c30 9689 f13f 7a16 88b2 2534 f13f
00000130: dd65 83c9 27a8 f03f e36a a7aa b6c7 f03f
00000140: 859f 38aa 2c21 f23f 17f7 ad09 3f8d f13f
00000150: d618 3fd5 a5b2 f13f 913c b1a6 8695 f13f
00000160: df57 491f 83e9 f03f 6321 08ca 3038 f13f
00000170: f99f 5095 60ab f23f 3880 d7f5 98bf f03f
00000180: 882f 7f6e fdba f03f 678b 97be 423a f33f
00000190: fef0 e52c 2421 f33f 9339 923f 625c f13f
000001a0: 077d f3bf 9a7a f03f 94e8 4f6b bc2d f23f
000001b0: df1a 36ba 0e7d f33f f096 ffff 8b4d f53f
000001c0: b069 3b8a a111 f53f 193e 1d86 28b4 f03f
000001d0: c16b 439d c42c f13f 507b 9cc9 5e85 f23f
000001e0: 49f1 8a66 dfa4 f03f 16a3 0bfb d8a4 f03f
000001f0: a14f 6e70 28b3 f23f fe09 ccd5 6d68 f13f
00000200: 983c 0da2 930b f13f 6fa7 e4ab 1f91 f33f
00000210: 2874 96ca 09a3 f13f 52c1 aa14 47ed f03f
00000220: d882 adb0 e91b f13f c923 ad57 2ca5 f13f
00000230: 6c37 5007 8c33 f43f a89c 52d3 c3f9 f03f
00000240: 2bd0 705b d55d f43f f608 0aa6 3694 f03f
00000250: 2033 ae79 ea28 f23f 4484 c5a6 0389 f13f
00000260: f46e ba70 f99f f13f e718 c2b2 42e0 f03f
00000270: 14a2 aa49 05a9 f23f 6aec 75bd fd24 f13f
00000280: ec89 2fcc 8b56 f23f 9432 64a1 7647 f03f
00000290: a6bd 0ed3 5ac6 f13f fb57 ddd0 2cf7 f03f
000002a0: aa8a 0a2a b65a f23f b487 bc6c f567 f13f
000002b0: 8284 c00a 340a f13f 65f4 8448 e85e f13f
000002c0: e321 1901 8fa7 f03f 5f52 650c 3656 f13f
000002d0: 7e7c c2ec 725c f03f f169 84ae eef7 f13f
000002e0: 4919 85c2 288f f13f ac03 bde4 9d63 f33f
000002f0: 2863 020b 17e7 f03f b91b e04d 9d7c f13f
00000300: 1af9 8086 da6e f03f 0cb6 6b20 b21e f23f
00000310: 9505 5bec 5764 f13f a0c9 23bb 2e28 f13f
00000320: a13d 6f8f 1adf f13f 7919 ad22 1ae3 f03f
00000330: 2620 a9ca f66c f13f 8703 09bd c4c4 f03f
00000340: 5ccc 75a0 694b f03f 3af5 2851 8216 f13f
00000350: dd9e bf85 e372 f13f 3330 750b 8022 f23f
00000360: 87b5 4236 f757 f13f cb90 7c08 d5e2 f13f
00000370: 7ddd c6f9 cb47 f13f 2f9e 5ca9 e5cd f33f
00000380: 4a09 236b 5014 f33f ac65 eaa5 3ebb f03f
00000390: b33c 5229 1752 f23f 23b8 2cdf 2c25 f13f
000003a0: abc8 da78 76df f03f 063a b732 4ad4 f03f
000003b0: 40b7 297f 0309 f13f 2b2a 4d29 f5df f13f
000003c0: 3812 415c f622 f33f 2a33 a427 86e5 f03f
000003d0: 19b3 3a96 6e93 f03f c064 aa42 e63f f13f
000003e0: 3668 0c08 aa08 f13f ced2 d73a b491 f03f
000003f0: 5ee9 aa48 67d7 f23f 2d8c 879b 7e1c f53f
00000400: 46f9 cd86 fb94 f13f 3561 3729 6004 f13f
00000410: c0bc 9fb9 c837 f33f 4df4 a452 fb93 f13f
00000420: 6bb6 43b1 fc13 f23f c729 5d61 9d6d f03f
00000430: c862 0094 0214 f23f 58da fafe 1cdc f03f
00000440: cabe 2a5c e915 f33f d42c df73 7abf f13f
00000450: 38ee 41f7 954c f13f 925b f908 6c64 f23f
00000460: 7057 ee78 cc3f f13f 3916 7d3b f125 f13f
00000470: 9f9d 78a5 efed f03f b2c7 ce32 5992 f03f
00000480: a7ea eb2e a2f1 f03f d9d5 d4b6 c5a2 f03f
00000490: c0d3 d33e 388a f13f fd6d 4ad7 e93b f13f
000004a0: 3ec2 f6d8 2024 f13f 134f 9113 9741 f33f
000004b0: ac98 07b1 4a28 f13f 7ce8 9b5d 2322 f23f
000004c0: 7035 1512 25fc f03f 5ccd 873a ac58 f13f
000004d0: 551b 9fc9 dc8e f03f 2df1 6695 7cd8 f03f
000004e0: b21e ffbe 75e1 f23f ac15 6a73 a3c3 f03f
000004f0: ecd3 9f3d c11b f13f b1ea 6bc9 8031 f13f
00000500: 0aa9 8816 6f53 f13f 89c6 70f1 cdd9 f03f
00000510: adb6 6677 b6f6 f23f 91dc a03d 9c1d f13f
00000520: 78e8 1c4f cbbb f33f 37f5 2d0a c908 f33f
00000530: a464 bbe7 8b71 f13f 86fa 0852 2198 f13f
00000540: 776e ad16 ec5b f23f ce05 9d51 a917 f13f
00000550: 7018 5df6 f972 f13f ad05 a08d 2373 f13f
00000560: d7e1 173a dc40 f13f 7874 f1d2 bf76 f03f
00000570: 7e6f f093 43b4 f13f ef28 5272 02c1 f23f
00000580: 212b 62a9 9aaf f23f d3e4 a312 87bc f03f
00000590: 719d 656d 8556 f13f 0ec0 2a95 820c f23f
000005a0: 4a87 0a63 864b f03f 95d0 3756 efc5 f03f
000005b0: 2eaf 18bf dcf5 ef3f d2eb c6db 8b7e f03f
000005c0: 034b 9f38 d85b f13f daa0 6060 6dad f13f
000005d0: 7537 81c1 2363 f13f 9ea0 a284 f663 f23f
000005e0: 25e5 a130 92f7 f03f 9ad5 248d 0c77 f13f
000005f0: bcb6 4664 924e f33f 6462 8c9e d2e2 f03f
00000600: 1ffd 55f8 a178 f13f 7c3e 84ac d47d f13f
00000610: 6c3f 4f3c 886f f03f 7480 05f4 aae4 f23f
00000620: fa6e 130e b9ad f03f a5a8 8d86 b99a f13f
00000630: 55ec 0fa8 bf93 f03f 6148 f3bb c4d0 f03f
00000640: f537 3e41 1dfb f03f a163 4ac8 f9d7 f33f
00000650: 1f00 a344 3424 f13f b2ad d7e6 9485 f13f
00000660: 0341 89a7 51eb f43f 179e 82d3 5354 f33f
00000670: 3dba 4bcf a52d f13f e2ac 9e8a bd07 f53f
00000680: ace8 d61d 15ec f03f abbd 51c0 0930 f33f
00000690: 59b6 4c71 8eb1 f03f c00e fc51 0c8f f13f
000006a0: 74b2 e3e9 b14e f13f c8dc 478c bf76 f13f
000006b0: bbd2 9fc8 f968 f13f 6f8e fb5e a49b f23f
000006c0: 1fa2 275b 363f f23f 93e3 4619 1725 f33f
000006d0: d95d 7d9d e025 f13f 5a93 f2fb ab2c f13f
000006e0: f6c0 e26c 5bae f13f 16c9 8283 7926 f23f
000006f0: 6af3 d1a4 289e f13f 3d85 c876 b8d0 f03f
00000700: e605 2f2d 6383 f43f a8fb 3345 5a51 f43f
00000710: 2f15 1b2a 60b3 f23f b742 72a6 6296 f13f
00000720: 70e4 7959 b922 f13f 30d2 bab3 beac f13f
00000730: 67c7 9d97 4cf4 f03f 8c89 e934 381d f13f
00000740: c8c1 5e5a ae25 f13f b755 8190 dc82 f13f
00000750: b54d d123 d712 f13f 223b f684 99ae f23f
00000760: 1a46 0083 a21b f13f a07d 4027 e6f1 f03f
00000770: b8e5 ed84 79ce f13f a2de f652 a0dd f03f
00000780: 87d1 0ca7 5400 f23f e8e8 15cd 30d9 f23f
00000790: 7af5 6fe8 99b2 f03f ec99 419e 67e9 f03f
000007a0: f36f 2fec 4c4b f13f 04b2 6a6d 1a4e f13f
000007b0: e95e 5e25 f038 f43f 2851 43b6 6736 f13f
000007c0: 64b7 e3d7 42bf f03f 1193 a1dc f097 f13f
000007d0: b6ea b10f b099 f33f 4859 0c6a 584c f23f
000007e0: 0cca 49de 976d f33f 5980 3f91 103a f23f
000007f0: c66b 6aab 6282 f13f 883a 7e9b bf0e f23f
1.1590664578600338 1.0993701913871476 1.0368524996680186 1.066057487691272 1.1007490091002703 1.087935020011494 1.0684472673176824 1.198188676050078
1.1910316547037083 1.2298992587563518 1.083082212719162 1.0893229290130246 1.0864340836311817 1.0388226841408925 1.086383304347596 1.1122914786270708
1.123548880150984 1.2125019490148063 1.0519328320170502 1.1392908630075589 1.1004901891804704 1.0856979778314622 1.2162700767276955 1.1319936521703688
1.1650023883254403 1.0206233578531758 1.126956993801327 1.0590794606316987 1.2572607923434176 1.079228681595926 1.1014180931567312 1.1463193849915692
1.0979838584436474 1.052223789971389 1.247268787751024 1.0799606375645292 1.0960904964701854 1.0752312635317183 1.041053568993781 1.0487581888361823
1.1330992364182475 1.096983945666073 1.106115181917223 1.0990053664607198 1.0570098135117332 1.076218403994141 1.166840155850876 1.046776733703167
1.0456518474847787 1.2017238087653028 1.1955911401592512 1.085054634404149 1.029932737168396 1.1361660186653681 1.218031623256756 1.3314323425233248
1.3168044471445732 1.0439839590870916 1.073429693517696 1.1575610995712005 1.0402521138740488 1.04024599136955 1.1687397376854067 1.0879953719564806
1.0653263406891593 1.2229305948808038 1.102304259641878 1.0579291159920854 1.0693146611667341 1.1028254914146933 1.2625847135236326 1.0609777693551141
1.2729085513974592 1.036184929457304 1.1349892380851045 1.0959507479203845 1.1015562442252618 1.054751108431043 1.1662648084258125 1.0715310478979299
1.1461294151309813 1.0174471191741405 1.1109264606892366 1.0603454741262783 1.1471463815911798 1.0878805396573457 1.064991037368856 1.0856707413470528
1.0409078638932605 1.0835476383409952 1.0225705383707289 1.1230303589896915 1.0974509809908162 1.2118205008593845 1.0564184598972108 1.0929234544762336
1.0270638708166815 1.132494093555013 1.0869979126585794 1.0723101911686186 1.116968689242505 1.055444846586026 1.0891025463515773 1.0480391868770498
1.018411280438861 1.0679953737556631 1.09054901357188 1.1334228942460072 1.0839759940675735 1.117878945494385 1.0800285107523842 1.2377678504652854
1.1924595055612195 1.045714042766444 1.145041619692887 1.0715759961854097 1.054556343162896 1.0518285733302277 1.0647006003668622 1.1171771634423162
1.1960357288054535 1.0560361431591425 1.035994135697541 1.0781004528164857 1.0646152796166581 1.035572271209435 1.1775887335375823 1.31945667985634
1.0988726869396301 1.0635682687771582 1.2011191607414702 1.0986283520026234 1.1298796581644648 1.0267614177015376 1.129885271197212 1.0537385902549854
1.1928495025894557 1.1092476392976112 1.081197706079264 1.1495170927571263 1.0780758594387088 1.0717632602476341 1.05808987271471 1.035729597537721
1.05899256066065 1.0397393361903282 1.096245046062208 1.0771273050112307 1.071320388331642 1.2035132183418156 1.0723368563863387 1.133334508571834
1.0615587908135602 1.084148625025441 1.0348785281982675 1.0528531871814935 1.1800439320376594 1.0477633007406935 1.0692760855865755 1.0745857112912456
1.082869613669177 1.0531749182959251 1.1852326072798107 1.0697290809019118 1.233348187479832 1.1896448514592757 1.0902213146239683 1.0996411518569018
1.147441948493819 1.0682767093679675 1.0905704139309158 1.0906100780706354 1.0783350247639782 1.0289915313690283 1.1065097597956703 1.1721214738523107
1.1678721062223263 1.0460272529729095 1.0836233399694175 1.1280542208514848 1.0184387081903474 1.0483239524737986 0.9987624866821301 1.0308950982132399
1.084923001461619 1.1048406376594841 1.0867040213374513 1.1494050198616956 1.0604421519950133 1.0915647042687397 1.2066825787582465 1.0553766434951735
1.0919513416882365 1.093220399754414 1.0272295337526556 1.1808270961846832 1.042412810310394 1.1002745872488415 1.0360714497499164 1.050968870335531
1.0613071964794447 1.2402284454203498 1.0713389092561625 1.095112706879132 1.3074509186154166 1.20808775540525 1.0736444566242789 1.3143897452198918
1.057637325821399 1.1992280495140715 1.0433487344520442 1.0974238588832321 1.081712640410072 1.0914912681308113 1.088128837288578 1.1629985533008058
1.1404326973662433 1.196555231798105 1.0717474128667759 1.0734062043859098 1.1050676587438466 1.1343932282584936 1.101112979725452 1.0509571685764307
1.282077003954663 1.2698614791149598 1.1687928814656734 1.099215173893908 1.0709775443231386 1.1046740551656846 1.0596433565628673 1.0696336810002292
1.0716994791110768 1.0944486279234817 1.0670997046589552 1.167626876241862 1.0692467801312717 1.0590573819425586 1.1129088585424665 1.0541079750818558
1.1250807309525912 1.178025055995528 1.0436038093169757 1.056983583630081 1.080883905981861 1.0815681718914911 1.2639008960449536 1.0757825011870157
1.0466946061310063 1.0995949381260213 1.2250214207730727 1.1436390059003134 1.2142561610349984 1.1391759561302222 1.094332379906278 1.1286006998012983
