examples/expedition/online/nequip/bak.aqueous/surf22-fixed/init/t0/m0/auto/best_model.pth (torch, 685965 bytes, 54 tensors)

model.func.radial_basis.basis.bessel_weights f4 [8]
3.0587833 6.3033977 9.465923 12.9198265 15.809721 18.86803 21.80238 25.496904
00000000: 1bc3 4340 6fb5 c940 6c74 1741 9cb7 4e41
00000010: 9ef4 7c41 baf1 9641 466b ae41 a9f9 cb41

model.func.chemical_embedding.linear.weight f4 [96]
1.7174995 0.9111887 0.16008015 -0.06932634 0.1722911 0.43357486 -1.9037575 0.1621133
-1.2027311 -0.48255274 0.92666084 -1.1698751 0.6366514 0.37210923 -1.7694489 -0.85107756
-0.5359005 -0.79566365 -0.8970909 -1.3581028 -0.9529563 -1.3341359 -0.8066247 2.0598567
0.8928207 0.79217213 -1.6189536 -0.99371684 -0.10448809 0.7149668 1.2180064 -0.82607275
0.6125475 -0.46604 -0.42773852 0.8674402 -1.6219009 -1.3729427 0.19531402 -1.3097719
0.06242242 1.1261749 -0.9679489 -1.0582397 0.52531606 -0.29264766 -1.6590014 0.26515022
0.9301832 -1.581719 0.34590322 -1.4342618 -0.9029158 -0.1587718 -0.80290556 0.056712344
1.6169006 0.08249504 0.5686789 1.244716 -2.0750144 -1.622328 -0.76933026 0.6336948
-0.3793946 0.3332851 -0.39862782 0.055127185 0.16667198 -0.7184124 -0.64493406 0.8413915
0.81961924 0.5695568 -0.5615188 -1.0574769 0.8886507 1.3619062 -0.32517546 -0.5738134
-0.13852032 -0.08970197 -0.8827136 1.1388565 -0.59074897 -0.5949041 0.6245749 -0.014406521
0.67243135 -0.73990977 -0.39608413 0.83020526 0.43233207 0.608164 1.0872031 -0.1344665
00000000: 06d7 db3f aa43 693f 0dec 233e f8fa 8dbd
00000010: 146d 303e 86fd dd3e 53ae f3bf 0701 263e
00000020: 18f3 99bf 2711 f7be a539 6d3f 78be 95bf
00000030: 96fb 223f 1a85 be3e 4d7d e2bf 38e0 59bf
00000040: c630 09bf 9db0 4bbf c0a7 65bf 50d6 adbf
00000050: f2f4 73bf f7c4 aabf f57e 4ebf b1d4 0340
00000060: e68f 643f cbcb 4a3f df39 cfbf 3a64 7ebf
00000070: dafd d5bd 1008 373f a2e7 9b3f 8179 53bf
00000080: eacf 1c3f cb9c eebe 8b00 dbbe 9010 5e3f
00000090: 739a cfbf 96bc afbf 6600 483e 9ba6 a7bf
000000a0: a7ae 7f3d 8026 903f 80cb 77bf 6674 87bf
000000b0: 1d7b 063f ead5 95be 285a d4bf c5c1 873e
000000c0: 7c20 6e3f c575 cabf 3a1a b13e e495 b7bf
000000d0: 7d25 67bf 1395 22be 388b 4dbf 344b 683d
000000e0: 99f6 ce3f 29f3 a83d f194 113f db52 9f3f
000000f0: 09cd 04c0 72a8 cfbf d4f2 44bf d339 223f
00000100: 0240 c2be 58a4 aa3e f218 ccbe 0bcd 613d
00000110: 0fac 2a3e e0e9 37bf 661a 25bf 6f65 573f
00000120: 91d2 513f 79ce 113f b2bf 0fbf 675b 87bf
00000130: 9d7e 633f f152 ae3f 667d a6be 6fe5 12bf
00000140: 45d8 0dbe abb5 b7bd 85f9 61bf 0dc6 913f
00000150: 533b 17bf a34b 18bf 24e4 1f3f 5409 6cbc
00000160: 7624 2c3f ba6a 3dbf 8acb cabe 5588 543f
00000170: a15a dd3e a3b0 1b3f 7929 8b3f 96b1 09be

model.func.chemical_embedding.linear.output_mask f4 [32]
1.0 1.0 1.0 1.0 1.0 1.0 1.0 1.0
1.0 1.0 1.0 1.0 1.0 1.0 1.0 1.0
1.0 1.0 1.0 1.0 1.0 1.0 1.0 1.0
1.0 1.0 1.0 1.0 1.0 1.0 1.0 1.0
00000000: 0000 803f 0000 803f 0000 803f 0000 803f
00000010: 0000 803f 0000 803f 0000 803f 0000 803f
00000020: 0000 803f 0000 803f 0000 803f 0000 803f
00000030: 0000 803f 0000 803f 0000 803f 0000 803f
00000040: 0000 803f 0000 803f 0000 803f 0000 803f
00000050: 0000 803f 0000 803f 0000 803f 0000 803f
00000060: 0000 803f 0000 803f 0000 803f 0000 803f
00000070: 0000 803f 0000 803f 0000 803f 0000 803f

model.func.layer0_convnet.equivariant_nonlin.mul.output_mask f4 [256]
1.0 1.0 1.0 1.0 1.0 1.0 1.0 1.0
1.0 1.0 1.0 1.0 1.0 1.0 1.0 1.0
1.0 1.0 1.0 1.0 1.0 1.0 1.0 1.0
1.0 1.0 1.0 1.0 1.0 1.0 1.0 1.0
1.0 1.0 1.0 1.0 1.0 1.0 1.0 1.0
1.0 1.0 1.0 1.0 1.0 1.0 1.0 1.0
1.0 1.0 1.0 1.0 1.0 1.0 1.0 1.0
1.0 1.0 1.0 1.0 1.0 1.0 1.0 1.0
1.0 1.0 1.0 1.0 1.0 1.0 1.0 1.0
1.0 1.0 1.0 1.0 1.0 1.0 1.0 1.0
1.0 1.0 1.0 1.0 1.0 1.0 1.0 1.0
1.0 1.0 1.0 1.0 1.0 1.0 1.0 1.0
1.0 1.0 1.0 1.0 1.0 1.0 1.0 1.0
1.0 1.0 1.0 1.0 1.0 1.0 1.0 1.0
1.0 1.0 1.0 1.0 1.0 1.0 1.0 1.0
1.0 1.0 1.0 1.0 1.0 1.0 1.0 1.0
1.0 1.0 1.0 1.0 1.0 1.0 1.0 1.0
1.0 1.0 1.0 1.0 1.0 1.0 1.0 1.0
1.0 1.0 1.0 1.0 1.0 1.0 1.0 1.0
1.0 1.0 1.0 1.0 1.0 1.0 1.0 1.0
1.0 1.0 1.0 1.0 1.0 1.0 1.0 1.0
1.0 1.0 1.0 1.0 1.0 1.0 1.0 1.0
1.0 1.0 1.0 1.0 1.0 1.0 1.0 1.0
1.0 1.0 1.0 1.0 1.0 1.0 1.0 1.0
1.0 1.0 1.0 1.0 1.0 1.0 1.0 1.0
1.0 1.0 1.0 1.0 1.0 1.0 1.0 1.0
1.0 1.0 1.0 1.0 1.0 1.0 1.0 1.0
1.0 1.0 1.0 1.0 1.0 1.0 1.0 1.0
1.0 1.0 1.0 1.0 1.0 1.0 1.0 1.0
1.0 1.0 1.0 1.0 1.0 1.0 1.0 1.0
1.0 1.0 1.0 1.0 1.0 1.0 1.0 1.0
1.0 1.0 1.0 1.0 1.0 1.0 1.0 1.0
00000000: 0000 803f 0000 803f 0000 803f 0000 803f
00000010: 0000 803f 0000 803f 0000 803f 0000 803f
00000020: 0000 803f 0000 803f 0000 803f 0000 803f
00000030: 0000 803f 0000 803f 0000 803f 0000 803f
00000040: 0000 803f 0000 803f 0000 803f 0000 803f
00000050: 0000 803f 0000 803f 0000 803f 0000 803f
00000060: 0000 803f 0000 803f 0000 803f 0000 803f
00000070: 0000 803f 0000 803f 0000 803f 0000 803f
00000080: 0000 803f 0000 803f 0000 803f 0000 803f
00000090: 0000 803f 0000 803f 0000 803f 0000 803f
000000a0: 0000 803f 0000 803f 0000 803f 0000 803f
000000b0: 0000 803f 0000 803f 0000 803f 0000 803f
000000c0: 0000 803f 0000 803f 0000 803f 0000 803f
000000d0: 0000 803f 0000 803f 0000 803f 0000 803f
000000e0: 0000 803f 0000 803f 0000 803f 0000 803f
000000f0: 0000 803f 0000 803f 0000 803f 0000 803f
00000100: 0000 803f 0000 803f 0000 803f 0000 803f
00000110: 0000 803f 0000 803f 0000 803f 0000 803f
00000120: 0000 803f 0000 803f 0000 803f 0000 803f
00000130: 0000 803f 0000 803f 0000 803f 0000 803f
00000140: 0000 803f 0000 803f 0000 803f 0000 803f
00000150: 0000 803f 0000 803f 0000 803f 0000 803f
00000160: 0000 803f 0000 803f 0000 803f 0000 803f
00000170: 0000 803f 0000 803f 0000 803f 0000 803f
00000180: 0000 803f 0000 803f 0000 803f 0000 803f
00000190: 0000 803f 0000 803f 0000 803f 0000 803f
000001a0: 0000 803f 0000 803f 0000 803f 0000 803f
000001b0: 0000 803f 0000 803f 0000 803f 0000 803f
000001c0: 0000 803f 0000 803f 0000 803f 0000 803f
000001d0: 0000 803f 0000 803f 0000 803f 0000 803f
000001e0: 0000 803f 0000 803f 0000 803f 0000 803f
000001f0: 0000 803f 0000 803f 0000 803f 0000 803f
00000200: 0000 803f 0000 803f 0000 803f 0000 803f
00000210: 0000 803f 0000 803f 0000 803f 0000 803f
00000220: 0000 803f 0000 803f 0000 803f 0000 803f
00000230: 0000 803f 0000 803f 0000 803f 0000 803f
00000240: 0000 803f 0000 803f 0000 803f 0000 803f
00000250: 0000 803f 0000 803f 0000 803f 0000 803f
00000260: 0000 803f 0000 803f 0000 803f 0000 803f
00000270: 0000 803f 0000 803f 0000 803f 0000 803f
00000280: 0000 803f 0000 803f 0000 803f 0000 803f
00000290: 0000 803f 0000 803f 0000 803f 0000 803f
000002a0: 0000 803f 0000 803f 0000 803f 0000 803f
000002b0: 0000 803f 0000 803f 0000 803f 0000 803f
000002c0: 0000 803f 0000 803f 0000 803f 0000 803f
000002d0: 0000 803f 0000 803f 0000 803f 0000 803f
000002e0: 0000 803f 0000 803f 0000 803f 0000 803f
000002f0: 0000 803f 0000 803f 0000 803f 0000 803f
00000300: 0000 803f 0000 803f 0000 803f 0000 803f
00000310: 0000 803f 0000 803f 0000 803f 0000 803f
00000320: 0000 803f 0000 803f 0000 803f 0000 803f
00000330: 0000 803f 0000 803f 0000 803f 0000 803f
00000340: 0000 803f 0000 803f 0000 803f 0000 803f
00000350: 0000 803f 0000 803f 0000 803f 0000 803f
00000360: 0000 803f 0000 803f 0000 803f 0000 803f
00000370: 0000 803f 0000 803f 0000 803f 0000 803f
00000380: 0000 803f 0000 803f 0000 803f 0000 803f
00000390: 0000 803f 0000 803f 0000 803f 0000 803f
000003a0: 0000 803f 0000 803f 0000 803f 0000 803f
000003b0: 0000 803f 0000 803f 0000 803f 0000 803f
000003c0: 0000 803f 0000 803f 0000 803f 0000 803f
000003d0: 0000 803f 0000 803f 0000 803f 0000 803f
000003e0: 0000 803f 0000 803f 0000 803f 0000 803f
000003f0: 0000 803f 0000 803f 0000 803f 0000 803f

model.func.layer0_convnet.conv.linear_1.weight f4 [1024]
-0.19123389 -1.0773599 -0.79841036 -0.6361933 -1.4322263 -0.6124024 -1.7315962 -0.12672044
0.29842883 -0.2806653 -0.008705417 -0.0795065 -1.298594 -0.22185723 -0.28106332 -0.025247868
0.0519466 -0.11839462 0.68732303 -0.08009011 -0.62310517 1.316477 0.88015044 0.21480644
1.1996351 -0.6605756 -2.0372603 -1.2542791 -1.8419241 2.7835789 0.38307813 0.6386673
1.0257013 -0.7855534 -0.9755944 0.027177032 -0.7896932 1.5237195 -0.6718231 -0.96100515
1.4145453 1.3685185 1.9328542 -0.1850889 -0.53486264 -0.018122872 -0.5511078 0.7780593
0.24753605 0.50731546 1.8201506 1.3083489 1.9087192 0.1299242 1.0708842 0.28981426
1.1195682 0.26862964 -2.456978 0.74823016 0.21320614 -0.9955337 -0.46899518 0.3233403
0.18085453 -0.7496889 -0.5308427 0.5110601 0.3312665 -0.2894369 0.10673026 -0.52156776
-0.67130464 0.23199274 -1.4985824 1.3999567 -0.78937966 0.4922253 -1.7448957 0.17423378
-0.3388713 -0.25179115 0.4205077 -1.2747681 0.5391195 -0.87032944 0.060909864 0.9313424
0.16311692 -0.45864856 0.4976767 -0.5637138 -0.74323314 -0.39537948 0.801775 -1.9231944
-0.78916436 -0.60367936 -0.9994504 1.5291213 0.2725597 -0.6173949 0.05769215 0.21477227
0.11744504 -1.2729019 0.8000747 1.7352214 0.6666909 1.4592203 1.0327985 1.5341108
0.45653754 -0.33046845 0.06999984 0.57912326 0.38423023 0.9370803 0.178634 -0.49412468
0.021835761 1.1642723 -2.567154 0.8999934 -1.3601054 -0.084057 0.9334823 -0.1509662
-1.635782 0.59663725 0.3559727 -0.76292104 0.46515006 -0.8301989 -0.5290628 1.4240054
0.6967542 -0.6548759 3.0954783 0.3046587 0.9534144 -0.83906627 -1.5766606 -0.6895278
-0.90638494 0.35631886 -1.2191375 -1.0086985 -0.57223064 -1.1028614 1.5603447 -0.51291513
-0.47914428 -0.5335702 0.6847218 -0.7372421 0.66347533 -0.43274364 0.68507123 0.37419716
0.24479644 0.86279666 0.7149385 0.7496665 0.1838695 0.7061669 -0.75105375 -0.23356052
-0.56046194 -0.8805696 2.2981536 0.029137628 1.3530915 0.67761934 1.465528 0.2231465
-0.58847153 -0.57862544 -0.73045737 0.45990694 -0.63853586 -1.8578198 -1.454211 1.4660788
1.1062768 1.1064456 -0.53638804 -1.0625583 0.70127314 -1.486201 -0.682926 0.24762776
0.35687855 0.8138598 -0.47400394 0.449712 0.37878814 0.53014696 -0.87062955 1.6518627
0.32855177 1.6978158 1.0886196 -0.7846791 -0.06770349 -0.8061398 1.6666436 -0.48388296
0.34594363 -1.1448375 -0.58407354 0.548589 0.2605667 0.81010187 -1.6984695 0.258941
-0.23630735 -0.7354488 -0.09681685 -0.5185063 -1.118215 0.70133764 0.54792 0.042629357
1.1615745 -0.39949146 0.23383881 0.8051506 -0.2870472 0.7339649 -1.7720929 -0.70673966
2.2088294 -1.0101936 1.8485469 0.046365626 1.3781621 -0.23047505 -1.4039128 0.08375932
0.6085734 -1.274356 0.20573671 -0.7902955 0.84779423 1.1848143 0.61086917 -0.45503473
1.6320666 -0.11126085 -2.0433235 -1.0827918 0.4878513 -0.53226864 1.4298438 0.28605178
00000000: d1d2 43be eee6 89bf 9f64 4cbf 90dd 22bf
00000010: 3153 b7bf 67c6 1cbf f2a4 ddbf 01c3 01be
00000020: aacb 983e 5db3 8fbe 2aa1 0ebc 4ed4 a2bd
00000030: 5438 a6bf 8b2e 63be 88e7 8fbe 9ed4 cebc
00000040: f5c5 543d e178 f2bd 67f4 2f3f 4906 a4bd
00000050: d283 1fbf 5182 a83f 8a51 613f 38f6 5b3e
00000060: a58d 993f 7c1b 29bf 7962 02c0 388c a0bf
00000070: 2bc4 ebbf 2826 3240 d122 c43e b37f 233f
00000080: 2e4a 833f 071a 49bf 8ec0 79bf 5ea2 de3c
00000090: 5529 4abf 3e09 c33f 99fc 2bbf 6f04 76bf
000000a0: d20f b53f 9d2b af3f c467 f73f f287 3dbe
000000b0: c2ec 08bf 6b76 94bc 6715 0dbf e52e 473f
000000c0: 177a 7d3e 6ddf 013f b2fa e83f fa77 a73f
000000d0: e950 f43f d90a 053e bc12 893f 8962 943e
000000e0: 034e 8f3f d389 893e 213f 1dc0 038c 3f3f
000000f0: b652 5a3e 4cdb 7ebf 2320 f0be dc8c a53e
00000100: ee31 393e 9deb 3fbf 4fe5 07bf d6d4 023f
00000110: c39b a93e 1331 94be 6595 da3d 7785 05bf
00000120: 9fda 2bbf 818f 6d3e 8cd1 bfbf c831 b33f
00000130: c914 4abf f404 fc3e be58 dfbf 576a 323e
00000140: 8a80 adbe c5ea 80be c94c d73e 9a2b a3bf
00000150: bc03 0a3f e9cd 5ebf 9f7c 793d 756c 6e3f
00000160: 1f08 273e fcd3 eabe 7bcf fe3e 8c4f 10bf
00000170: 8744 3ebf 2e6f cabe 2041 4d3f 3c2b f6bf
00000180: ad06 4abf bb8a 1abf fbdb 7fbf 3fba c33f
00000190: f28c 8b3e 980d 1ebf 9b4e 6c3d 43ed 5b3e
000001a0: 0687 f03d 73ee a2bf b2d1 4c3f bc1b de3f
000001b0: 41ac 2a3f bbc7 ba3f be32 843f be5d c43f
000001c0: 4abf e93e 2933 a9be 135c 8f3d 6c41 143f
000001d0: d3b9 c43e 7fe4 6f3f d5eb 363e e9fd fcbe
000001e0: e9e0 b23c e006 953f 404c 24c0 f865 663f
000001f0: ef17 aebf 1426 acbd b2f8 6e3f e296 1abe
00000200: 4e61 d1bf 38bd 183f 0e42 b63e cb4e 43bf
00000210: 2628 ee3e ea87 54bf a970 07bf cf45 b63f
00000220: 7c5e 323f f2a5 27bf 511c 4640 3afc 9b3e
00000230: f712 743f 0ccd 56bf 04d0 c9bf e584 30bf
00000240: d808 68bf 6d6f b63e b30c 9cbf 081d 81bf
00000250: b57d 12bf 902a 8dbf 60b9 c73f 684e 03bf
00000260: 6652 f5be 0e98 08bf ee49 2f3f e6bb 3cbf
00000270: 85d9 293f 9390 ddbe d460 2f3f c596 bf3e
00000280: ebab 7a3e 3ee0 5c3f 3606 373f 25ea 3f3f
00000290: 4948 3c3e 5bc7 343f 0f45 40bf 7d2a 6fbe
000002a0: 6f7a 0fbf 026d 61bf f314 1340 09b2 ee3c
000002b0: 1a32 ad3f 7678 2d3f 6c96 bb3f 8480 643e
000002c0: 12a6 16bf cc20 14bf 41ff 3abf ec78 eb3e
000002d0: 1677 23bf 0acd edbf 9623 babf 78a8 bb3f
000002e0: 7a9a 8d3f 02a0 8d3f ba50 09bf e901 88bf
000002f0: a386 333f d63b bebf 3dd4 2ebf 2292 7d3e
00000300: c9b8 b63e 1e59 503f a5b0 f2be a740 e63e
00000310: 85f0 c13e b6b7 073f 94e1 5ebf 3d70 d33f
00000320: f037 a83e 0752 d93f e357 8b3f bbe0 48bf
00000330: 21a8 8abd 2e5f 4ebf 9454 d53f 82bf f7be
00000340: 861f b13e 098a 92bf d885 15bf 5470 0c3f
00000350: 0069 853e d662 4f3f 7367 d9bf ea93 843e
00000360: 8efa 71be 5f46 3cbf ea47 c6bd d4bc 04bf
00000370: ab21 8fbf dd8a 333f 7c44 0c3f 1f9c 2e3d
00000380: 79ae 943f 258a ccbe 7173 6f3e 5a1e 4e3f
00000390: daf7 92be 20e5 3b3f f1d3 e2bf e4ec 34bf
000003a0: 765d 0d40 064e 81bf 2f9d ec3f e2e9 3d3d
000003b0: 9e67 b03f a701 6cbe 6ab3 b3bf 028a ab3d
000003c0: 77cb 1b3f 191e a3bf a5ac 523e ce50 4abf
000003d0: 0b09 593f ffa7 973f ec61 1c3f 50fa e8be
000003e0: 8fe7 d03f bbdc e3bd d0c5 02c0 ec98 8abf
000003f0: a5c7 f93e c242 08bf 1f05 b73f 6175 923e

model.func.layer0_convnet.conv.linear_1.output_mask f4 [32]
1.0 1.0 1.0 1.0 1.0 1.0 1.0 1.0
1.0 1.0 1.0 1.0 1.0 1.0 1.0 1.0
1.0 1.0 1.0 1.0 1.0 1.0 1.0 1.0
1.0 1.0 1.0 1.0 1.0 1.0 1.0 1.0
00000000: 0000 803f 0000 803f 0000 803f 0000 803f
00000010: 0000 803f 0000 803f 0000 803f 0000 803f
00000020: 0000 803f 0000 803f 0000 803f 0000 803f
00000030: 0000 803f 0000 803f 0000 803f 0000 803f
00000040: 0000 803f 0000 803f 0000 803f 0000 803f
00000050: 0000 803f 0000 803f 0000 803f 0000 803f
00000060: 0000 803f 0000 803f 0000 803f 0000 803f
00000070: 0000 803f 0000 803f 0000 803f 0000 803f

model.func.layer0_convnet.conv.fc.layer0.weight f4 [8, 8]
-0.5540116 1.6625907 -0.6364671 -0.3205526 0.7969315 -1.0864593 -1.0768753 2.1536486
-0.7326096 0.71730924 -0.04684033 -0.5413605 -0.41235843 -0.7543948 -0.86996925 0.4364167
-0.20155323 -1.9637549 -0.40258092 0.70517087 0.20501924 0.09977655 1.002263 -0.5335867
-1.3624943 0.04458474 -1.09458 1.8452518 -0.2600066 -1.3640118 -1.6274014 -1.7549324
-0.26221168 -2.271915 -1.2504718 0.7007482 0.10203329 -1.0467474 -1.8980962 -0.9735588
0.14578474 -1.0775245 0.00682209 2.0799809 1.4802119 0.078219905 0.6225233 -0.63230157
-0.17738704 -0.60240966 -1.9010503 -0.44718105 -0.58333576 -1.2449422 0.440949 0.19674163
1.16056 -1.6122074 0.2517609 -1.4572119 1.636831 -2.4085133 -1.5238887 -0.41473055
00000000: b4d3 0dbf c6cf d43f 82ef 22bf 781f a4be
00000010: b403 4c3f 1911 8bbf 0dd7 89bf 61d5 0940
00000020: 4e8c 3bbf 94a1 373f a5db 3fbd 9a96 0abf
00000030: a520 d3be 0520 41bf 4eb6 5ebf 0272 df3e
00000040: f863 4ebe 525c fbbf 161f cebe 1486 343f
00000050: 90f0 513e a657 cc3d 274a 803f 2399 08bf
00000060: 3766 aebf 7d9e 363d 331b 8cbf 3631 ec3f
00000070: 961f 85be f097 aebf b04e d0bf a0a1 e0bf
00000080: 9c40 86be 0e67 11c0 760f a0bf 3c64 333f
00000090: d4f6 d03d d2fb 85bf d1f4 f2bf 263b 79bf
000000a0: 9848 153e 53ec 89bf d78b df3b 681e 0540
000000b0: 9577 bd3f c231 a03d b05d 1f3f 84de 21bf
000000c0: f3a4 35be 8537 1abf 9e55 f3bf eaf4 e4be
000000d0: 7e55 15bf 445a 9fbf 11c4 e13e a376 493e
000000e0: 3b8d 943f d05c cebf cee6 803e eb85 babf
000000f0: ae83 d13f 1525 1ac0 c90e c3bf 9057 d4be

model.func.layer0_convnet.conv.fc.layer1.weight f4 [8, 96]
1.8080678 0.52124363 1.7039225 -1.1485841 0.43198863 -0.47609198 -0.32448274 -1.7061853
0.18408078 -0.1324352 -1.1802851 -0.43844444 -0.9722108 0.81824875 -0.655502 -0.6272275
0.02710289 -0.4045847 -0.005177761 -1.8089674 -0.9885694 -0.19910093 0.59822583 -0.14622627
0.6997494 1.6224321 -0.42870793 0.6976883 -1.6227396 -0.84538615 -0.47645143 0.10094747
0.3019118 -0.61208797 -0.07245349 0.31100154 0.60856867 0.57422596 -0.09706339 -0.47885174
-0.18025774 -1.0673512 1.4325238 -2.340469 0.15114717 0.27266732 -0.6815341 0.5170938
-0.63351 -0.96047777 -1.3723049 1.6237285 -0.3056044 -1.1458062 1.0314727 -1.0489866
-1.221127 0.19279471 -2.7775025 -1.4005045 -0.9251491 1.558265 -0.9499337 -0.43905598
0.26317024 -1.0902058 -0.23319876 1.3975741 1.203179 -0.15088436 1.936077 0.7573159
-0.95353234 0.34816375 -1.7790551 2.501547 0.35483703 0.4600352 0.75401413 0.14189173
1.3566039 2.4739587 -1.7579952 0.26928362 -0.38115683 0.43567595 1.1177995 1.5608602
0.28441975 0.20057619 -0.5346536 0.8628839 -0.12228243 -0.9136161 0.36596552 -0.23643446
-1.6783481 -0.5174035 -0.050101448 1.0522085 -0.12558275 -0.3120562 0.85880774 -1.4417185
-1.1899118 -1.085378 -1.7266872 0.99205816 -1.6968635 0.47682902 1.9709716 -0.63870543
1.9650718 1.6302102 -0.5480439 0.058273405 -0.9558666 -0.28213918 0.20503324 0.85826814
0.6676621 0.2544251 0.3157842 -1.2123915 0.6694555 -0.723157 -0.69748086 -0.045576695
-0.7514822 -0.48438185 1.1632813 -1.3095591 -1.0545378 0.21712135 -1.1754212 1.4622471
0.2366336 -1.739255 -0.49366227 -0.047221113 0.42210257 -0.52569216 1.1865305 -2.2484703
0.62557447 -0.43107417 0.4179576 0.52750254 0.26141784 -0.6086543 1.5416802 -1.5185692
0.3137156 -1.7288026 -1.87888 -0.8453079 -2.1800015 -0.6130135 -0.30036715 -2.003168
-0.97813976 -0.51713365 0.6876931 3.032649 1.1994333 -0.32627916 1.0851886 -1.453879
1.8667246 1.3935403 -0.4110549 0.67479753 -1.2346094 1.0314977 2.0818021 0.1545844
0.4385152 2.3555543 0.46784583 -1.0404843 -0.059317987 0.12186412 -1.5816214 0.4740671
-0.6947851 -0.56480795 -0.8435231 0.25336757 -1.3799382 -1.3371855 -0.79446423 2.1840773
0.37357464 -1.3746794 0.96974 -0.6615375 0.1678346 -1.1331838 1.1094419 -1.2408305
1.4928119 0.69170594 0.039977707 -0.24091056 -0.5472565 0.67435306 -0.15355046 0.5240424
0.085180484 1.5770426 -0.9962494 0.28937778 -0.7218749 0.33160228 -0.074689455 -0.3161083
0.48481932 -1.17152 0.80916744 1.1126513 -0.9021435 -0.011195173 -1.1242667 -0.5967605
-0.12371033 0.0990463 -1.6267993 -0.3306548 -0.34199268 -0.8168314 -0.54594505 0.60071117
0.44900796 2.323481 0.5173528 1.4234142 1.8954866 -1.5295972 0.28154856 0.625904
-0.8799548 1.0440098 -2.8459346 0.56877565 -0.12552577 -0.78500086 -0.7190406 -0.7560271
0.108237885 -0.8479905 -0.07531302 0.94794226 0.3734873 -1.2930356 -0.6109545 -0.30264634
00000000: c46e e73f 3970 053f 221a da3f ce04 93bf
00000010: 9d2d dd3e 54c2 f3be 9a22 a6be 4864 dabf
00000020: ac7f 3c3e 189d 07be 9513 97bf ca7b e0be
00000030: cfe2 78bf c078 513f fbce 27bf fb91 20bf
00000040: e106 de3c ba25 cfbe 35aa a9bb 3e8c e7bf
00000050: e212 7dbf 1de1 4bbe 5425 193f 57bc 15be
00000060: c722 333f dbab cf3f 9b7f dbbe b39b 323f
00000070: eeb5 cfbf 3a6b 58bf 71f1 f3be 8cbd ce3d
00000080: 2f94 9a3e ccb1 1cbf 7f62 94bd 983b 9f3e
00000090: 28cb 1b3f 7900 133f 2cc9 c6bd 0e2c f5be
000000a0: 7c95 38be f79e 88bf f15c b73f 3eca 15c0
000000b0: 53c6 1a3e 0d9b 8b3e 0579 2ebf 4260 043f
000000c0: b62d 22bf dfe1 75bf b0a7 afbf 56d6 cf3f
000000d0: 2e78 9cbe c7a9 92bf 4c07 843f 3145 86bf
000000e0: e44d 9cbf fa6b 453e 9ac2 31c0 bb43 b3bf
000000f0: 92d6 6cbf 3a75 c73f db2e 73bf f2cb e0be
00000100: 40be 863e dd8b 8bbf a8cb 6ebe b5e3 b23f
00000110: c501 9a3f 6e81 1abe 5fd1 f73f 74df 413f
00000120: b21a 74bf 8542 b23e 14b8 e3bf 5919 2040
00000130: 33ad b53e bc89 eb3e 1207 413f 114c 113e
00000140: 32a5 ad3f 5755 1e40 fd05 e1bf 8bdf 893e
00000150: fd26 c3be eb10 df3e 0e14 8f3f 44ca c73f
00000160: 779f 913e d863 4d3e 0fdf 08bf f6e5 5c3f
00000170: 366f fabd bfe2 69bf d55f bb3e e01b 72be
00000180: 1cd4 d6bf 8e74 04bf 2d37 4dbd c5ae 863f
00000190: c498 00be d5c5 9fbe d3da 5b3f 3b8a b8bf
000001a0: 084f 98bf abed 8abf 1604 ddbf 86f7 7d3f
000001b0: d332 d9bf ef22 f43e cc48 fc3f 3382 23bf
000001c0: 7987 fb3f baaa d03f 9b4c 0cbf 18b0 6e3d
000001d0: acb3 74bf 8c74 90be 3cf4 513e 76b7 5b3f
000001e0: e7eb 2a3f 0244 823e 77ae a13e a52f 9bbf
000001f0: 7061 2b3f d120 39bf 1b8e 32bf a1ae 3abd
00000200: 2361 40bf e600 f8be 67e6 943f a29f a7bf
00000210: 18fb 86bf 0f55 5e3e 3474 96bf ea2a bb3f
00000220: 1450 723e e89f debf 4dc1 fcbe ed6a 41bd
00000230: d41d d83e c393 06bf 3be0 973f f0e6 0fc0
00000240: a625 203f c1b5 dcbe 8afe d53e 680a 073f
00000250: 8fd8 853e c5d0 1bbf c755 c53f 7a60 c2bf
00000260: 559f a03e 6749 ddbf 247f f0bf 1966 58bf
00000270: 2585 0bc0 74ee 1cbf b9c9 99be e833 00c0
00000280: 5e67 7abf df62 04bf a80c 303f ec16 4240
00000290: 0887 993f 100e a7be 76e7 8a3f b518 babf
000002a0: d5f0 ee3f 875f b23f ca75 d2be 88bf 2c3f
000002b0: ae07 9ebf 1e08 843f 3f3c 0540 5f4b 1e3e
000002c0: 1085 e03e 67c1 1640 7d89 ef3e 972e 85bf
000002d0: 6bf7 72bd e593 f93d 9272 cabf ecb8 f23e
000002e0: 70dd 31bf 4197 10bf 21f1 57bf 65b9 813e
000002f0: d1a1 b0bf e528 abbf 0262 4bbf ecc7 0b40
00000300: 2d45 bf3e 7ff5 afbf e140 783f 865a 29bf
00000310: d5dc 2b3e 2b0c 91bf 3102 8e3f 89d3 9ebf
00000320: 7614 bf3f a413 313f aabf 233d 42b1 76be
00000330: 0119 0cbf 67a2 2c3f 553c 1dbe a527 063f
00000340: 1b73 ae3d 88dc c93f 330a 7fbf 5329 943e
00000350: cbcc 38bf c6c7 a93e c9f6 98bd f2d8 a1be
00000360: 3d3a f83e 5ef4 95bf 9925 4f3f 5c6b 8e3f
00000370: e0f2 66bf f56b 37bc f9e7 8fbf 4cc5 18bf
00000380: d75b fdbd c9d8 ca3d f63a d0bf 964b a9be
00000390: aa19 afbe dd1b 51bf 0ec3 0bbf 35c8 193f
000003a0: 5fe4 e53e eab3 1440 3c71 043f 7032 b63f
000003b0: 4e9f f23f d7c9 c3bf 2227 903e 3f3b 203f
000003c0: b844 61bf 1da2 853f cb23 36c0 489b 113f
000003d0: d489 00be d1f5 48bf 0b13 38bf fe8a 41bf
000003e0: d3ab dd3d e815 59bf b63d 9abd 58ac 723f
000003f0: ba39 bf3e 3182 a5bf 8467 1cbf 76f4 9abe

model.func.layer0_convnet.conv.tp.output_mask f4 [288]
1.0 1.0 1.0 1.0 1.0 1.0 1.0 1.0
1.0 1.0 1.0 1.0 1.0 1.0 1.0 1.0
1.0 1.0 1.0 1.0 1.0 1.0 1.0 1.0
1.0 1.0 1.0 1.0 1.0 1.0 1.0 1.0
1.0 1.0 1.0 1.0 1.0 1.0 1.0 1.0
1.0 1.0 1.0 1.0 1.0 1.0 1.0 1.0
1.0 1.0 1.0 1.0 1.0 1.0 1.0 1.0
1.0 1.0 1.0 1.0 1.0 1.0 1.0 1.0
1.0 1.0 1.0 1.0 1.0 1.0 1.0 1.0
1.0 1.0 1.0 1.0 1.0 1.0 1.0 1.0
1.0 1.0 1.0 1.0 1.0 1.0 1.0 1.0
1.0 1.0 1.0 1.0 1.0 1.0 1.0 1.0
1.0 1.0 1.0 1.0 1.0 1.0 1.0 1.0
1.0 1.0 1.0 1.0 1.0 1.0 1.0 1.0
1.0 1.0 1.0 1.0 1.0 1.0 1.0 1.0
1.0 1.0 1.0 1.0 1.0 1.0 1.0 1.0
1.0 1.0 1.0 1.0 1.0 1.0 1.0 1.0
1.0 1.0 1.0 1.0 1.0 1.0 1.0 1.0
1.0 1.0 1.0 1.0 1.0 1.0 1.0 1.0
1.0 1.0 1.0 1.0 1.0 1.0 1.0 1.0
1.0 1.0 1.0 1.0 1.0 1.0 1.0 1.0
1.0 1.0 1.0 1.0 1.0 1.0 1.0 1.0
1.0 1.0 1.0 1.0 1.0 1.0 1.0 1.0
1.0 1.0 1.0 1.0 1.0 1.0 1.0 1.0
1.0 1.0 1.0 1.0 1.0 1.0 1.0 1.0
1.0 1.0 1.0 1.0 1.0 1.0 1.0 1.0
1.0 1.0 1.0 1.0 1.0 1.0 1.0 1.0
1.0 1.0 1.0 1.0 1.0 1.0 1.0 1.0
1.0 1.0 1.0 1.0 1.0 1.0 1.0 1.0
1.0 1.0 1.0 1.0 1.0 1.0 1.0 1.0
1.0 1.0 1.0 1.0 1.0 1.0 1.0 1.0
1.0 1.0 1.0 1.0 1.0 1.0 1.0 1.0
00000000: 0000 803f 0000 803f 0000 803f 0000 803f
00000010: 0000 803f 0000 803f 0000 803f 0000 803f
00000020: 0000 803f 0000 803f 0000 803f 0000 803f
00000030: 0000 803f 0000 803f 0000 803f 0000 803f
00000040: 0000 803f 0000 803f 0000 803f 0000 803f
00000050: 0000 803f 0000 803f 0000 803f 0000 803f
00000060: 0000 803f 0000 803f 0000 803f 0000 803f
00000070: 0000 803f 0000 803f 0000 803f 0000 803f
00000080: 0000 803f 0000 803f 0000 803f 0000 803f
00000090: 0000 803f 0000 803f 0000 803f 0000 803f
000000a0: 0000 803f 0000 803f 0000 803f 0000 803f
000000b0: 0000 803f 0000 803f 0000 803f 0000 803f
000000c0: 0000 803f 0000 803f 0000 803f 0000 803f
000000d0: 0000 803f 0000 803f 0000 803f 0000 803f
000000e0: 0000 803f 0000 803f 0000 803f 0000 803f
000000f0: 0000 803f 0000 803f 0000 803f 0000 803f
00000100: 0000 803f 0000 803f 0000 803f 0000 803f
00000110: 0000 803f 0000 803f 0000 803f 0000 803f
00000120: 0000 803f 0000 803f 0000 803f 0000 803f
00000130: 0000 803f 0000 803f 0000 803f 0000 803f
00000140: 0000 803f 0000 803f 0000 803f 0000 803f
00000150: 0000 803f 0000 803f 0000 803f 0000 803f
00000160: 0000 803f 0000 803f 0000 803f 0000 803f
00000170: 0000 803f 0000 803f 0000 803f 0000 803f
00000180: 0000 803f 0000 803f 0000 803f 0000 803f
00000190: 0000 803f 0000 803f 0000 803f 0000 803f
000001a0: 0000 803f 0000 803f 0000 803f 0000 803f
000001b0: 0000 803f 0000 803f 0000 803f 0000 803f
000001c0: 0000 803f 0000 803f 0000 803f 0000 803f
000001d0: 0000 803f 0000 803f 0000 803f 0000 803f
000001e0: 0000 803f 0000 803f 0000 803f 0000 803f
000001f0: 0000 803f 0000 803f 0000 803f 0000 803f
00000200: 0000 803f 0000 803f 0000 803f 0000 803f
00000210: 0000 803f 0000 803f 0000 803f 0000 803f
00000220: 0000 803f 0000 803f 0000 803f 0000 803f
00000230: 0000 803f 0000 803f 0000 803f 0000 803f
00000240: 0000 803f 0000 803f 0000 803f 0000 803f
00000250: 0000 803f 0000 803f 0000 803f 0000 803f
00000260: 0000 803f 0000 803f 0000 803f 0000 803f
00000270: 0000 803f 0000 803f 0000 803f 0000 803f
00000280: 0000 803f 0000 803f 0000 803f 0000 803f
00000290: 0000 803f 0000 803f 0000 803f 0000 803f
000002a0: 0000 803f 0000 803f 0000 803f 0000 803f
000002b0: 0000 803f 0000 803f 0000 803f 0000 803f
000002c0: 0000 803f 0000 803f 0000 803f 0000 803f
000002d0: 0000 803f 0000 803f 0000 803f 0000 803f
000002e0: 0000 803f 0000 803f 0000 803f 0000 803f
000002f0: 0000 803f 0000 803f 0000 803f 0000 803f
00000300: 0000 803f 0000 803f 0000 803f 0000 803f
00000310: 0000 803f 0000 803f 0000 803f 0000 803f
00000320: 0000 803f 0000 803f 0000 803f 0000 803f
00000330: 0000 803f 0000 803f 0000 803f 0000 803f
00000340: 0000 803f 0000 803f 0000 803f 0000 803f
00000350: 0000 803f 0000 803f 0000 803f 0000 803f
00000360: 0000 803f 0000 803f 0000 803f 0000 803f
00000370: 0000 803f 0000 803f 0000 803f 0000 803f
00000380: 0000 803f 0000 803f 0000 803f 0000 803f
00000390: 0000 803f 0000 803f 0000 803f 0000 803f
000003a0: 0000 803f 0000 803f 0000 803f 0000 803f
000003b0: 0000 803f 0000 803f 0000 803f 0000 803f
000003c0: 0000 803f 0000 803f 0000 803f 0000 803f
000003d0: 0000 803f 0000 803f 0000 803f 0000 803f
000003e0: 0000 803f 0000 803f 0000 803f 0000 803f
000003f0: 0000 803f 0000 803f 0000 803f 0000 803f

model.func.layer0_convnet.conv.linear_2.weight f4 [5120]
-0.21413402 -2.2321084 -1.4911044 -0.7617148 0.525127 -1.6109468 0.31097436 -0.7705228
0.3329345 0.028613769 0.5331396 -0.4287222 -0.77437496 0.8580197 -0.66929066 -1.6119946
-1.5231334 -0.30276662 -2.096322 1.8645236 -0.027756182 -0.55903053 -0.8509205 -1.0159398
-0.43953067 0.74571973 -1.0366396 -0.9548489 0.26141128 -1.9507755 0.40963677 -0.5109469
-0.44075695 -1.0150403 0.5413823 -0.938882 1.2484003 -0.72969407 -0.45316276 -1.2230614
0.8331972 -1.4088497 0.042288262 0.750663 -1.2985908 -0.381923 0.09434114 -0.3247948
0.57666975 -0.7042244 -0.9403858 -0.5991724 -0.19278798 -0.11700982 -1.9093308 -0.22662647
1.0116929 -2.5195065 0.08351301 -1.6792434 -0.9202771 -1.4766351 2.8707764 -1.2536936
1.3991711 -0.41539356 -1.2936115 -0.57353646 -0.94311416 1.0607109 -0.18631555 -0.3623738
-1.2953732 1.4246969 1.4595293 -2.4014103 -0.8891264 0.03476907 0.8328294 -2.5482607
-1.7227396 -1.8596712 1.3922359 0.08098972 -0.9170215 -1.0420737 -0.55110776 -1.0464396
0.49433282 -1.1353484 1.0429838 -1.0808693 0.53872734 -2.9321933 -0.15589139 -0.2733046
-0.42837065 1.5919201 0.46340916 -0.38296044 -0.7564537 0.4104478 -0.3101141 -1.1761314
0.8844479 1.0122817 -1.4723071 0.40338457 -1.122576 0.8988115 1.7276084 -0.2102474
0.53086007 0.4028268 -0.31670654 -2.481828 0.18460636 -1.0872117 -1.3617703 -0.1993045
-1.9982688 -1.2196776 -1.4561545 2.1977396 -1.4446387 -0.44930604 -2.0478 0.5130888
-2.1833107 0.7258571 -1.8031446 -1.5158409 2.4040167 -0.08418767 0.7798908 0.044486962
0.3566987 1.2411625 1.4924515 1.8164681 -1.08235 1.4584262 -0.18125908 1.5930303
-1.1230478 1.7938869 -1.3967266 0.6772316 0.4665085 -1.345166 0.49132523 -1.0208865
1.1440492 -0.2362698 0.063223146 -0.71445245 -0.80088186 -0.8005249 -0.5603578 -2.9578223
1.2372369 0.46212515 -0.9133417 0.16409595 -0.045515176 0.22735815 -0.52918285 -1.0811114
0.37695366 -0.46556017 0.21522845 -0.3524434 0.6551618 -1.2936649 0.4096918 0.56248564
-1.0615946 0.18465644 -1.261137 0.56469816 -1.6243973 -1.3068492 -0.5950779 -1.4281179
0.5693204 -0.7587452 -0.15358876 0.31998733 -0.23194064 -2.2095578 -0.9606336 -2.3491495
0.4489063 0.34644586 -1.398752 0.11310308 0.6712577 0.6168588 -0.18828253 0.7754176
-0.16249348 -1.0518268 1.7932965 -0.68650454 1.6790172 0.74192214 1.443823 0.6513132
1.3097568 0.4731641 -0.22192535 -1.2999928 1.0366099 -0.4628516 -0.15153381 -0.095263675
0.3462666 0.24770501 1.190039 0.6958369 -1.21791 -1.6801621 0.029886996 -0.5486349
0.015454538 -3.4462492 1.4450855 0.27852103 1.6887532 1.46975 -0.6627342 -1.204595
0.157819 -0.7093484 -0.76418436 0.9393092 -0.18104964 0.33055127 -1.3694462 0.58196133
3.3964193 1.2061847 -2.118357 -0.6811918 0.40339234 -1.0236578 -1.7400036 -0.32419896
0.4205694 0.20513988 -0.5185781 -0.22562063 -1.7778311 1.2468317 -0.6753364 -3.0704947
00000000: f345 5bbe ddda 0ec0 82dc bebf beff 42bf
00000010: b96e 063f 8133 cebf 0838 9f3e fb40 45bf
00000020: 6476 aa3e 6c67 ea3c d67b 083f 7a81 dbbe
00000030: 703d 46bf 2ea7 5b3f a256 2bbf d755 cebf
00000040: 09f6 c2bf 3a04 9bbe 242a 06c0 b6a8 ee3f
00000050: ef60 e3bc a01c 0fbf edd5 59bf 510a 82bf
00000060: 2a0a e1be 7de7 3e3f 9bb0 84bf fa70 74bf
00000070: b3d7 853e 03b3 f9bf e9bb d13e 6bcd 02bf
00000080: e5aa e1be d7ec 81bf 0898 0a3f 925a 70bf
00000090: 95cb 9f3f 3bcd 3abf f304 e8be 478d 9cbf
000000a0: 694c 553f 3055 b4bf 7536 2d3d 732b 403f
000000b0: 3938 a6bf 698b c3be ed35 c13d 814b a6be
000000c0: a1a0 133f 0d48 34bf 20bd 70bf 5d63 19bf
000000d0: 366a 45be d8a2 efbd f464 f4bf c510 68be
000000e0: 277f 813f 983f 21c0 de08 ab3d 73f1 d6bf
000000f0: 4897 6bbf 6102 bdbf cdba 3740 0879 a0bf
00000100: 0a18 b33f 77ae d4be 1095 a5bf 49d3 12bf
00000110: ee6f 71bf 60c5 873f 81c9 3ebe 0f89 b9be
00000120: cace a5bf 785c b63f dbd1 ba3f b5b0 19c0
00000130: ca9d 63bf 036a 0e3d 4f34 553f b416 23c0
00000140: bb82 dcbf b509 eebf c934 b23f f0dd a53d
00000150: ecc1 6abf ac62 85bf 6615 0dbf bcf1 85bf
00000160: 3119 fd3e 1953 91bf 7e80 853f ed59 8abf
00000170: 09ea 093f 0ea9 3bc0 fea1 1fbe 95ee 8bbe
00000180: 6653 dbbe 0ac4 cb3f f743 ed3e 6413 c4be
00000190: f3a6 41bf 3726 d23e 46c7 9ebe 798b 96bf
000001a0: 2d6b 623f 7292 813f 8f74 bcbf 6c88 ce3e
000001b0: 92b0 8fbf 8318 663f 4622 dd3f 184b 57be
000001c0: 72e6 073f 503f ce3e 5c27 a2be 45d6 1ec0
000001d0: 7309 3d3e c129 8bbf 7d4e aebf 7b16 4cbe
000001e0: 46c7 ffbf 651e 9cbf 4563 babf c4a7 0c40
000001f0: ece9 b8bf 710b e6be 280f 03c0 ca59 033f
00000200: 5dbb 0bc0 c5d1 393f 71cd e6bf 1307 c2bf
00000210: 69db 1940 966a acbd eca6 473f f637 363d
00000220: 36a1 b63e 6ade 9e3f a708 bf3f 0782 e83f
00000230: 728a 8abf b6ad ba3f fb9b 39be 6be8 cb3f
00000240: 08c0 8fbf 169e e53f f0c7 b2bf 0d5f 2d3f
00000250: 34da ee3e 662e acbf fb8e fb3e 69ac 82bf
00000260: 3470 923f b6f0 71be 237b 813d 5be6 36bf
00000270: 9806 4dbf 33ef 4cbf 9c73 0fbf f64c 3dc0
00000280: c75d 9e3f ab9b ec3e c3d0 69bf c508 283e
00000290: 1f6e 3abd 93d0 683e 8778 07bf dc61 8abf
000002a0: 1200 c13e e75d eebe d964 5c3e 7673 b4be
000002b0: afb8 273f d096 a5bf 20c3 d13e 0fff 0f3f
000002c0: 55e2 87bf 9416 3d3e f06c a1bf 0f90 103f
000002d0: 40ec cfbf d646 a7bf 0657 18bf 91cc b6bf
000002e0: fbbe 113f 203d 42bf 5f46 1dbe 61d5 a33e
000002f0: d981 6dbe 6569 0dc0 15ec 75bf 7758 16c0
00000300: 0cd7 e53e 5a61 b13e 4e0a b3bf 96a2 e73d
00000310: 8bd7 2b3f 75ea 1d3f 23cd 40be c581 463f
00000320: b164 26be 43a2 86bf bd8a e53f c3be 2fbf
00000330: 09ea d63f 9cee 3d3f 31cf b83f 76bc 263f
00000340: 1ca6 a73f 9142 f23e 6640 63be 2a66 a6bf
00000350: a2af 843f e3fa ecbe ae2b 1bbe 9a19 c3bd
00000360: db49 b13e 62a6 7d3e 3353 983f 5e22 323f
00000370: 7ae4 9bbf 8d0f d7bf 93d5 f43c 5673 0cbf
00000380: 0835 7d3c 598f 5cc0 90f8 b83f 4f9a 8e3e
00000390: 1129 d83f c520 bc3f f3a8 29bf 2b30 9abf
000003a0: 4e9b 213e db97 35bf 96a1 43bf 9176 703f
000003b0: 1465 39be 043e a93e 034a afbf 6bfb 143f
000003c0: ef5e 5940 4364 9a3f 2993 07c0 9662 2ebf
000003d0: 7189 ce3e 3807 83bf 70b8 debf 68fd a5be
000003e0: df54 d73e 3010 523e 89c1 04bf 1809 67be
000003f0: f88f e3bf 2e98 9f3f d9e2 2cbf fc82 44c0

model.func.layer0_convnet.conv.linear_2.output_mask f4 [352]
1.0 1.0 1.0 1.0 1.0 1.0 1.0 1.0
1.0 1.0 1.0 1.0 1.0 1.0 1.0 1.0
1.0 1.0 1.0 1.0 1.0 1.0 1.0 1.0
1.0 1.0 1.0 1.0 1.0 1.0 1.0 1.0
1.0 1.0 1.0 1.0 1.0 1.0 1.0 1.0
1.0 1.0 1.0 1.0 1.0 1.0 1.0 1.0
1.0 1.0 1.0 1.0 1.0 1.0 1.0 1.0
1.0 1.0 1.0 1.0 1.0 1.0 1.0 1.0
1.0 1.0 1.0 1.0 1.0 1.0 1.0 1.0
1.0 1.0 1.0 1.0 1.0 1.0 1.0 1.0
1.0 1.0 1.0 1.0 1.0 1.0 1.0 1.0
1.0 1.0 1.0 1.0 1.0 1.0 1.0 1.0
1.0 1.0 1.0 1.0 1.0 1.0 1.0 1.0
1.0 1.0 1.0 1.0 1.0 1.0 1.0 1.0
1.0 1.0 1.0 1.0 1.0 1.0 1.0 1.0
1.0 1.0 1.0 1.0 1.0 1.0 1.0 1.0
1.0 1.0 1.0 1.0 1.0 1.0 1.0 1.0
1.0 1.0 1.0 1.0 1.0 1.0 1.0 1.0
1.0 1.0 1.0 1.0 1.0 1.0 1.0 1.0
1.0 1.0 1.0 1.0 1.0 1.0 1.0 1.0
1.0 1.0 1.0 1.0 1.0 1.0 1.0 1.0
1.0 1.0 1.0 1.0 1.0 1.0 1.0 1.0
1.0 1.0 1.0 1.0 1.0 1.0 1.0 1.0
1.0 1.0 1.0 1.0 1.0 1.0 1.0 1.0
1.0 1.0 1.0 1.0 1.0 1.0 1.0 1.0
1.0 1.0 1.0 1.0 1.0 1.0 1.0 1.0
1.0 1.0 1.0 1.0 1.0 1.0 1.0 1.0
1.0 1.0 1.0 1.0 1.0 1.0 1.0 1.0
1.0 1.0 1.0 1.0 1.0 1.0 1.0 1.0
1.0 1.0 1.0 1.0 1.0 1.0 1.0 1.0
1.0 1.0 1.0 1.0 1.0 1.0 1.0 1.0
1.0 1.0 1.0 1.0 1.0 1.0 1.0 1.0
00000000: 0000 803f 0000 803f 0000 803f 0000 803f
00000010: 0000 803f 0000 803f 0000 803f 0000 803f
00000020: 0000 803f 0000 803f 0000 803f 0000 803f
00000030: 0000 803f 0000 803f 0000 803f 0000 803f
00000040: 0000 803f 0000 803f 0000 803f 0000 803f
00000050: 0000 803f 0000 803f 0000 803f 0000 803f
00000060: 0000 803f 0000 803f 0000 803f 0000 803f
00000070: 0000 803f 0000 803f 0000 803f 0000 803f
00000080: 0000 803f 0000 803f 0000 803f 0000 803f
00000090: 0000 803f 0000 803f 0000 803f 0000 803f
000000a0: 0000 803f 0000 803f 0000 803f 0000 803f
000000b0: 0000 803f 0000 803f 0000 803f 0000 803f
000000c0: 0000 803f 0000 803f 0000 803f 0000 803f
000000d0: 0000 803f 0000 803f 0000 803f 0000 803f
000000e0: 0000 803f 0000 803f 0000 803f 0000 803f
000000f0: 0000 803f 0000 803f 0000 803f 0000 803f
00000100: 0000 803f 0000 803f 0000 803f 0000 803f
00000110: 0000 803f 0000 803f 0000 803f 0000 803f
00000120: 0000 803f 0000 803f 0000 803f 0000 803f
00000130: 0000 803f 0000 803f 0000 803f 0000 803f
00000140: 0000 803f 0000 803f 0000 803f 0000 803f
00000150: 0000 803f 0000 803f 0000 803f 0000 803f
00000160: 0000 803f 0000 803f 0000 803f 0000 803f
00000170: 0000 803f 0000 803f 0000 803f 0000 803f
00000180: 0000 803f 0000 803f 0000 803f 0000 803f
00000190: 0000 803f 0000 803f 0000 803f 0000 803f
000001a0: 0000 803f 0000 803f 0000 803f 0000 803f
000001b0: 0000 803f 0000 803f 0000 803f 0000 803f
000001c0: 0000 803f 0000 803f 0000 803f 0000 803f
000001d0: 0000 803f 0000 803f 0000 803f 0000 803f
000001e0: 0000 803f 0000 803f 0000 803f 0000 803f
000001f0: 0000 803f 0000 803f 0000 803f 0000 803f
00000200: 0000 803f 0000 803f 0000 803f 0000 803f
00000210: 0000 803f 0000 803f 0000 803f 0000 803f
00000220: 0000 803f 0000 803f 0000 803f 0000 803f
00000230: 0000 803f 0000 803f 0000 803f 0000 803f
00000240: 0000 803f 0000 803f 0000 803f 0000 803f
00000250: 0000 803f 0000 803f 0000 803f 0000 803f
00000260: 0000 803f 0000 803f 0000 803f 0000 803f
00000270: 0000 803f 0000 803f 0000 803f 0000 803f
00000280: 0000 803f 0000 803f 0000 803f 0000 803f
00000290: 0000 803f 0000 803f 0000 803f 0000 803f
000002a0: 0000 803f 0000 803f 0000 803f 0000 803f
000002b0: 0000 803f 0000 803f 0000 803f 0000 803f
000002c0: 0000 803f 0000 803f 0000 803f 0000 803f
000002d0: 0000 803f 0000 803f 0000 803f 0000 803f
000002e0: 0000 803f 0000 803f 0000 803f 0000 803f
000002f0: 0000 803f 0000 803f 0000 803f 0000 803f
00000300: 0000 803f 0000 803f 0000 803f 0000 803f
00000310: 0000 803f 0000 803f 0000 803f 0000 803f
00000320: 0000 803f 0000 803f 0000 803f 0000 803f
00000330: 0000 803f 0000 803f 0000 803f 0000 803f
00000340: 0000 803f 0000 803f 0000 803f 0000 803f
00000350: 0000 803f 0000 803f 0000 803f 0000 803f
00000360: 0000 803f 0000 803f 0000 803f 0000 803f
00000370: 0000 803f 0000 803f 0000 803f 0000 803f
00000380: 0000 803f 0000 803f 0000 803f 0000 803f
00000390: 0000 803f 0000 803f 0000 803f 0000 803f
000003a0: 0000 803f 0000 803f 0000 803f 0000 803f
000003b0: 0000 803f 0000 803f 0000 803f 0000 803f
000003c0: 0000 803f 0000 803f 0000 803f 0000 803f
000003d0: 0000 803f 0000 803f 0000 803f 0000 803f
000003e0: 0000 803f 0000 803f 0000 803f 0000 803f
000003f0: 0000 803f 0000 803f 0000 803f 0000 803f

model.func.layer0_convnet.conv.sc.weight f4 [9216]
-0.03335037 0.20730124 -0.2873385 -0.37965572 0.5967874 0.49373627 -1.2681553 -1.3934846
0.91822714 -0.0061953035 1.2099407 0.6794815 1.7079635 -0.21333934 1.1604165 1.6400363
0.20155738 -0.21623202 0.09643349 0.28554794 0.54908955 -2.0146232 1.8898385 -0.71940607
0.79884803 1.8468947 -0.6837684 -1.2756902 -1.5053853 -0.88498485 0.74599767 0.54141223
0.016152343 3.560853 -0.5462406 0.96911395 0.80916184 -0.5767979 -1.2654197 -1.0359495
-1.4872656 0.9452142 -0.86585754 -2.1543865 1.3079383 -1.3037941 0.9515781 -1.2292029
1.0946975 0.60937893 3.2126415 1.381921 -0.7719789 0.9826666 1.4936035 0.5746323
-2.0489876 1.4600747 0.69664973 0.4022957 0.7357482 -1.7345629 -2.3338883 1.2127458
-0.7979838 -2.3866725 1.2395207 -0.059609108 -0.6899017 -2.404245 0.9437037 -0.36863574
1.460047 0.24682426 0.50240314 1.559484 1.6259806 -0.54279786 -1.0653569 -0.36131534
-0.019003252 1.551718 -0.2874593 2.2444885 1.0861249 -0.29307345 2.1099834 0.9424323
-0.24263293 2.234131 -0.34828046 0.08791249 0.13536084 1.7480944 -1.5510347 -0.6963469
1.4373353 1.1501338 -0.33291367 0.47753635 0.3339328 -1.1800648 -0.5636258 0.047205746
0.28049514 1.2906313 0.56117755 0.04078099 0.48507395 -1.922688 0.14734557 -0.15303898
0.30384323 0.21218605 0.05799455 -1.9597915 -0.6387941 0.21051797 -1.0761294 0.4759529
-1.1186063 -1.9394016 1.5017804 -0.52360445 -1.5693898 1.1385586 -1.3127027 -1.941687
0.7695091 1.2620044 0.42299014 -0.7336636 -1.7798636 0.43639743 0.26326442 0.617379
-0.12927328 -0.03950061 0.69224316 0.75423133 0.9996618 -0.5905697 0.09032373 -1.3380924
-3.5985851 -0.569017 0.061627433 -1.1733142 -0.40078235 0.5434781 0.0048242216 -0.4342911
0.8324313 0.3787652 -2.5420568 -1.7832483 -0.31668717 1.8745424 1.4439337 -0.7534576
0.92575943 1.5514596 -0.33799386 -0.23303282 0.38289282 0.070628904 0.4172515 -0.33805826
-1.4081408 1.3695289 -2.595161 -1.3419157 -0.7220969 -0.08113485 1.0287294 -1.8937273
1.1251411 -0.52528995 1.5832585 1.2781872 -0.0072584506 0.14240651 0.30514327 0.45435795
-0.9238198 1.4698203 0.8585595 1.3290095 0.9706693 1.9025497 -1.4415479 -0.9759878
0.73761475 0.29560897 -0.3345416 0.45119175 0.17385419 -1.7634187 -0.795904 -0.60866463
-0.06263714 -1.3537527 -1.1894774 0.57302505 -0.93431365 -0.1684853 -0.9344942 1.248091
1.3643144 -2.3780546 0.3484328 0.5329095 -0.20570193 1.0989934 -0.44598132 -0.33838925
-0.74043393 0.9154441 1.9414539 -0.55502796 0.42361477 -0.40852928 0.36733797 1.0511026
-1.1525751 -0.5980558 1.1703014 1.3796525 0.97847384 0.3111465 -0.3696297 0.9575198
-1.0642929 -2.4322865 -1.9111868 0.04938502 0.5211602 -1.5625699 -1.594285 -0.4609693
-0.15014803 1.9805143 -2.5638561 -0.45432153 -0.038257457 -0.78887975 0.5119326 0.73438466
0.51707417 -0.77434605 -0.117045835 -3.1683147 -1.482561 0.1841938 -0.57272094 1.0440603
00000000: 669a 08bd c746 543e 081e 93be 3c62 c2be
00000010: 0fc7 183f 00cb fc3e ea52 a2bf b45d b2bf
00000020: ef10 6b3f f901 cbbb 56df 9a3f 80f2 2d3f
00000030: 8c9e da3f a175 5abe 8788 943f b6ec d13f
00000040: 0f65 4e3e ed6b 5dbe ec7e c53d 5733 923e
00000050: 2291 0c3f 96ef 00c0 3ae6 f13f ff2a 38bf
00000060: 4e81 4c3f 0c67 ec3f 720b 2fbf d149 a3bf
00000070: 77b0 c0bf 5e8e 62bf b4f9 3e3f fe99 0a3f
00000080: eb51 843c 04e5 6340 6dd6 0bbf da17 783f
00000090: 3b25 4f3f 07a9 13bf 46f9 a1bf fe99 84bf
000000a0: b85e bebf 8ff9 713f d7a8 5dbf 78e1 09c0
000000b0: 866a a73f bae2 a6bf 9f9a 733f 8556 9dbf
000000c0: 0c1f 8c3f 4200 1c3f eb9b 4d40 cae2 b03f
000000d0: 69a0 45bf 0a90 7b3f 662e bf3f 1a1b 133f
000000e0: 9d22 03c0 bae3 ba3f a357 323f b4f9 cd3e
000000f0: fe59 3c3f 2806 debf 6d5e 15c0 413b 9b3f
00000100: ab48 4cbf 3ebf 18c0 9da8 9e3f ae28 74bd
00000110: 669d 30bf 26df 19c0 9196 713f d3bd bcbe
00000120: d2e2 ba3f 80bf 7c3e 7e9d 003f 2c9d c73f
00000130: 2220 d03f cdf4 0abf 9d5d 88bf 53fe b8be
00000140: b5ac 9bbc b29e c63f de2d 93be b3a5 0f40
00000150: 2406 8b3f b90d 96be f809 0740 3e43 713f
00000160: c474 78be 01fc 0e40 d151 b2be 770b b43d
00000170: 089c 0a3e 8fc1 df3f 4e88 c6bf ca43 32bf
00000180: 9afa b73f 9637 933f a973 aabe a57f f43e
00000190: 3df9 aa3e 5d0c 97bf c849 10bf d05a 413d
000001a0: 0f9d 8f3e 6833 a53f 55a9 0f3f f809 273d
000001b0: 9d5b f83e a41a f6bf c2e1 163e 40b6 1cbe
000001c0: 5791 9b3e 4d47 593e b18b 6d3d 73da fabf
000001d0: 0388 23bf 0692 573e 9cbe 89bf 19b0 f33e
000001e0: 7e2e 8fbf 503e f8bf 573a c03f f10a 06bf
000001f0: c4e1 c8bf 4abc 913f a406 a8bf 3389 f8bf
00000200: 8cfe 443f 5c89 a13f 2a92 d83e 61d1 3bbf
00000210: 92d2 e3bf 7c6f df3e 98ca 863e 8d0c 1e3f
00000220: 3760 04be 64cb 21bd d936 313f 4e15 413f
00000230: d6e9 7f3f 932f 17bf a6fb b83d 9d46 abbf
00000240: 384f 66c0 19ab 11bf 0c6d 7c3d 292f 96bf
00000250: 5833 cdbe 6121 0b3f 8114 9e3b 675b debe
00000260: 381a 553f 83ed c13e 0fb1 22c0 7b41 e4bf
00000270: d224 a2be 01f1 ef3f d2d2 b83f 99e2 40bf
00000280: 92fe 6c3f 3a96 c63f 880d adbe 28a0 6ebe
00000290: 870a c43e e3a5 903d fda1 d53e f915 adbe
000002a0: f53d b4bf b94c af3f 1e17 26c0 e5c3 abbf
000002b0: 58db 38bf 072a a6bd 68ad 833f a865 f2bf
000002c0: a004 903f 6779 06bf 37a8 ca3f a39b a33f
000002d0: 4cd8 edbb 03d3 113e bd3b 9c3e 9ba1 e83e
000002e0: 747f 6cbf 1223 bc3f 8eca 5b3f fc1c aa3f
000002f0: c97d 783f c086 f33f a484 b8bf 56da 79bf
00000300: 52d4 3c3f 0f5a 973e 0949 abbe 9b02 e73e
00000310: d506 323e b4b7 e1bf 5dc0 4bbf 72d1 1bbf
00000320: e747 80bd c547 adbf cc40 98bf c5b1 123f
00000330: 2e2f 6fbf 6987 2cbe 033b 6fbf 72c1 9f3f
00000340: dba1 ae3f 0c32 18c0 c965 b23e c26c 083f
00000350: 87a3 52be d1ab 8c3f aa57 e4be 5b41 adbe
00000360: 148d 3dbf 8b5a 6a3f 9081 f83f 5016 0ebf
00000370: 09e4 d83e c02a d1be b913 bc3e 888a 863f
00000380: 9587 93bf 2f1a 19bf 70cc 953f 7498 b03f
00000390: 437d 7a3f 984e 9f3e 1b40 bdbe 0520 753f
000003a0: c03a 88bf 95aa 1bc0 c5a1 f4bf f247 4a3d
000003b0: c16a 053f 4a02 c8bf 8811 ccbf 2b04 ecbe
000003c0: 68c0 19be 7e81 fd3f 3816 24c0 d59c e8be
000003d0: dab3 1cbd 06f4 49bf 040e 033f a200 3c3f
000003e0: f95e 043f 8b3b 46bf bab5 efbd abc5 4ac0
000003f0: 8fc4 bdbf 4d9d 3c3e d79d 12bf c5a3 853f

model.func.layer0_convnet.conv.sc.output_mask f4 [352]
1.0 1.0 1.0 1.0 1.0 1.0 1.0 1.0
1.0 1.0 1.0 1.0 1.0 1.0 1.0 1.0
1.0 1.0 1.0 1.0 1.0 1.0 1.0 1.0
1.0 1.0 1.0 1.0 1.0 1.0 1.0 1.0
1.0 1.0 1.0 1.0 1.0 1.0 1.0 1.0
1.0 1.0 1.0 1.0 1.0 1.0 1.0 1.0
1.0 1.0 1.0 1.0 1.0 1.0 1.0 1.0
1.0 1.0 1.0 1.0 1.0 1.0 1.0 1.0
1.0 1.0 1.0 1.0 1.0 1.0 1.0 1.0
1.0 1.0 1.0 1.0 1.0 1.0 1.0 1.0
1.0 1.0 1.0 1.0 1.0 1.0 1.0 1.0
1.0 1.0 1.0 1.0 1.0 1.0 1.0 1.0
0.0 0.0 0.0 0.0 0.0 0.0 0.0 0.0
0.0 0.0 0.0 0.0 0.0 0.0 0.0 0.0
0.0 0.0 0.0 0.0 0.0 0.0 0.0 0.0
0.0 0.0 0.0 0.0 0.0 0.0 0.0 0.0
0.0 0.0 0.0 0.0 0.0 0.0 0.0 0.0
0.0 0.0 0.0 0.0 0.0 0.0 0.0 0.0
0.0 0.0 0.0 0.0 0.0 0.0 0.0 0.0
0.0 0.0 0.0 0.0 0.0 0.0 0.0 0.0
0.0 0.0 0.0 0.0 0.0 0.0 0.0 0.0
0.0 0.0 0.0 0.0 0.0 0.0 0.0 0.0
0.0 0.0 0.0 0.0 0.0 0.0 0.0 0.0
0.0 0.0 0.0 0.0 0.0 0.0 0.0 0.0
0.0 0.0 0.0 0.0 0.0 0.0 0.0 0.0
0.0 0.0 0.0 0.0 0.0 0.0 0.0 0.0
0.0 0.0 0.0 0.0 0.0 0.0 0.0 0.0
0.0 0.0 0.0 0.0 0.0 0.0 0.0 0.0
0.0 0.0 0.0 0.0 0.0 0.0 0.0 0.0
0.0 0.0 0.0 0.0 0.0 0.0 0.0 0.0
0.0 0.0 0.0 0.0 0.0 0.0 0.0 0.0
0.0 0.0 0.0 0.0 0.0 0.0 0.0 0.0
00000000: 0000 803f 0000 803f 0000 803f 0000 803f
00000010: 0000 803f 0000 803f 0000 803f 0000 803f
00000020: 0000 803f 0000 803f 0000 803f 0000 803f
00000030: 0000 803f 0000 803f 0000 803f 0000 803f
00000040: 0000 803f 0000 803f 0000 803f 0000 803f
00000050: 0000 803f 0000 803f 0000 803f 0000 803f
00000060: 0000 803f 0000 803f 0000 803f 0000 803f
00000070: 0000 803f 0000 803f 0000 803f 0000 803f
00000080: 0000 803f 0000 803f 0000 803f 0000 803f
00000090: 0000 803f 0000 803f 0000 803f 0000 803f
000000a0: 0000 803f 0000 803f 0000 803f 0000 803f
000000b0: 0000 803f 0000 803f 0000 803f 0000 803f
000000c0: 0000 803f 0000 803f 0000 803f 0000 803f
000000d0: 0000 803f 0000 803f 0000 803f 0000 803f
000000e0: 0000 803f 0000 803f 0000 803f 0000 803f
000000f0: 0000 803f 0000 803f 0000 803f 0000 803f
00000100: 0000 803f 0000 803f 0000 803f 0000 803f
00000110: 0000 803f 0000 803f 0000 803f 0000 803f
00000120: 0000 803f 0000 803f 0000 803f 0000 803f
00000130: 0000 803f 0000 803f 0000 803f 0000 803f
00000140: 0000 803f 0000 803f 0000 803f 0000 803f
00000150: 0000 803f 0000 803f 0000 803f 0000 803f
00000160: 0000 803f 0000 803f 0000 803f 0000 803f
00000170: 0000 803f 0000 803f 0000 803f 0000 803f
00000180: 0000 0000 0000 0000 0000 0000 0000 0000
00000190: 0000 0000 0000 0000 0000 0000 0000 0000
000001a0: 0000 0000 0000 0000 0000 0000 0000 0000
000001b0: 0000 0000 0000 0000 0000 0000 0000 0000
000001c0: 0000 0000 0000 0000 0000 0000 0000 0000
000001d0: 0000 0000 0000 0000 0000 0000 0000 0000
000001e0: 0000 0000 0000 0000 0000 0000 0000 0000
000001f0: 0000 0000 0000 0000 0000 0000 0000 0000
00000200: 0000 0000 0000 0000 0000 0000 0000 0000
00000210: 0000 0000 0000 0000 0000 0000 0000 0000
00000220: 0000 0000 0000 0000 0000 0000 0000 0000
00000230: 0000 0000 0000 0000 0000 0000 0000 0000
00000240: 0000 0000 0000 0000 0000 0000 0000 0000
00000250: 0000 0000 0000 0000 0000 0000 0000 0000
00000260: 0000 0000 0000 0000 0000 0000 0000 0000
00000270: 0000 0000 0000 0000 0000 0000 0000 0000
00000280: 0000 0000 0000 0000 0000 0000 0000 0000
00000290: 0000 0000 0000 0000 0000 0000 0000 0000
000002a0: 0000 0000 0000 0000 0000 0000 0000 0000
000002b0: 0000 0000 0000 0000 0000 0000 0000 0000
000002c0: 0000 0000 0000 0000 0000 0000 0000 0000
000002d0: 0000 0000 0000 0000 0000 0000 0000 0000
000002e0: 0000 0000 0000 0000 0000 0000 0000 0000
000002f0: 0000 0000 0000 0000 0000 0000 0000 0000
00000300: 0000 0000 0000 0000 0000 0000 0000 0000
00000310: 0000 0000 0000 0000 0000 0000 0000 0000
00000320: 0000 0000 0000 0000 0000 0000 0000 0000
00000330: 0000 0000 0000 0000 0000 0000 0000 0000
00000340: 0000 0000 0000 0000 0000 0000 0000 0000
00000350: 0000 0000 0000 0000 0000 0000 0000 0000
00000360: 0000 0000 0000 0000 0000 0000 0000 0000
00000370: 0000 0000 0000 0000 0000 0000 0000 0000
00000380: 0000 0000 0000 0000 0000 0000 0000 0000
00000390: 0000 0000 0000 0000 0000 0000 0000 0000
000003a0: 0000 0000 0000 0000 0000 0000 0000 0000
000003b0: 0000 0000 0000 0000 0000 0000 0000 0000
000003c0: 0000 0000 0000 0000 0000 0000 0000 0000
000003d0: 0000 0000 0000 0000 0000 0000 0000 0000
000003e0: 0000 0000 0000 0000 0000 0000 0000 0000
000003f0: 0000 0000 0000 0000 0000 0000 0000 0000
