examples/expedition/online/nequip/bak.aqueous/surf22-fixed/init/t0/m0/auto/last_model.pth (torch, 685965 bytes, 54 tensors)

model.func.radial_basis.basis.bessel_weights f4 [8]
3.0414972 6.2980127 9.438232 12.959982 15.829911 18.866045 21.770687 25.536554
00000000: e4a7 4240 5289 c940 0003 1741 165c 4f41
00000010: 5147 7d41 a9ed 9641 5e2a ae41 dd4a cc41

model.func.chemical_embedding.linear.weight f4 [96]
1.719951 0.90498245 0.16637377 -0.06911242 0.16253129 0.4208192 -1.9066113 0.15973295
-1.2026621 -0.4749719 0.9298693 -1.1740913 0.643763 0.36985675 -1.7797683 -0.84741503
-0.5408152 -0.800699 -0.89465874 -1.3654526 -0.94860756 -1.3387481 -0.81064904 2.0630314
0.8883738 0.79875225 -1.6203369 -0.9977293 -0.105605274 0.6733529 1.2211161 -0.8252655
0.613654 -0.45995927 -0.42535147 0.84684783 -1.6091986 -1.3580369 0.19641088 -1.30301
0.058550995 1.1244076 -0.9663047 -1.0517925 0.51345927 -0.28454864 -1.6577585 0.2609215
0.9250562 -1.577184 0.34210736 -1.4306729 -0.8974483 -0.15744776 -0.8013722 0.06280915
1.6052357 0.07196637 0.56348443 1.2422425 -2.0720346 -1.6212142 -0.7605592 0.61693996
-0.3802081 0.33144438 -0.40397695 0.055824384 0.16726014 -0.71710783 -0.64749 0.8480555
0.8213208 0.5756658 -0.56657577 -1.0765479 0.8907308 1.3661766 -0.33896804 -0.59644264
-0.12802352 -0.10145912 -0.8890112 1.1524967 -0.60662454 -0.594389 0.63262266 -0.0038717357
0.6858557 -0.76490563 -0.40301841 0.82328784 0.43851703 0.6205825 1.0828758 -0.131731
00000000: 5b27 dc3f eeac 673f e35d 2a3e d08a 8dbd
00000010: 9a6e 263e 9d75 d73e d70b f4bf 0991 233e
00000020: d5f0 99bf 842f f3be ea0b 6e3f a048 96bf
00000030: a7cd 243f dd5d bd3e 73cf e3bf 31f0 58bf
00000040: dd72 0abf 9cfa 4cbf 5b08 65bf 27c7 aebf
00000050: f2d7 72bf 195c abbf b286 4fbf b508 0440
00000060: 776c 633f 077b 4c3f 3367 cfbf 306b 7fbf
00000070: 9447 d8bd db60 2c3f 884d 9c3f 9a44 53bf
00000080: 6e18 1d3f c87f ebbe abc7 d9be 05cb 583f
00000090: 38fa cdbf 27d4 adbf ef1f 493e 08c9 a6bf
000000a0: 2bd3 6f3d 97ec 8f3f bf5f 77bf 23a1 86bf
000000b0: 1172 033f 5cb0 91be 6e31 d4bf 8197 853e
000000c0: 7cd0 6c3f 2ae1 c9bf b228 af3e 4a20 b7bf
000000d0: 2cbf 65bf fc39 21be ba26 4dbf 15a2 803d
000000e0: 5d78 cd3f 1b63 933d 8440 103f cd01 9f3f
000000f0: 379c 04c0 f283 cfbf 02b4 42bf c7ef 1d3f
00000100: a3aa c2be 14b3 a93e 11d6 cebe 1ca8 643d
00000110: 3e46 2b3e 6194 37bf e8c1 25bf 2a1a 593f
00000120: 1442 523f d55e 133f 1c0b 11bf 52cc 89bf
00000130: ef06 643f e0de ae3f 388d adbe 77b0 18bf
00000140: 9918 03be cdc9 cfbd 3d96 63bf 0385 933f
00000150: bf4b 1bbf e129 18bf 8ff3 213f f2bc 7dbb
00000160: 3d94 2f3f dbd0 43bf 6e58 cebe fec2 523f
00000170: 4e85 e03e 7fde 1e3f ad9b 8a3f 7ee4 06be

model.func.chemical_embedding.linear.output_mask f4 [32]
1.0 1.0 1.0 1.0 1.0 1.0 1.0 1.0
1.0 1.0 1.0 1.0 1.0 1.0 1.0 1.0
1.0 1.0 1.0 1.0 1.0 1.0 1.0 1.0
1.0 1.0 1.0 1.0 1.0 1.0 1.0 1.0
00000000: 0000 803f 0000 803f 0000 803f 0000 803f
00000010: 0000 803f 0000 803f 0000 803f 0000 803f
00000020: 0000 803f 0000 803f 0000 803f 0000 803f
00000030: 0000 803f 0000 803f 0000 803f 0000 803f
00000040: 0000 803f 0000 803f 0000 803f 0000 803f
00000050: 0000 803f 0000 803f 0000 803f 0000 803f
00000060: 0000 803f 0000 803f 0000 803f 0000 803f
00000070: 0000 803f 0000 803f 0000 803f 0000 803f

model.func.layer0_convnet.equivariant_nonlin.mul.output_mask f4 [256]
1.0 1.0 1.0 1.0 1.0 1.0 1.0 1.0
1.0 1.0 1.0 1.0 1.0 1.0 1.0 1.0
1.0 1.0 1.0 1.0 1.0 1.0 1.0 1.0
1.0 1.0 1.0 1.0 1.0 1.0 1.0 1.0
1.0 1.0 1.0 1.0 1.0 1.0 1.0 1.0
1.0 1.0 1.0 1.0 1.0 1.0 1.0 1.0
1.0 1.0 1.0 1.0 1.0 1.0 1.0 1.0
1.0 1.0 1.0 1.0 1.0 1.0 1.0 1.0
1.0 1.0 1.0 1.0 1.0 1.0 1.0 1.0
1.0 1.0 1.0 1.0 1.0 1.0 1.0 1.0
1.0 1.0 1.0 1.0 1.0 1.0 1.0 1.0
1.0 1.0 1.0 1.0 1.0 1.0 1.0 1.0
1.0 1.0 1.0 1.0 1.0 1.0 1.0 1.0
1.0 1.0 1.0 1.0 1.0 1.0 1.0 1.0
1.0 1.0 1.0 1.0 1.0 1.0 1.0 1.0
1.0 1.0 1.0 1.0 1.0 1.0 1.0 1.0
1.0 1.0 1.0 1.0 1.0 1.0 1.0 1.0
1.0 1.0 1.0 1.0 1.0 1.0 1.0 1.0
1.0 1.0 1.0 1.0 1.0 1.0 1.0 1.0
1.0 1.0 1.0 1.0 1.0 1.0 1.0 1.0
1.0 1.0 1.0 1.0 1.0 1.0 1.0 1.0
1.0 1.0 1.0 1.0 1.0 1.0 1.0 1.0
1.0 1.0 1.0 1.0 1.0 1.0 1.0 1.0
1.0 1.0 1.0 1.0 1.0 1.0 1.0 1.0
1.0 1.0 1.0 1.0 1.0 1.0 1.0 1.0
1.0 1.0 1.0 1.0 1.0 1.0 1.0 1.0
1.0 1.0 1.0 1.0 1.0 1.0 1.0 1.0
1.0 1.0 1.0 1.0 1.0 1.0 1.0 1.0
1.0 1.0 1.0 1.0 1.0 1.0 1.0 1.0
1.0 1.0 1.0 1.0 1.0 1.0 1.0 1.0
1.0 1.0 1.0 1.0 1.0 1.0 1.0 1.0
1.0 1.0 1.0 1.0 1.0 1.0 1.0 1.0
00000000: 0000 803f 0000 803f 0000 803f 0000 803f
00000010: 0000 803f 0000 803f 0000 803f 0000 803f
00000020: 0000 803f 0000 803f 0000 803f 0000 803f
00000030: 0000 803f 0000 803f 0000 803f 0000 803f
00000040: 0000 803f 0000 803f 0000 803f 0000 803f
00000050: 0000 803f 0000 803f 0000 803f 0000 803f
00000060: 0000 803f 0000 803f 0000 803f 0000 803f
00000070: 0000 803f 0000 803f 0000 803f 0000 803f
00000080: 0000 803f 0000 803f 0000 803f 0000 803f
00000090: 0000 803f 0000 803f 0000 803f 0000 803f
000000a0: 0000 803f 0000 803f 0000 803f 0000 803f
000000b0: 0000 803f 0000 803f 0000 803f 0000 803f
000000c0: 0000 803f 0000 803f 0000 803f 0000 803f
000000d0: 0000 803f 0000 803f 0000 803f 0000 803f
000000e0: 0000 803f 0000 803f 0000 803f 0000 803f
000000f0: 0000 803f 0000 803f 0000 803f 0000 803f
00000100: 0000 803f 0000 803f 0000 803f 0000 803f
00000110: 0000 803f 0000 803f 0000 803f 0000 803f
00000120: 0000 803f 0000 803f 0000 803f 0000 803f
00000130: 0000 803f 0000 803f 0000 803f 0000 803f
00000140: 0000 803f 0000 803f 0000 803f 0000 803f
00000150: 0000 803f 0000 803f 0000 803f 0000 803f
00000160: 0000 803f 0000 803f 0000 803f 0000 803f
00000170: 0000 803f 0000 803f 0000 803f 0000 803f
00000180: 0000 803f 0000 803f 0000 803f 0000 803f
00000190: 0000 803f 0000 803f 0000 803f 0000 803f
000001a0: 0000 803f 0000 803f 0000 803f 0000 803f
000001b0: 0000 803f 0000 803f 0000 803f 0000 803f
000001c0: 0000 803f 0000 803f 0000 803f 0000 803f
000001d0: 0000 803f 0000 803f 0000 803f 0000 803f
000001e0: 0000 803f 0000 803f 0000 803f 0000 803f
000001f0: 0000 803f 0000 803f 0000 803f 0000 803f
00000200: 0000 803f 0000 803f 0000 803f 0000 803f
00000210: 0000 803f 0000 803f 0000 803f 0000 803f
00000220: 0000 803f 0000 803f 0000 803f 0000 803f
00000230: 0000 803f 0000 803f 0000 803f 0000 803f
00000240: 0000 803f 0000 803f 0000 803f 0000 803f
00000250: 0000 803f 0000 803f 0000 803f 0000 803f
00000260: 0000 803f 0000 803f 0000 803f 0000 803f
00000270: 0000 803f 0000 803f 0000 803f 0000 803f
00000280: 0000 803f 0000 803f 0000 803f 0000 803f
00000290: 0000 803f 0000 803f 0000 803f 0000 803f
000002a0: 0000 803f 0000 803f 0000 803f 0000 803f
000002b0: 0000 803f 0000 803f 0000 803f 0000 803f
000002c0: 0000 803f 0000 803f 0000 803f 0000 803f
000002d0: 0000 803f 0000 803f 0000 803f 0000 803f
000002e0: 0000 803f 0000 803f 0000 803f 0000 803f
000002f0: 0000 803f 0000 803f 0000 803f 0000 803f
00000300: 0000 803f 0000 803f 0000 803f 0000 803f
00000310: 0000 803f 0000 803f 0000 803f 0000 803f
00000320: 0000 803f 0000 803f 0000 803f 0000 803f
00000330: 0000 803f 0000 803f 0000 803f 0000 803f
00000340: 0000 803f 0000 803f 0000 803f 0000 803f
00000350: 0000 803f 0000 803f 0000 803f 0000 803f
00000360: 0000 803f 0000 803f 0000 803f 0000 803f
00000370: 0000 803f 0000 803f 0000 803f 0000 803f
00000380: 0000 803f 0000 803f 0000 803f 0000 803f
00000390: 0000 803f 0000 803f 0000 803f 0000 803f
000003a0: 0000 803f 0000 803f 0000 803f 0000 803f
000003b0: 0000 803f 0000 803f 0000 803f 0000 803f
000003c0: 0000 803f 0000 803f 0000 803f 0000 803f
000003d0: 0000 803f 0000 803f 0000 803f 0000 803f
000003e0: 0000 803f 0000 803f 0000 803f 0000 803f
000003f0: 0000 803f 0000 803f 0000 803f 0000 803f

model.func.layer0_convnet.conv.linear_1.weight f4 [1024]
-0.19564238 -1.0910492 -0.7865042 -0.64778817 -1.4543386 -0.6221322 -1.7235975 -0.1234963
0.29326776 -0.27468985 -0.029985806 -0.07396964 -1.3239006 -0.22094029 -0.27896968 -0.04808086
0.043258827 -0.12515466 0.68773824 -0.08651346 -0.6257021 1.3325272 0.8817037 0.25362656
1.2165582 -0.6540488 -2.041972 -1.249283 -1.8547288 2.8004684 0.3770583 0.6392441
1.037428 -0.76229715 -0.9377391 0.035455078 -0.77701634 1.5178857 -0.674493 -0.9598461
1.4107064 1.3620875 1.9284457 -0.19178078 -0.53646034 -0.01721018 -0.5693343 0.78810203
0.23790719 0.5111797 1.8303802 1.2860141 1.9119042 0.1205074 1.0825831 0.26946867
1.1012428 0.26831156 -2.4674473 0.780949 0.23468755 -1.0158902 -0.46192044 0.3249241
0.16160087 -0.76329136 -0.55622804 0.51499355 0.3173608 -0.29951516 0.13572384 -0.5092637
-0.6744773 0.2550852 -1.518632 1.3951799 -0.79194564 0.49160898 -1.7377647 0.13874926
-0.3410762 -0.25673333 0.41756517 -1.2682787 0.5400481 -0.8387514 0.04899423 0.99776274
0.17343117 -0.45773542 0.51265585 -0.58473074 -0.7695136 -0.3559018 0.7978838 -1.9201633
-0.7846839 -0.6077204 -0.9969444 1.5185938 0.2739723 -0.61954534 0.05097327 0.2100297
0.11951697 -1.2834581 0.81052834 1.7412789 0.6614263 1.4601483 1.0364181 1.5288383
0.4612906 -0.3270338 0.070110425 0.5766799 0.38003784 0.93162924 0.18358237 -0.48447818
0.024765285 1.1698269 -2.5633156 0.8936624 -1.358339 -0.07939652 0.9302772 -0.15135859
-1.6370736 0.604968 0.358828 -0.7525674 0.46734685 -0.8309222 -0.52520996 1.4272728
0.6950558 -0.64980817 3.0881844 0.29853946 0.9609284 -0.8385152 -1.5834986 -0.6829312
-0.9125897 0.35712188 -1.2188399 -1.0116048 -0.5633771 -1.1021185 1.5654054 -0.5299451
-0.48489085 -0.5366538 0.68031335 -0.7160334 0.6681159 -0.44125965 0.70023817 0.37726042
0.22865255 0.85269946 0.699518 0.75642735 0.17220479 0.6939815 -0.7210371 -0.22164845
-0.5631858 -0.855205 2.2798862 0.02392398 1.3524594 0.6806596 1.4678416 0.18063116
-0.5946151 -0.58472896 -0.7333907 0.4654283 -0.63792247 -1.8335719 -1.4627576 1.5420421
1.113433 1.1080071 -0.5272341 -1.0757174 0.6804803 -1.4562442 -0.6859917 0.25292695
0.33401397 0.7728511 -0.53088593 0.4486495 0.35837048 0.535529 -0.8622253 1.6528921
0.33543587 1.7107347 1.0842427 -0.77891576 -0.06187325 -0.807636 1.6867524 -0.49879113
0.35711542 -1.1495565 -0.59622973 0.5713619 0.25818816 0.83383113 -1.7132734 0.28495783
-0.20311439 -0.73624575 -0.084823795 -0.55589926 -1.1485972 0.7334172 0.5404574 0.042625718
1.1717125 -0.37383696 0.25184512 0.8148944 -0.26942343 0.73817 -1.7768967 -0.70763206
2.2077544 -1.0176296 1.8542928 0.040826038 1.3885671 -0.22974822 -1.4185294 0.09910256
0.6052348 -1.2696537 0.21107177 -0.7980316 0.85116017 1.1694839 0.62041205 -0.49005064
1.6131176 -0.11314079 -2.0541253 -1.0474279 0.51096374 -0.5521604 1.4372611 0.2867519
00000000: 7a56 48be 80a7 8bbf 5758 49bf 72d5 25bf
00000010: c427 babf 0e44 1fbf d89e dcbf a1eb fcbd
00000020: 3127 963e 26a4 8cbe cba4 f5bc 657d 97bd
00000030: 9375 a9bf 2c3e 62be 1dd5 8ebe 70f0 44bd
00000040: 2b30 313d 8b28 00be 9d0f 303f f82d b1bd
00000050: 032e 20bf 4090 aa3f 55b7 613f 57db 813e
00000060: 2eb8 9b3f be6f 27bf abaf 02c0 81e8 9fbf
00000070: c167 edbf e03a 3340 c90d c13e 80a5 233f
00000080: 71ca 843f e825 43bf ab0f 70bf 5839 113d
00000090: 8bea 46bf 144a c23f 93ab 2cbf 79b8 75bf
000000a0: 0792 b43f e258 ae3f 4fd7 f63f 2e62 44be
000000b0: 7755 09bf 5dfc 8cbc e5bf 11bf 0ec1 493f
000000c0: f19d 733e acdc 023f e649 ea3f 1c9c a43f
000000d0: 47b9 f43f 95cc f63d 1592 8a3f ccf7 893e
000000e0: 86f5 8c3f 2260 893e a8ea 1dc0 46ec 473f
000000f0: ef51 703e b108 82bf d680 ecbe 745c a63e
00000100: b37a 253e 1067 43bf f664 0ebf 9ed6 033f
00000110: 1d7d a23e 0d5a 99be 31fb 0a3e 1b5f 02bf
00000120: 8baa 2cbf 879a 823e 8962 c2bf 4195 b23f
00000130: f3bc 4abf 2cb4 fb3e 136f debf 4914 0e3e
00000140: 8aa1 aebe 8d72 83be 1acb d53e f556 a2bf
00000150: 9840 0a3f 69b8 56bf 2cae 483d 616d 7f3f
00000160: f197 313e 4c5c eabe 6a3d 033f eab0 15bf
00000170: d8fe 44bf c338 b6be 1d42 4c3f e9c7 f5bf
00000180: 0be1 48bf 9093 1bbf c037 7fbf 4861 c23f
00000190: 1946 8c3e 869a 1ebf 59c9 503d 0712 573e
000001a0: 50c5 f43d 5b48 a4bf c97e 4f3f 3ae2 de3f
000001b0: 3c53 293f 24e6 ba3f 59a9 843f f9b0 c33f
000001c0: 482e ec3e f970 a7be 0e96 8f3d 4ba1 133f
000001d0: 5294 c23e 417f 6e3f 04fd 3b3e 860d f8be
000001e0: 91e0 ca3c e3bc 953f 5d0d 24c0 0fc7 643f
000001f0: 0dde adbf a59a a2bd a626 6e3f bffd 1abe
00000200: a18b d1bf 2fdf 1a3f 4eb8 b73e 42a8 40bf
00000210: 1648 ef3e 51b7 54bf 2974 06bf e0b0 b63f
00000220: 2def 313f d459 26bf d0a4 4540 2ada 983e
00000230: 67ff 753f efa8 56bf 15b0 cabf 94d4 2ebf
00000240: 7b9f 69bf aed8 b63e f202 9cbf 447c 81bf
00000250: 7b39 10bf 3812 8dbf 345f c83f 7baa 07bf
00000260: 9d43 f8be 2562 09bf 0429 2e3f f74d 37bf
00000270: a509 2b3f c9ec e1be cf42 333f 4728 c13e
00000280: e523 6a3e 834a 5a3f 9d13 333f 39a5 413f
00000290: 7456 303e c6a8 313f e395 38bf d0f7 62be
000002a0: f22c 10bf b7ee 5abf a8e9 1140 39fc c33c
000002b0: 641d ad3f b53f 2e3f 3ce2 bb3f 60f7 383e
000002c0: b238 18bf ccb0 15bf 7ebf 3bbf 9e4c ee3e
000002d0: e34e 23bf 7cb2 eabf a43b bbbf a361 c53f
000002e0: f984 8e3f 2dd3 8d3f d0f8 06bf 1cb1 89bf
000002f0: f533 2e3f 3666 babf 279d 2fbf a47f 813e
00000300: e103 ab3e 92d9 453f 24e8 07bf 63b5 e53e
00000310: 567c b73e 6e18 093f ccba 5cbf f891 d33f
00000320: 40be ab3e 5bf9 da3f 77c8 8a3f 0667 47bf
00000330: ce6e 7dbd 3cc1 4ebf 81e7 d73f 8d61 ffbe
00000340: d5d7 b63e ab24 93bf 83a2 18bf c644 123f
00000350: 3d31 843e f575 553f 8b4c dbbf fee5 913e
00000360: 38fd 4fbe 9a7a 3cbf 19b8 adbd 6a4f 0ebf
00000370: 3c05 93bf 3bc1 3b3f 6b5b 0a3f 4e98 2e3d
00000380: adfa 953f 8f67 bfbe d8f1 803e eb9c 503f
00000390: def1 89be b6f8 3c3f 5a71 e3bf 6027 35bf
000003a0: d94b 0d40 b041 82bf 7759 ed3f 3439 273d
000003b0: 91bc b13f 1e43 6bbe 5f92 b5bf 48f6 ca3d
000003c0: abf0 1a3f 0384 a2bf 3323 583e cd4b 4cbf
000003d0: a2e5 593f a6b1 953f 53d3 1e3f ebe7 fabe
000003e0: a37a ce3f 5cb6 e7bd ca76 03c0 1e12 86bf
000003f0: 85ce 023f 625a 0dbf 2cf8 b73f 25d1 923e

model.func.layer0_convnet.conv.linear_1.output_mask f4 [32]
1.0 1.0 1.0 1.0 1.0 1.0 1.0 1.0
1.0 1.0 1.0 1.0 1.0 1.0 1.0 1.0
1.0 1.0 1.0 1.0 1.0 1.0 1.0 1.0
1.0 1.0 1.0 1.0 1.0 1.0 1.0 1.0
00000000: 0000 803f 0000 803f 0000 803f 0000 803f
00000010: 0000 803f 0000 803f 0000 803f 0000 803f
00000020: 0000 803f 0000 803f 0000 803f 0000 803f
00000030: 0000 803f 0000 803f 0000 803f 0000 803f
00000040: 0000 803f 0000 803f 0000 803f 0000 803f
00000050: 0000 803f 0000 803f 0000 803f 0000 803f
00000060: 0000 803f 0000 803f 0000 803f 0000 803f
00000070: 0000 803f 0000 803f 0000 803f 0000 803f

model.func.layer0_convnet.conv.fc.layer0.weight f4 [8, 8]
-0.5453823 1.6748036 -0.63649255 -0.34948975 0.80742794 -1.0983436 -1.0799096 2.1641002
-0.70883805 0.715578 -0.035147317 -0.5542889 -0.4230712 -0.7491874 -0.8342015 0.42827258
-0.19100182 -1.9660538 -0.3934751 0.69910735 0.20903301 0.10483413 1.0163819 -0.5348546
-1.3473992 0.050273903 -1.0956703 1.833203 -0.24773549 -1.3681839 -1.6301429 -1.7462578
-0.27515125 -2.3113873 -1.261549 0.71507037 0.108652964 -1.0708028 -1.920836 -0.9989717
0.14089519 -1.0921477 -0.013614154 2.0877247 1.4749937 0.07625362 0.62794566 -0.6329338
-0.17659749 -0.5981224 -1.9157732 -0.43277717 -0.6123138 -1.2437972 0.47107664 0.20158543
1.1474884 -1.6127049 0.24451219 -1.4382739 1.6478351 -2.4126658 -1.5411015 -0.41880527
00000000: 2d9e 0bbf f75f d63f 2df1 22bf 52f0 b2be
00000010: 99b3 4e3f 8696 8cbf 7a3a 8abf 9e80 0a40
00000020: 6976 35bf 1f30 373f a2f6 0fbd e1e5 0dbf
00000030: ca9c d8be bfca 3fbf 3b8e 55bf 8b46 db3e
00000040: fb95 43be a7a7 fbbf 9175 c9be b3f8 323f
00000050: c00c 563e 47b3 d63d cd18 823f 3bec 08bf
00000060: 9477 acbf 02ec 4d3d ed3e 8cbf 65a6 ea3f
00000070: 5fae 7dbe a620 afbf 86a8 d0bf 6085 dfbf
00000080: a0e0 8cbe c5ed 13c0 707a a1bf da0e 373f
00000090: 7285 de3d 1110 89bf f4dd f5bf 9cbc 7fbf
000000a0: d446 103e 7fcb 8bbf e70d 5fbc 489d 0540
000000b0: 98cc bc3f dc2a 9c3d 0cc1 203f f307 22bf
000000c0: f9d5 34be 8d1e 19bf 0e38 f5bf f894 ddbe
000000d0: 99c0 1cbf bf34 9fbf f530 f13e 696c 4e3e
000000e0: e6e0 923f 1d6d cebf 6761 7a3e 5c19 b8bf
000000f0: 43ec d23f 1e69 1ac0 d042 c5bf a56d d6be

model.func.layer0_convnet.conv.fc.layer1.weight f4 [8, 96]
1.8098406 0.52647185 1.7447406 -1.1481344 0.43350205 -0.47628772 -0.33030584 -1.6878492
0.17128737 -0.13711406 -1.1794319 -0.43608323 -0.97946525 0.7995689 -0.67729545 -0.6446516
0.026635809 -0.4090071 0.0050522215 -1.8130356 -0.97883344 -0.21608306 0.61665404 -0.14757909
0.69416904 1.6210198 -0.43943498 0.7183119 -1.5974307 -0.8441442 -0.47655714 0.11183854
0.3154563 -0.60568225 -0.08750428 0.31336534 0.57890135 0.5752327 -0.0969477 -0.4706561
-0.17596535 -1.0535573 1.4293647 -2.334172 0.15244623 0.27908075 -0.6835238 0.5128141
-0.6493554 -0.96133465 -1.369135 1.6147217 -0.2988088 -1.1478084 1.0188127 -1.0718824
-1.2198843 0.17628637 -2.756306 -1.3759608 -0.91506666 1.5500189 -0.95100397 -0.44522622
0.27226168 -1.0821993 -0.25010058 1.3981997 1.1324626 -0.14069633 1.9212581 0.7636218
-0.9499818 0.34569767 -1.768591 2.4773843 0.3602769 0.4561768 0.75204575 0.101348445
1.3346437 2.466528 -1.7602997 0.27802625 -0.36908454 0.42274225 1.1062464 1.540839
0.29348582 0.17981526 -0.50774205 0.84941125 -0.107418306 -0.88546306 0.3807214 -0.20442201
-1.6814525 -0.52828467 -0.079297945 1.0556114 -0.12758072 -0.3157616 0.8633507 -1.4462055
-1.1917527 -1.0891585 -1.7290051 0.9934142 -1.6951123 0.48641577 1.99679 -0.63276565
1.9754933 1.6266028 -0.5531592 0.08433635 -0.96610326 -0.26965618 0.19739561 0.8616037
0.67382145 0.25109082 0.32329646 -1.228108 0.6508773 -0.7185163 -0.699569 -0.042691797
-0.7532489 -0.48027188 1.1645253 -1.3136613 -1.0188439 0.22062244 -1.1774852 1.4558059
0.23254752 -1.7831565 -0.4872337 -0.05829452 0.42369637 -0.5354179 1.1886848 -2.2710404
0.6599988 -0.42554164 0.41536292 0.52454597 0.25164118 -0.6091337 1.5565671 -1.5130745
0.29171428 -1.7183087 -1.9014595 -0.85223794 -2.2146516 -0.6157775 -0.28850758 -1.9818237
-1.0116957 -0.50048846 0.7225349 3.0381632 1.2437211 -0.30812103 1.0875446 -1.4603647
1.8690325 1.4206635 -0.42974284 0.7103711 -1.2440287 1.0400769 2.0895054 0.16635567
0.46984178 2.3637335 0.4789509 -1.0553055 -0.05850809 0.108922645 -1.6169679 0.4550324
-0.7015411 -0.5172098 -0.8900382 0.28265655 -1.4316189 -1.3840399 -0.822915 2.1580217
0.37069404 -1.3761538 0.9260013 -0.6588866 0.16875708 -1.1293589 1.1018401 -1.1692601
1.4477757 0.6826003 0.042819865 -0.23357211 -0.55464065 0.5174782 -0.22649147 0.5294079
0.11445159 1.5726589 -0.9902724 0.29960415 -0.73950505 0.33680475 -0.007566752 -0.31831327
0.46860912 -1.1731585 0.81215996 1.1212463 -0.89019763 -0.009755128 -1.1248926 -0.6007174
-0.0638036 0.1283424 -1.6821966 -0.3410358 -0.36619362 -0.80128485 -0.5475891 0.61124
0.46055648 2.3571715 0.5062993 1.4268861 1.9083331 -1.471476 0.2604637 0.62687904
-0.95157945 0.9679581 -2.833053 0.5478614 -0.07231246 -0.83173 -0.78646475 -0.84660023
0.11279555 -0.93176585 0.0025154315 1.0441179 0.44013268 -1.3237619 -0.6269728 -0.29551896
00000000: dba8 e73f dcc6 063f a953 df3f 11f6 92bf
00000010: fbf3 dd3e fcdb f3be d91d a9be 710b d8bf
00000020: f565 2f3e a167 0cbe a0f7 96bf 4d46 dfbe
00000030: 3cbe 7abf 8cb0 4c3f 3c63 2dbf e307 25bf
00000040: 5733 da3c 6169 d1be 1b8d a53b 8d11 e8bf
00000050: d494 7abf e144 5dbe 0add 1d3f f91e 17be
00000060: 10b5 313f 947d cf3f 9ffd e0be 4ae3 373f
00000070: 9c78 ccbf d619 58bf 4cff f3be 9b0b e53d
00000080: 7d83 a13e fe0d 1bbf 7235 b3bd 6c71 a03e
00000090: e132 143f 7342 133f 848c c6bd d6f9 f0be
000000a0: 4330 34be f7da 86bf 6cf5 b63f 1363 15c0
000000b0: dd1a 1c3e ace3 8e3e 6afb 2ebf c947 033f
000000c0: 283c 26bf 071a 76bf d13f afbf 33af ce3f
000000d0: 78fd 98be 63eb 92bf 7468 823f 7133 89bf
000000e0: 2b25 9cbf 6a84 343e 5167 30c0 7c1f b0bf
000000f0: cf41 6abf 0567 c63f ff74 73bf b1f4 e3be
00000100: e265 8b3e 8285 8abf 2f0d 80be 35f8 b23f
00000110: 89f4 903f b312 10be c9eb f53f b87c 433f
00000120: 0232 73bf 49ff b03e 3161 e2bf 778d 1e40
00000130: 3776 b83e 0190 e93e 1286 403f c68f cf3d
00000140: 9bd5 aa3f 98db 1d40 8051 e1bf 7559 8e3e
00000150: a6f8 bcbe ac71 d83e 7b99 8d3f 363a c53f
00000160: c643 963e 7e21 383e 62fb 01bf 0473 593f
00000170: 21fe dbbd b5ad 62bf eaed c23e 0154 51be
00000180: d639 d7bf aa3d 07bf f666 a2bd 461e 873f
00000190: 85a4 02be 81ab a1be 8d04 5d3f 431d b9bf
000001a0: 5a8b 98bf 8c69 8bbf 0a50 ddbf 6550 7e3f
000001b0: 71f9 d8bf 7d0b f93e d196 ff3f eefc 21bf
000001c0: f7dc fc3f 8534 d03f d79b 0dbf 89b8 ac3d
000001d0: 8b52 77bf 6010 8abe 1322 4a3e 0f92 5c3f
000001e0: 907f 2c3f fa8e 803e 1d87 a53e a532 9dbf
000001f0: e59f 263f aff0 37bf f416 33bf 98dd 2ebd
00000200: ebd4 40bf 32e6 f5be 2a0f 953f 0e26 a8bf
00000210: 7a69 82bf d9ea 613e d6b7 96bf d957 ba3f
00000220: f020 6e3e 793e e4bf b276 f9be 3cc6 6ebd
00000230: bbee d83e 2611 09bf d326 983f ba58 11c0
00000240: aef5 283f 98e0 d9be 73aa d43e a548 063f
00000250: 1dd7 803e 30f0 1bbf 973d c73f 6dac c1bf
00000260: 935b 953e 8af1 dbbf 0663 f3bf 442c 5abf
00000270: dabc 0dc0 98a3 1dbf 44b7 93be 66ac fdbf
00000280: 3f7f 81bf 0320 00bf 0cf8 383f 4471 4240
00000290: 4132 9f3f 0ac2 9dbe a934 8b3f 3bed babf
000002a0: 753c ef3f 4dd8 b53f 4107 dcbe e1da 353f
000002b0: 553c 9fbf 3d21 853f 75ba 0540 2459 2a3e
000002c0: 1a8f f03e 6947 1740 0d39 f53e 4014 87bf
000002d0: 2ea6 6fbd d612 df3d cef8 cebf 02fa e83e
000002e0: 3398 33bf dd67 04bf 8bd9 63bf 5cb8 903e
000002f0: 4a3f b7bf 3828 b1bf 8faa 52bf 071d 0a40
00000300: 9ccb bd3e cf25 b0bf 6c0e 6d3f cbac 28bf
00000310: a8ce 2c3e d58e 90bf 1909 8d3f 51aa 95bf
00000320: b750 b93f e5be 2e3f e263 2f3d 872d 6fbe
00000330: eefc 0dbf 7479 043f 61ed 67be 4787 073f
00000340: 9865 ea3d e34c c93f 7e82 7dbf b765 993e
00000350: 3450 3dbf ac71 ac3e 84f2 f7bb f5f9 a2be
00000360: 89ed ef3e 0f2a 96bf b7e9 4f3f 0085 8f3f
00000370: fee3 63bf f9d3 1fbc 7bfc 8fbf 9ec8 19bf
00000380: 76ab 82bd 316c 033e 3852 d7bf 3f9c aebe
00000390: bb7d bbbe 0121 4dbf cd2e 0cbf 3a7a 1c3f
000003a0: 0fce eb3e e6db 1640 d59c 013f 34a4 b63f
000003b0: 4244 f43f 5359 bcbf 805b 853e 257b 203f
000003c0: b69a 73bf 1acc 773f be50 35c0 a540 0c3f
000003d0: 8e18 94bd 42ec 54bf c155 49bf cbba 58bf
000003e0: 5a01 e73d 3588 6ebf f0d9 243b a8a5 853f
000003f0: 1259 e13e 0871 a9bf 4a81 20bf 434e 97be

model.func.layer0_convnet.conv.tp.output_mask f4 [288]
1.0 1.0 1.0 1.0 1.0 1.0 1.0 1.0
1.0 1.0 1.0 1.0 1.0 1.0 1.0 1.0
1.0 1.0 1.0 1.0 1.0 1.0 1.0 1.0
1.0 1.0 1.0 1.0 1.0 1.0 1.0 1.0
1.0 1.0 1.0 1.0 1.0 1.0 1.0 1.0
1.0 1.0 1.0 1.0 1.0 1.0 1.0 1.0
1.0 1.0 1.0 1.0 1.0 1.0 1.0 1.0
1.0 1.0 1.0 1.0 1.0 1.0 1.0 1.0
1.0 1.0 1.0 1.0 1.0 1.0 1.0 1.0
1.0 1.0 1.0 1.0 1.0 1.0 1.0 1.0
1.0 1.0 1.0 1.0 1.0 1.0 1.0 1.0
1.0 1.0 1.0 1.0 1.0 1.0 1.0 1.0
1.0 1.0 1.0 1.0 1.0 1.0 1.0 1.0
1.0 1.0 1.0 1.0 1.0 1.0 1.0 1.0
1.0 1.0 1.0 1.0 1.0 1.0 1.0 1.0
1.0 1.0 1.0 1.0 1.0 1.0 1.0 1.0
1.0 1.0 1.0 1.0 1.0 1.0 1.0 1.0
1.0 1.0 1.0 1.0 1.0 1.0 1.0 1.0
1.0 1.0 1.0 1.0 1.0 1.0 1.0 1.0
1.0 1.0 1.0 1.0 1.0 1.0 1.0 1.0
1.0 1.0 1.0 1.0 1.0 1.0 1.0 1.0
1.0 1.0 1.0 1.0 1.0 1.0 1.0 1.0
1.0 1.0 1.0 1.0 1.0 1.0 1.0 1.0
1.0 1.0 1.0 1.0 1.0 1.0 1.0 1.0
1.0 1.0 1.0 1.0 1.0 1.0 1.0 1.0
1.0 1.0 1.0 1.0 1.0 1.0 1.0 1.0
1.0 1.0 1.0 1.0 1.0 1.0 1.0 1.0
1.0 1.0 1.0 1.0 1.0 1.0 1.0 1.0
1.0 1.0 1.0 1.0 1.0 1.0 1.0 1.0
1.0 1.0 1.0 1.0 1.0 1.0 1.0 1.0
1.0 1.0 1.0 1.0 1.0 1.0 1.0 1.0
1.0 1.0 1.0 1.0 1.0 1.0 1.0 1.0
00000000: 0000 803f 0000 803f 0000 803f 0000 803f
00000010: 0000 803f 0000 803f 0000 803f 0000 803f
00000020: 0000 803f 0000 803f 0000 803f 0000 803f
00000030: 0000 803f 0000 803f 0000 803f 0000 803f
00000040: 0000 803f 0000 803f 0000 803f 0000 803f
00000050: 0000 803f 0000 803f 0000 803f 0000 803f
00000060: 0000 803f 0000 803f 0000 803f 0000 803f
00000070: 0000 803f 0000 803f 0000 803f 0000 803f
00000080: 0000 803f 0000 803f 0000 803f 0000 803f
00000090: 0000 803f 0000 803f 0000 803f 0000 803f
000000a0: 0000 803f 0000 803f 0000 803f 0000 803f
000000b0: 0000 803f 0000 803f 0000 803f 0000 803f
000000c0: 0000 803f 0000 803f 0000 803f 0000 803f
000000d0: 0000 803f 0000 803f 0000 803f 0000 803f
000000e0: 0000 803f 0000 803f 0000 803f 0000 803f
000000f0: 0000 803f 0000 803f 0000 803f 0000 803f
00000100: 0000 803f 0000 803f 0000 803f 0000 803f
00000110: 0000 803f 0000 803f 0000 803f 0000 803f
00000120: 0000 803f 0000 803f 0000 803f 0000 803f
00000130: 0000 803f 0000 803f 0000 803f 0000 803f
00000140: 0000 803f 0000 803f 0000 803f 0000 803f
00000150: 0000 803f 0000 803f 0000 803f 0000 803f
00000160: 0000 803f 0000 803f 0000 803f 0000 803f
00000170: 0000 803f 0000 803f 0000 803f 0000 803f
00000180: 0000 803f 0000 803f 0000 803f 0000 803f
00000190: 0000 803f 0000 803f 0000 803f 0000 803f
000001a0: 0000 803f 0000 803f 0000 803f 0000 803f
000001b0: 0000 803f 0000 803f 0000 803f 0000 803f
000001c0: 0000 803f 0000 803f 0000 803f 0000 803f
000001d0: 0000 803f 0000 803f 0000 803f 0000 803f
000001e0: 0000 803f 0000 803f 0000 803f 0000 803f
000001f0: 0000 803f 0000 803f 0000 803f 0000 803f
00000200: 0000 803f 0000 803f 0000 803f 0000 803f
00000210: 0000 803f 0000 803f 0000 803f 0000 803f
00000220: 0000 803f 0000 803f 0000 803f 0000 803f
00000230: 0000 803f 0000 803f 0000 803f 0000 803f
00000240: 0000 803f 0000 803f 0000 803f 0000 803f
00000250: 0000 803f 0000 803f 0000 803f 0000 803f
00000260: 0000 803f 0000 803f 0000 803f 0000 803f
00000270: 0000 803f 0000 803f 0000 803f 0000 803f
00000280: 0000 803f 0000 803f 0000 803f 0000 803f
00000290: 0000 803f 0000 803f 0000 803f 0000 803f
000002a0: 0000 803f 0000 803f 0000 803f 0000 803f
000002b0: 0000 803f 0000 803f 0000 803f 0000 803f
000002c0: 0000 803f 0000 803f 0000 803f 0000 803f
000002d0: 0000 803f 0000 803f 0000 803f 0000 803f
000002e0: 0000 803f 0000 803f 0000 803f 0000 803f
000002f0: 0000 803f 0000 803f 0000 803f 0000 803f
00000300: 0000 803f 0000 803f 0000 803f 0000 803f
00000310: 0000 803f 0000 803f 0000 803f 0000 803f
00000320: 0000 803f 0000 803f 0000 803f 0000 803f
00000330: 0000 803f 0000 803f 0000 803f 0000 803f
00000340: 0000 803f 0000 803f 0000 803f 0000 803f
00000350: 0000 803f 0000 803f 0000 803f 0000 803f
00000360: 0000 803f 0000 803f 0000 803f 0000 803f
00000370: 0000 803f 0000 803f 0000 803f 0000 803f
00000380: 0000 803f 0000 803f 0000 803f 0000 803f
00000390: 0000 803f 0000 803f 0000 803f 0000 803f
000003a0: 0000 803f 0000 803f 0000 803f 0000 803f
000003b0: 0000 803f 0000 803f 0000 803f 0000 803f
000003c0: 0000 803f 0000 803f 0000 803f 0000 803f
000003d0: 0000 803f 0000 803f 0000 803f 0000 803f
000003e0: 0000 803f 0000 803f 0000 803f 0000 803f
000003f0: 0000 803f 0000 803f 0000 803f 0000 803f

model.func.layer0_convnet.conv.linear_2.weight f4 [5120]
-0.21048614 -2.235427 -1.4979515 -0.7411721 0.5360396 -1.6148281 0.3072312 -0.7758078
0.33775645 0.030794695 0.530931 -0.42950746 -0.76047647 0.8707268 -0.6655451 -1.6141776
-1.5239155 -0.29854885 -2.0967023 1.8498538 -0.025176277 -0.5584553 -0.8527687 -1.0120091
-0.4521196 0.7388194 -1.0356004 -0.9459932 0.25946742 -1.943315 0.40710625 -0.5134766
-0.49408624 -0.94905365 0.5768886 -0.85421854 1.3517715 -0.6911076 -0.4899681 -1.1612287
0.8761851 -1.3925334 -0.089598656 0.8264025 -1.3457408 -0.3369942 0.079399355 -0.33755344
0.5985705 -0.7520915 -0.92111063 -0.5739195 -0.19107623 -0.058527045 -1.9043474 -0.21791731
0.99260455 -2.540376 0.11173367 -1.6900378 -0.96258426 -1.4485382 2.8899868 -1.2023817
1.4626096 -0.4194443 -1.2971561 -0.5824574 -0.94565004 1.084186 -0.18800582 -0.3611665
-1.300724 1.4048657 1.4697598 -2.4081483 -0.8827466 0.037568413 0.83956695 -2.5558293
-1.7460814 -1.862021 1.3955455 0.07802841 -0.9238161 -1.0439098 -0.5546915 -1.0558867
0.50802714 -1.1642486 1.0452937 -1.0575302 0.5504257 -2.965642 -0.1492184 -0.2769925
-0.4168562 1.5845217 0.44683883 -0.34272352 -0.7548448 0.40402266 -0.3164018 -1.1688582
0.8923082 1.0183344 -1.4776098 0.40592685 -1.1050225 0.91426545 1.734398 -0.21642414
0.5340554 0.4151814 -0.3175401 -2.4891334 0.18212608 -1.0930566 -1.3660593 -0.19211726
-2.0129526 -1.2320862 -1.4569043 2.2178857 -1.4519767 -0.4586581 -2.0451376 0.50221384
-2.1194823 0.7013094 -1.819532 -1.5522828 2.3833451 -0.073773995 0.8504755 0.025886375
0.3305694 1.3114202 1.5896245 1.7954127 -1.0416094 1.4995246 -0.18581626 1.6447729
-1.0588431 1.8334857 -1.3738118 0.6738943 0.53897655 -1.3470141 0.4695348 -1.0320526
1.1518539 -0.23063034 0.05801571 -0.70735264 -0.7804938 -0.77686316 -0.5369529 -3.075804
1.3289831 0.4535596 -0.98937273 0.03558113 -0.10560903 0.24549244 -0.5260387 -1.0910757
0.43559024 -0.45569324 0.2366938 -0.42443138 0.65613616 -1.4033796 0.4727732 0.57646155
-1.1025102 0.110331625 -1.2373533 0.47751635 -1.6090493 -1.3102397 -0.6922859 -1.4985092
0.65271425 -0.9100744 -0.12778783 0.37452278 -0.22600615 -2.2854102 -0.8853394 -2.426333
0.46960267 0.33651367 -1.4118943 0.14146939 0.697269 0.6068372 -0.19902597 0.7575023
-0.14962645 -1.0487511 1.7791348 -0.68890905 1.7039738 0.78149515 1.451598 0.64808965
1.3062714 0.47833657 -0.20550683 -1.3146199 1.0452797 -0.45890722 -0.15199605 -0.085954614
0.3175265 0.2139079 1.1950467 0.7148013 -1.2180194 -1.6759429 0.017516896 -0.55290294
-0.04495459 -3.4519176 1.5001917 0.3537085 1.8297895 1.5358456 -0.68862474 -1.1262213
0.213971 -0.7137531 -0.92471796 1.030313 -0.26803017 0.41855264 -1.4069245 0.568209
3.4673097 1.1449511 -2.132875 -0.7024048 0.4335048 -1.0194755 -1.762359 -0.3706517
0.44969323 0.16813545 -0.54933375 -0.26404333 -1.8332729 1.314833 -0.6241308 -3.1129835
00000000: ae89 57be 3c11 0fc0 e0bc bfbf 74bd 3dbf
00000010: e439 093f b0b2 cebf 684d 9d3e 579b 46bf
00000020: 6aee ac3e 2845 fc3c 18eb 073f 67e8 dbbe
00000030: 96ae 42bf f4e7 5e3f 2a61 2abf 5f9d cebf
00000040: aa0f c3bf 65db 98be 5f30 06c0 02c8 ec3f
00000050: 7b3e cebc edf6 0ebf 0d4f 5abf 8489 81bf
00000060: 387c e7be 4523 3d3f 8e8e 84bf 9c2c 72bf
00000070: ead8 843e 8cbe f8bf 3b70 d03e 3473 03bf
00000080: dff8 fcbe 2ef5 72bf f9ae 133f 11ae 5abf
00000090: d906 ad3f 6dec 30bf 19dd fabe 24a3 94bf
000000a0: ab4d 603f 893e b2bf 807f b7bd 1d8f 533f
000000b0: 3c41 acbf 818a acbe 219c a23d ced3 acbe
000000c0: eb3b 193f 1289 40bf e8cd 6bbf 63ec 12bf
000000d0: 7da9 43be 0eba 6fbd a8c1 f3bf b725 5fbe
000000e0: 551b 7e3f 8595 22c0 9fd4 e43d 2953 d8bf
000000f0: ec6b 76bf b369 b9bf 8bf5 3840 a5e7 99bf
00000100: cb36 bb3f 67c1 d6be 3609 a6bf ee1b 15bf
00000110: 1f16 72bf 9bc6 8a3f 9984 40be d1ea b8be
00000120: 207e a6bf a4d2 b33f 1721 bc3f 1a1f 1ac0
00000130: aefb 61bf 56e1 193d dced 563f b592 23c0
00000140: 987f dfbf b456 eebf 3ca1 b23f 5ccd 9f3d
00000150: 367f 6cbf d69e 85bf 4300 0ebf 4c27 87bf
00000160: 110e 023f 1906 95bf 2fcc 853f 265d 87bf
00000170: b3e8 0c3f 14cd 3dc0 b5cc 18be f6d1 8dbe
00000180: 2d6e d5be 9bd1 ca3f 0fc8 e43e 7579 afbe
00000190: 823d 41bf 0fdc ce3e 6bff a1be 259d 95bf
000001a0: 4f6e 643f c858 823f 5122 bdbf a5d5 cf3e
000001b0: 6171 8dbf 4d0d 6a3f c100 de3f 4a9e 5dbe
000001c0: dbb7 083f a892 d43e 9e94 a2be f64d 1fc0
000001d0: 427f 3a3e 47e9 8bbf 08db aebf 63ba 44be
000001e0: 37d4 00c0 00b5 9dbf d77b babf d7f1 0d40
000001f0: 5fda b9bf 3cd5 eabe 89e3 02c0 1691 003f
00000200: 99a5 07c0 0389 333f 6de6 e8bf 34b1 c6bf
00000210: ba88 1840 d216 97bd c3b8 593f aa0f d43c
00000220: 6440 a93e 9edc a73f d178 cb3f 15d0 e53f
00000230: 7553 85bf 6cf0 bf3f 9e46 3ebe eb87 d23f
00000240: 2c88 87bf a9af ea3f 11d9 afbf 5684 2c3f
00000250: 5efa 093f f56a acbf de66 f03e 4d1a 84bf
00000260: f36f 933f 5c2a 6cbe e2a1 6d3d 1015 35bf
00000270: 71ce 47bf 81e0 46bf bf75 09bf f9d9 44c0
00000280: 1e1c aa3f f738 e83e 8847 7dbf 85bd 113d
00000290: 8c49 d8bd 5f62 7b3e 79aa 06bf 5ea8 8bbf
000002a0: af05 df3e a050 e9be dc5f 723e 124f d9be
000002b0: 8af8 273f f1a1 b3bf 540f f23e fc92 133f
000002c0: 0e1f 8dbf 8cf5 e13d 9861 9ebf 067d f43e
000002d0: 54f5 cdbf efb5 a7bf a639 31bf 26cf bfbf
000002e0: 4818 273f a3fa 68bf d0da 02be 73c1 bf3e
000002f0: 286e 67be 2944 12c0 9aa5 62bf 0a49 1bc0
00000300: c36f f03e 854b ac3e f4b8 b4bf 5add 103e
00000310: 3980 323f af59 1b3f 77cd 4bbe aceb 413f
00000320: ad37 19be 7a3d 86bf b0ba e33f 585c 30bf
00000330: d01b da3f 1110 483f f7cd b93f 34e9 253f
00000340: e733 a73f 88e8 f43e 6270 52be 7745 a8bf
00000350: bacb 853f e3f5 eabe daa4 1bbe f908 b0bd
00000360: d592 a23e ac0a 5b3e 4af7 983f 38fd 363f
00000370: 0fe8 9bbf 4c85 d6bf 987f 8f3c 0c8b 0dbf
00000380: 4e22 38bd 38ec 5cc0 4806 c03f 4819 b53e
00000390: 8b36 ea3f 9796 c43f b649 30bf 0528 90bf
000003a0: 371b 5b3e 86b8 36bf 51ba 6cbf 4ce1 833f
000003b0: 403b 89be 884c d63e 1a16 b4bf 2576 113f
000003c0: 67e8 5d40 c28d 923f 0681 08c0 cdd0 33bf
000003d0: 57f4 dd3e 2c7e 82bf fb94 e1bf 0fc6 bdbe
000003e0: 313e e63e b32b 2c3e 23a1 0cbf b030 87be
000003f0: b0a8 eabf 734c a83f 09c7 1fbf 1f3b 47c0

model.func.layer0_convnet.conv.linear_2.output_mask f4 [352]
1.0 1.0 1.0 1.0 1.0 1.0 1.0 1.0
1.0 1.0 1.0 1.0 1.0 1.0 1.0 1.0
1.0 1.0 1.0 1.0 1.0 1.0 1.0 1.0
1.0 1.0 1.0 1.0 1.0 1.0 1.0 1.0
1.0 1.0 1.0 1.0 1.0 1.0 1.0 1.0
1.0 1.0 1.0 1.0 1.0 1.0 1.0 1.0
1.0 1.0 1.0 1.0 1.0 1.0 1.0 1.0
1.0 1.0 1.0 1.0 1.0 1.0 1.0 1.0
1.0 1.0 1.0 1.0 1.0 1.0 1.0 1.0
1.0 1.0 1.0 1.0 1.0 1.0 1.0 1.0
1.0 1.0 1.0 1.0 1.0 1.0 1.0 1.0
1.0 1.0 1.0 1.0 1.0 1.0 1.0 1.0
1.0 1.0 1.0 1.0 1.0 1.0 1.0 1.0
1.0 1.0 1.0 1.0 1.0 1.0 1.0 1.0
1.0 1.0 1.0 1.0 1.0 1.0 1.0 1.0
1.0 1.0 1.0 1.0 1.0 1.0 1.0 1.0
1.0 1.0 1.0 1.0 1.0 1.0 1.0 1.0
1.0 1.0 1.0 1.0 1.0 1.0 1.0 1.0
1.0 1.0 1.0 1.0 1.0 1.0 1.0 1.0
1.0 1.0 1.0 1.0 1.0 1.0 1.0 1.0
1.0 1.0 1.0 1.0 1.0 1.0 1.0 1.0
1.0 1.0 1.0 1.0 1.0 1.0 1.0 1.0
1.0 1.0 1.0 1.0 1.0 1.0 1.0 1.0
1.0 1.0 1.0 1.0 1.0 1.0 1.0 1.0
1.0 1.0 1.0 1.0 1.0 1.0 1.0 1.0
1.0 1.0 1.0 1.0 1.0 1.0 1.0 1.0
1.0 1.0 1.0 1.0 1.0 1.0 1.0 1.0
1.0 1.0 1.0 1.0 1.0 1.0 1.0 1.0
1.0 1.0 1.0 1.0 1.0 1.0 1.0 1.0
1.0 1.0 1.0 1.0 1.0 1.0 1.0 1.0
1.0 1.0 1.0 1.0 1.0 1.0 1.0 1.0
1.0 1.0 1.0 1.0 1.0 1.0 1.0 1.0
00000000: 0000 803f 0000 803f 0000 803f 0000 803f
00000010: 0000 803f 0000 803f 0000 803f 0000 803f
00000020: 0000 803f 0000 803f 0000 803f 0000 803f
00000030: 0000 803f 0000 803f 0000 803f 0000 803f
00000040: 0000 803f 0000 803f 0000 803f 0000 803f
00000050: 0000 803f 0000 803f 0000 803f 0000 803f
00000060: 0000 803f 0000 803f 0000 803f 0000 803f
00000070: 0000 803f 0000 803f 0000 803f 0000 803f
00000080: 0000 803f 0000 803f 0000 803f 0000 803f
00000090: 0000 803f 0000 803f 0000 803f 0000 803f
000000a0: 0000 803f 0000 803f 0000 803f 0000 803f
000000b0: 0000 803f 0000 803f 0000 803f 0000 803f
000000c0: 0000 803f 0000 803f 0000 803f 0000 803f
000000d0: 0000 803f 0000 803f 0000 803f 0000 803f
000000e0: 0000 803f 0000 803f 0000 803f 0000 803f
000000f0: 0000 803f 0000 803f 0000 803f 0000 803f
00000100: 0000 803f 0000 803f 0000 803f 0000 803f
00000110: 0000 803f 0000 803f 0000 803f 0000 803f
00000120: 0000 803f 0000 803f 0000 803f 0000 803f
00000130: 0000 803f 0000 803f 0000 803f 0000 803f
00000140: 0000 803f 0000 803f 0000 803f 0000 803f
00000150: 0000 803f 0000 803f 0000 803f 0000 803f
00000160: 0000 803f 0000 803f 0000 803f 0000 803f
00000170: 0000 803f 0000 803f 0000 803f 0000 803f
00000180: 0000 803f 0000 803f 0000 803f 0000 803f
00000190: 0000 803f 0000 803f 0000 803f 0000 803f
000001a0: 0000 803f 0000 803f 0000 803f 0000 803f
000001b0: 0000 803f 0000 803f 0000 803f 0000 803f
000001c0: 0000 803f 0000 803f 0000 803f 0000 803f
000001d0: 0000 803f 0000 803f 0000 803f 0000 803f
000001e0: 0000 803f 0000 803f 0000 803f 0000 803f
000001f0: 0000 803f 0000 803f 0000 803f 0000 803f
00000200: 0000 803f 0000 803f 0000 803f 0000 803f
00000210: 0000 803f 0000 803f 0000 803f 0000 803f
00000220: 0000 803f 0000 803f 0000 803f 0000 803f
00000230: 0000 803f 0000 803f 0000 803f 0000 803f
00000240: 0000 803f 0000 803f 0000 803f 0000 803f
00000250: 0000 803f 0000 803f 0000 803f 0000 803f
00000260: 0000 803f 0000 803f 0000 803f 0000 803f
00000270: 0000 803f 0000 803f 0000 803f 0000 803f
00000280: 0000 803f 0000 803f 0000 803f 0000 803f
00000290: 0000 803f 0000 803f 0000 803f 0000 803f
000002a0: 0000 803f 0000 803f 0000 803f 0000 803f
000002b0: 0000 803f 0000 803f 0000 803f 0000 803f
000002c0: 0000 803f 0000 803f 0000 803f 0000 803f
000002d0: 0000 803f 0000 803f 0000 803f 0000 803f
000002e0: 0000 803f 0000 803f 0000 803f 0000 803f
000002f0: 0000 803f 0000 803f 0000 803f 0000 803f
00000300: 0000 803f 0000 803f 0000 803f 0000 803f
00000310: 0000 803f 0000 803f 0000 803f 0000 803f
00000320: 0000 803f 0000 803f 0000 803f 0000 803f
00000330: 0000 803f 0000 803f 0000 803f 0000 803f
00000340: 0000 803f 0000 803f 0000 803f 0000 803f
00000350: 0000 803f 0000 803f 0000 803f 0000 803f
00000360: 0000 803f 0000 803f 0000 803f 0000 803f
00000370: 0000 803f 0000 803f 0000 803f 0000 803f
00000380: 0000 803f 0000 803f 0000 803f 0000 803f
00000390: 0000 803f 0000 803f 0000 803f 0000 803f
000003a0: 0000 803f 0000 803f 0000 803f 0000 803f
000003b0: 0000 803f 0000 803f 0000 803f 0000 803f
000003c0: 0000 803f 0000 803f 0000 803f 0000 803f
000003d0: 0000 803f 0000 803f 0000 803f 0000 803f
000003e0: 0000 803f 0000 803f 0000 803f 0000 803f
000003f0: 0000 803f 0000 803f 0000 803f 0000 803f

model.func.layer0_convnet.conv.sc.weight f4 [9216]
-0.031652942 0.20646112 -0.287933 -0.3754709 0.6008323 0.4800498 -1.2591681 -1.404776
0.9243583 -0.01693661 1.2025692 0.6731931 1.7060357 -0.20909984 1.1673144 1.6458848
0.20290565 -0.22189176 0.10046628 0.28207207 0.5443461 -2.0200267 1.8948019 -0.7146812
0.81178784 1.8378193 -0.6885717 -1.2775654 -1.5094317 -0.9003772 0.7360258 0.541369
-0.032143887 3.5608485 -0.49968794 1.0176167 0.78241587 -0.577331 -1.1713082 -1.0446622
-1.5187941 0.9403745 -0.8508334 -2.1625593 1.3485724 -1.29768 0.94738036 -1.2308077
1.1041259 0.601593 3.213376 1.3911719 -0.7807613 0.97864324 1.4988816 0.5875587
-2.052215 1.4665384 0.6921993 0.40606627 0.7295124 -1.7380534 -2.3269231 1.2162095
-0.78116745 -2.3918607 1.2455564 -0.05443236 -0.6885892 -2.43393 0.9506636 -0.37845862
1.4673736 0.19686726 0.5199613 1.5668297 1.631209 -0.5388412 -1.0726563 -0.37178686
-0.016608674 1.5608299 -0.27134505 2.255274 1.0933776 -0.29635614 2.1183772 0.9554423
-0.25431147 2.2362065 -0.35582402 0.06705908 0.12686996 1.7838507 -1.5602926 -0.68696713
1.4348693 1.1399654 -0.33687085 0.48387718 0.32779646 -1.1740224 -0.57291913 0.045230303
0.28254452 1.2719569 0.5650331 0.044223182 0.48264062 -1.9222678 0.15527116 -0.16534837
0.30681056 0.21124107 0.055415254 -1.9549662 -0.645125 0.20408788 -1.0569576 0.46268559
-1.1256495 -1.9363571 1.503701 -0.53025264 -1.5738068 1.1455358 -1.3084068 -1.9410557
0.77655727 1.2426485 0.41888112 -0.7302472 -1.7854464 0.46486214 0.2611127 0.5827122
-0.11758151 -0.029056545 0.6952199 0.76859343 1.0700475 -0.61778015 0.08166232 -1.3045825
-3.6093037 -0.58560485 0.04890795 -1.2313782 -0.39717114 0.52164763 0.01630728 -0.45690468
0.91538054 0.3666904 -2.5502172 -1.7928033 -0.38197407 1.9853872 1.4886277 -0.7643598
0.92135966 1.5354356 -0.3344947 -0.21936859 0.39361954 0.08156871 0.43158206 -0.3216232
-1.3936392 1.3601886 -2.5896072 -1.331021 -0.72584575 -0.07283984 1.0216656 -1.889918
1.1531478 -0.50363916 1.5840957 1.2832537 -0.008259581 0.14252862 0.28878963 0.455594
-0.9310657 1.540795 0.8829439 1.3355787 0.9348991 2.0165067 -1.4497132 -0.9736715
0.7429046 0.29163057 -0.34057766 0.46459797 0.17973037 -1.7660482 -0.79704654 -0.6103325
-0.05750478 -1.3510288 -1.1918622 0.5731507 -0.92450595 -0.16201039 -0.9297015 1.2456588
1.3637956 -2.3718855 0.35018173 0.52444655 -0.2021604 1.0998261 -0.44681016 -0.33442214
-0.7489346 0.90800387 1.9398767 -0.5466601 0.42148188 -0.3988369 0.36447766 1.0466096
-1.2019356 -0.5947634 1.2056687 1.4753885 1.0792512 0.35417733 -0.4061631 1.0103991
-1.005526 -2.4518259 -2.0611682 0.12232761 0.4835451 -1.5171753 -1.6305534 -0.46654454
-0.15579696 1.8971151 -2.579795 -0.4379071 -0.04308963 -0.7872629 0.5051635 0.7107474
0.52481955 -0.8219103 -0.13811411 -3.2009318 -1.520019 0.22701919 -0.53592277 1.0612502
00000000: 84a6 01bd 8b6a 533e f46b 93be b93d c0be
00000010: 25d0 193f 16c9 f53e 6c2c a1bf b3cf b3bf
00000020: bfa2 6c3f a5be 8abc caed 993f 6256 2c3f
00000030: 615f da3f 451e 56be 8f6a 953f 5aac d23f
00000040: 80c6 4f3e 9837 63be 44c1 cd3d c06b 903e
00000050: 445a 0b3f 1e48 01c0 de88 f23f 59f5 36bf
00000060: 54d1 4f3f aa3d eb3f 3c46 30bf 4387 a3bf
00000070: 0f35 c1bf 1f7f 66bf 306c 3c3f 2997 0a3f
00000080: 4fa9 03bd f1e4 6340 19d7 ffbe 4441 823f
00000090: 684c 483f f7cb 13bf 6ded 95bf 7eb7 85bf
000000a0: d867 c2bf 62bc 703f 38d0 59bf 5f67 0ac0
000000b0: 059e ac3f 611a a6bf 8587 723f 1b8b 9dbf
000000c0: ff53 8d3f 0002 1a3f f4a7 4d40 ec11 b23f
000000d0: f9df 47bf 5d88 7a3f 5adb bf3f 3f6a 163f
000000e0: 7e57 03c0 88b7 bb3f f933 313f ebe7 cf3e
000000f0: 53c1 3a3f 8978 debf 4fec 14c0 c1ac 9b3f
00000100: 97fa 47bf 3f14 19c0 646e 9f3f 77f4 5ebd
00000110: 6247 30bf 82c5 1bc0 b15e 733f 54c5 c1be
00000120: e6d2 bb3f 9297 493e 2f1c 053f e08d c83f
00000130: 75cb d03f 7ff1 09bf cd4c 89bf d95a bebe
00000140: ea0e 88bc 46c9 c73f bded 8abe 6956 1040
00000150: ccf3 8b3f febb 97be 7e93 0740 de97 743f
00000160: 1d35 82be 021e 0f40 912e b6be 4556 893d
00000170: 33ea 013e 3855 e43f abb7 c7bf 14dd 2fbf
00000180: cca9 b73f 63ea 913f 567a acbe c0be f73e
00000190: f0d4 a73e 5e46 96bf d4aa 12bf 6943 393d
000001a0: ada9 903e 7ccf a23f 02a6 103f 5e23 353d
000001b0: ac1c f73e df0c f6bf 67ff 1e3e 1551 29be
000001c0: 4616 9d3e 944f 583e 1bfb 623d 553c fabf
000001d0: e926 25bf 6afc 503e 634a 87bf 20e5 ec3e
000001e0: 4815 90bf 8dda f7bf 4679 c03f a3be 07bf
000001f0: 8072 c9bf eba0 923f e079 a7bf 8374 f8bf
00000200: 75cc 463f 1b0f 9f3f 9677 d63e 7bf1 3abf
00000210: 8289 e4bf 6902 ee3e 90b0 853e a02c 153f
00000220: 93ce f0bd fe07 eebc eef9 313f 8ac2 443f
00000230: 51f7 883f d726 1ebf 933e a73d 8ffc a6bf
00000240: d5fe 66c0 33ea 15bf b453 483d cd9d 9dbf
00000250: 045a cbbe b38a 053f d896 853c 69ef e9be
00000260: 6156 6a3f d8be bb3e c236 23c0 947a e5bf
00000270: 1b92 c3be 2b21 fe3f 5a8b be3f 15ad 43bf
00000280: 3ade 6b3f 2789 c43f e442 abbe 29a2 60be
00000290: 8088 c93e 7f0d a73d 53f8 dc3e ccab a4be
000002a0: c562 b2bf a91a ae3f 20bc 25c0 e55e aabf
000002b0: 07d1 39bf 0e2d 95bd f0c5 823f d5e8 f1bf
000002c0: 599a 933f 7fee 00bf a6c3 ca3f a841 a43f
000002d0: 3253 07bc 06f3 113e 3cdc 933e 9e43 e93e
000002e0: 525a 6ebf c538 c53f 9d08 623f 3ef4 aa3f
000002f0: 8c55 6f3f 720e 0140 3490 b9bf 8942 79bf
00000300: ff2e 3e3f 9a50 953e 3260 aebe c9df ed3e
00000310: 3d0b 383e de0d e2bf 3e0b 4cbf c03e 1cbf
00000320: 228a 6bbd 83ee acbf f18e 98bf 01ba 123f
00000330: 6cac 6cbf 0de6 25be eb00 6ebf bf71 9f3f
00000340: db90 ae3f f9cc 17c0 054b b33e 2142 063f
00000350: 2303 4fbe 1ac7 8c3f 4dc4 e4be 6139 abbe
00000360: 2eba 3fbf f172 683f e14d f83f ebf1 0bbf
00000370: 79cc d73e 5a34 ccbe d19c ba3e 4ef7 853f
00000380: 07d9 99bf 6a42 18bf 5a53 9a3f 88d9 bc3f
00000390: e724 8a3f bb56 b53e 9cf4 cfbe c254 813f
000003a0: 13b5 80bf b7ea 1cc0 2eea 03c0 e686 fa3d
000003b0: 3993 f73e cd32 c2bf f9b5 d0bf edde eebe
000003c0: 3d89 1fbe abd4 f23f 5c1b 25c0 5c35 e0be
000003d0: c07e 30bd 108a 49bf 6552 013f 8bf3 353f
000003e0: 935a 063f b768 52bf c96d 0dbe 11dc 4cc0
000003f0: fc8f c2bf b877 683e 3c32 09bf 0cd7 873f

model.func.layer0_convnet.conv.sc.output_mask f4 [352]
1.0 1.0 1.0 1.0 1.0 1.0 1.0 1.0
1.0 1.0 1.0 1.0 1.0 1.0 1.0 1.0
1.0 1.0 1.0 1.0 1.0 1.0 1.0 1.0
1.0 1.0 1.0 1.0 1.0 1.0 1.0 1.0
1.0 1.0 1.0 1.0 1.0 1.0 1.0 1.0
1.0 1.0 1.0 1.0 1.0 1.0 1.0 1.0
1.0 1.0 1.0 1.0 1.0 1.0 1.0 1.0
1.0 1.0 1.0 1.0 1.0 1.0 1.0 1.0
1.0 1.0 1.0 1.0 1.0 1.0 1.0 1.0
1.0 1.0 1.0 1.0 1.0 1.0 1.0 1.0
1.0 1.0 1.0 1.0 1.0 1.0 1.0 1.0
1.0 1.0 1.0 1.0 1.0 1.0 1.0 1.0
0.0 0.0 0.0 0.0 0.0 0.0 0.0 0.0
0.0 0.0 0.0 0.0 0.0 0.0 0.0 0.0
0.0 0.0 0.0 0.0 0.0 0.0 0.0 0.0
0.0 0.0 0.0 0.0 0.0 0.0 0.0 0.0
0.0 0.0 0.0 0.0 0.0 0.0 0.0 0.0
0.0 0.0 0.0 0.0 0.0 0.0 0.0 0.0
0.0 0.0 0.0 0.0 0.0 0.0 0.0 0.0
0.0 0.0 0.0 0.0 0.0 0.0 0.0 0.0
0.0 0.0 0.0 0.0 0.0 0.0 0.0 0.0
0.0 0.0 0.0 0.0 0.0 0.0 0.0 0.0
0.0 0.0 0.0 0.0 0.0 0.0 0.0 0.0
0.0 0.0 0.0 0.0 0.0 0.0 0.0 0.0
0.0 0.0 0.0 0.0 0.0 0.0 0.0 0.0
0.0 0.0 0.0 0.0 0.0 0.0 0.0 0.0
0.0 0.0 0.0 0.0 0.0 0.0 0.0 0.0
0.0 0.0 0.0 0.0 0.0 0.0 0.0 0.0
0.0 0.0 0.0 0.0 0.0 0.0 0.0 0.0
0.0 0.0 0.0 0.0 0.0 0.0 0.0 0.0
0.0 0.0 0.0 0.0 0.0 0.0 0.0 0.0
0.0 0.0 0.0 0.0 0.0 0.0 0.0 0.0
00000000: 0000 803f 0000 803f 0000 803f 0000 803f
00000010: 0000 803f 0000 803f 0000 803f 0000 803f
00000020: 0000 803f 0000 803f 0000 803f 0000 803f
00000030: 0000 803f 0000 803f 0000 803f 0000 803f
00000040: 0000 803f 0000 803f 0000 803f 0000 803f
00000050: 0000 803f 0000 803f 0000 803f 0000 803f
00000060: 0000 803f 0000 803f 0000 803f 0000 803f
00000070: 0000 803f 0000 803f 0000 803f 0000 803f
00000080: 0000 803f 0000 803f 0000 803f 0000 803f
00000090: 0000 803f 0000 803f 0000 803f 0000 803f
000000a0: 0000 803f 0000 803f 0000 803f 0000 803f
000000b0: 0000 803f 0000 803f 0000 803f 0000 803f
000000c0: 0000 803f 0000 803f 0000 803f 0000 803f
000000d0: 0000 803f 0000 803f 0000 803f 0000 803f
000000e0: 0000 803f 0000 803f 0000 803f 0000 803f
000000f0: 0000 803f 0000 803f 0000 803f 0000 803f
00000100: 0000 803f 0000 803f 0000 803f 0000 803f
00000110: 0000 803f 0000 803f 0000 803f 0000 803f
00000120: 0000 803f 0000 803f 0000 803f 0000 803f
00000130: 0000 803f 0000 803f 0000 803f 0000 803f
00000140: 0000 803f 0000 803f 0000 803f 0000 803f
00000150: 0000 803f 0000 803f 0000 803f 0000 803f
00000160: 0000 803f 0000 803f 0000 803f 0000 803f
00000170: 0000 803f 0000 803f 0000 803f 0000 803f
00000180: 0000 0000 0000 0000 0000 0000 0000 0000
00000190: 0000 0000 0000 0000 0000 0000 0000 0000
000001a0: 0000 0000 0000 0000 0000 0000 0000 0000
000001b0: 0000 0000 0000 0000 0000 0000 0000 0000
000001c0: 0000 0000 0000 0000 0000 0000 0000 0000
000001d0: 0000 0000 0000 0000 0000 0000 0000 0000
000001e0: 0000 0000 0000 0000 0000 0000 0000 0000
000001f0: 0000 0000 0000 0000 0000 0000 0000 0000
00000200: 0000 0000 0000 0000 0000 0000 0000 0000
00000210: 0000 0000 0000 0000 0000 0000 0000 0000
00000220: 0000 0000 0000 0000 0000 0000 0000 0000
00000230: 0000 0000 0000 0000 0000 0000 0000 0000
00000240: 0000 0000 0000 0000 0000 0000 0000 0000
00000250: 0000 0000 0000 0000 0000 0000 0000 0000
00000260: 0000 0000 0000 0000 0000 0000 0000 0000
00000270: 0000 0000 0000 0000 0000 0000 0000 0000
00000280: 0000 0000 0000 0000 0000 0000 0000 0000
00000290: 0000 0000 0000 0000 0000 0000 0000 0000
000002a0: 0000 0000 0000 0000 0000 0000 0000 0000
000002b0: 0000 0000 0000 0000 0000 0000 0000 0000
000002c0: 0000 0000 0000 0000 0000 0000 0000 0000
000002d0: 0000 0000 0000 0000 0000 0000 0000 0000
000002e0: 0000 0000 0000 0000 0000 0000 0000 0000
000002f0: 0000 0000 0000 0000 0000 0000 0000 0000
00000300: 0000 0000 0000 0000 0000 0000 0000 0000
00000310: 0000 0000 0000 0000 0000 0000 0000 0000
00000320: 0000 0000 0000 0000 0000 0000 0000 0000
00000330: 0000 0000 0000 0000 0000 0000 0000 0000
00000340: 0000 0000 0000 0000 0000 0000 0000 0000
00000350: 0000 0000 0000 0000 0000 0000 0000 0000
00000360: 0000 0000 0000 0000 0000 0000 0000 0000
00000370: 0000 0000 0000 0000 0000 0000 0000 0000
00000380: 0000 0000 0000 0000 0000 0000 0000 0000
00000390: 0000 0000 0000 0000 0000 0000 0000 0000
000003a0: 0000 0000 0000 0000 0000 0000 0000 0000
000003b0: 0000 0000 0000 0000 0000 0000 0000 0000
000003c0: 0000 0000 0000 0000 0000 0000 0000 0000
000003d0: 0000 0000 0000 0000 0000 0000 0000 0000
000003e0: 0000 0000 0000 0000 0000 0000 0000 0000
000003f0: 0000 0000 0000 0000 0000 0000 0000 0000
