examples/potential/trainer/eann/m1/eann_latest_lmp_DOUBLE.pt (torch, 532477 bytes, 24 tensors)

rshift f8 [1, 8]
00000000: 138a 1c65 1989 e23f f6da 8a6b b563 f13f
00000010: b4ab 352d cb8a f63f 9039 1196 6bb4 0140
00000020: e6ad 0e5e 7fd2 0740 13bb f063 42a5 1040
00000030: 69ec a9bd bab9 1340 c828 2b82 6684 1740
0.5792357420762663 1.0868429375529423 1.4088851705553056 2.2130958293921097 2.977781996558167 4.161386071746864 4.93137642240172 5.879297288784251

eta f8 [1, 8]
00000000: c725 5040 f44f f23f 721a d139 2dbd f93f
00000010: 7b1d d37d b955 0140 8bda 8828 754e 0040
00000020: 7ed7 cb30 c141 f73f 8af8 8afd b235 f73f
00000030: 07e5 7c33 843c f53f 6785 774b 9451 f83f
1.1445200454930828 1.6086857088536388 2.1668577032139047 2.0383093992962293 1.4535533815482888 1.450610151674058 1.327274514317027 1.5199168155598615

params f8 [1, 8]
00000000: 3916 9d75 fc2e e63f 8f1b de62 4d6d e03f
00000010: fa84 85e4 6472 d23f 227b e652 2b78 d13f
00000020: 3412 88a4 9c11 d23f 3083 1e04 c17c d03f
00000030: f678 c5ac 41de c2bf 825b 6bfc 1104 c5bf
0.6932356164113066 0.5133425646789521 0.28823206249769806 0.27295954795583743 0.2823249441865159 0.25761437799706055 -0.1474077314005126 -0.16418671441234883

hyper f8 [1, 4, 8, 64]
00000000: 86fa b3e1 0f77 e73f e7bd cc9d ff07 e13f
00000010: e498 ab41 22fc e7bf aedc eb42 0acd e0bf
00000020: 3524 b7b7 c91f efbf e5b0 ac2d 27d0 dcbf
00000030: 6f06 a287 d74d e03f f2de e736 2dba e6bf
00000040: e8e6 060b ed68 ed3f dab6 ff8c bdd6 ef3f
00000050: 3cc3 4734 2391 eabf b47c 3d34 31a5 e9bf
00000060: cf38 5bfb 43b5 eabf f258 f9ac b147 ad3f
00000070: 5e61 8830 ae23 e8bf e23a 9286 1323 ecbf
00000080: 2da3 08c2 4b0d e6bf 0b73 d19a 3a4e e8bf
00000090: 85e5 57d2 9866 e43f 0d0e 8249 b318 e03f
000000a0: dc72 65e4 eebb dbbf b12a 90c9 fcfe e0bf
000000b0: 3d81 5eb0 c9c2 ec3f 9508 0fb7 8a7f d63f
000000c0: 7f25 3da1 9c72 eb3f ac17 35e5 7a35 e0bf
000000d0: c8eb d438 2267 e13f 4130 93bd b07d e4bf
000000e0: 42d8 55cf 76b7 e3bf d80b 8ac6 be52 e63f
000000f0: 8581 7149 8c61 ec3f fa55 17c5 2468 e93f
00000100: 86b1 ac48 c4dd eb3f c92a ea63 a957 e23f
00000110: 60b8 4762 1531 e0bf 1bff 70ee fc7c ebbf
00000120: 6ef8 1449 95e2 ddbf 5f48 f9ad 5021 eb3f
00000130: 4ce1 cac0 eb62 ebbf f9ec bdc7 b675 e23f
00000140: 5d70 bf8f 49e4 e93f 9d3c 44fb 3327 e6bf
00000150: e18b e978 12b0 eebf fcc7 babf ecbc f03f
00000160: 2565 1af0 6c0f e7bf 903b 4bb6 6b88 e43f
00000170: c7f1 6e7f e078 e6bf f26b ec80 c2e7 e73f
00000180: 12ba 5b9a 821a ecbf 6271 6152 f5d3 ee3f
00000190: 6baf 0c8f d2d1 e33f 4baf b007 0bbb f0bf
000001a0: 8dd5 cdcd 05de ed3f 80ba b8ad b021 e2bf
000001b0: e9c4 60cf 364d ecbf d950 080c 7084 e8bf
000001c0: 4870 0bc8 158b e53f 1679 f78c a9a3 eb3f
000001d0: e173 df41 5e8b e6bf 4830 e469 854f f23f
000001e0: d460 e03c 8864 e7bf e522 1c11 fd20 e93f
000001f0: c8f4 7caa 5d0d eebf 1654 0b7c 1876 f2bf
00000200: 181b 7cd6 d31f e13f 79bd abbb 0f5d ea3f
00000210: 799b 85fb 8333 e9bf 31a0 4376 fc56 d2bf
00000220: 4241 291e 06f4 e1bf f104 7033 1ed6 d5bf
00000230: 6d94 5b90 0507 e73f d46a d124 3917 e7bf
00000240: bed2 147a 65e2 e23f e308 8eb6 23eb e33f
00000250: 47a8 74b5 ef61 e3bf 1982 1768 3ea4 e3bf
00000260: 5f43 342d 6d06 e8bf d793 159c a44b 8bbf
00000270: f294 6c02 b942 e2bf 51f6 182e f06d ebbf
00000280: 5c00 eb3c 3523 eabf 020f 8e5b 388a ebbf
00000290: 5f1b 3f90 b778 e63f 92c3 106d cd54 c23f
000002a0: fea4 0b0d 1960 d8bf 9490 a22a 1939 e3bf
000002b0: 34b2 6b70 8f6c e73f d2f8 7fa7 02f9 d83f
000002c0: 38d3 1519 dd13 e93f 50fb 36fa 90ef e2bf
000002d0: e900 245f b891 de3f 0455 794f fca7 d5bf
000002e0: fa12 b309 c358 eabf f7f9 c784 1ccb df3f
000002f0: fd5f 99cc ef86 ea3f cd8b 6819 338c e43f
00000300: 9f9f 0b8d ce54 e23f 8f4d 7102 fd87 e23f
00000310: 260f e5a7 32e0 e5bf 5168 379e 8dc1 e2bf
00000320: e8d7 886c 99a8 dcbf 56c7 5b2a 627a e93f
00000330: 1a27 6fce facc e3bf 1211 539d bc04 ea3f
00000340: 883b afff 8504 eb3f 3fcf 6c23 41e1 dfbf
00000350: bcd8 7ab7 4edf e5bf 36d5 1920 0b7e e43f
00000360: 0b0f 636f edf8 d2bf d181 308b 3d2d e03f
00000370: 6ca5 c0d8 5a53 e4bf d867 1877 1e8e ea3f
00000380: 2bff 0101 64a7 eabf bb71 cdc4 5346 e93f
00000390: ada9 6a37 9935 e03f e61e 3aa7 6213 ebbf
000003a0: d499 90e6 d7b3 e63f e4d5 d584 30cb d8bf
000003b0: 2edd d6b2 d4be efbf 3a64 aefc ccb8 e2bf
000003c0: 83b6 9247 0538 ea3f 6567 2619 e366 e53f
000003d0: da96 229f c1e3 e6bf 3286 054c 569d eb3f
000003e0: 7c07 081b b639 e1bf 0ebe 6b9f 04f3 d43f
000003f0: a49e ae09 3bb4 e7bf e2ed 6eb7 bba9 e4bf
00000400: 7cdf 328c 9561 c63f 398e 0690 2094 de3f
00000410: ced1 2a9c 78a0 e2bf 7a99 6aac 622d e4bf
00000420: 4fa3 0ce6 a66c d9bf 6a83 7cf9 22d0 c1bf
00000430: 48fc c285 5037 da3f 412f b696 e54e dfbf
00000440: 8d20 be38 5b01 d83f 153a cd78 591f dd3f
00000450: 741b 8d92 45d1 d5bf 6dd5 6894 1b88 e2bf
00000460: 068c 0259 eb0c ecbf fe26 0004 08b1 be3f
00000470: 1028 6af5 14a2 e2bf 9ea1 2626 e8b1 dcbf
00000480: d56d d005 1bdb cebf e579 9011 5e91 e2bf
00000490: eb3b 5fd6 80dd e73f b934 04ba 5528 c63f
000004a0: bdda db77 d64f babf 166d e974 c8d6 ddbf
000004b0: 1fef ef2f c1d8 e03f 3397 5174 e73b d03f
000004c0: d263 cb30 ba5d e13f 5349 af70 c501 c9bf
000004d0: 1854 600b 4442 cc3f fca1 f098 85a6 e0bf
000004e0: 5f21 d75b 3aa0 e6bf 0846 ecc2 4c92 e53f
000004f0: 47b7 cd09 d8e6 e13f 5ca1 7cc7 523d d73f
00000500: 412a 3f44 2ff0 e13f 542d a25b 0c1d d83f
00000510: a899 425f 36f8 d8bf db9f 6730 cc29 e2bf
00000520: 7af8 f1f5 7b11 d9bf 5009 b7c9 4f8a e63f
00000530: 5691 f13f ac75 e1bf 671d f4e7 d883 e23f
00000540: 06d8 f283 5ad7 e13f 0415 4d4d 0402 aabf
00000550: 7694 3b27 7cf0 dbbf b64a 2a9a 00bb df3f
00000560: c780 42ed c1b8 a0bf baa6 cfda 03f3 e63f
00000570: 411d 7df0 97c9 cbbf f859 b674 fa74 e13f
00000580: 1405 8f96 afe0 dabf f594 983c 645b e73f
00000590: d65c ed11 d9f0 de3f 569c df6c b9be e2bf
000005a0: 9dac 2e6d 3a6d dc3f 7c6a 53f7 d291 dbbf
000005b0: 650c 2ce5 53b3 e1bf f8c3 1966 4326 d3bf
000005c0: 4ec6 25f0 38da de3f 0c58 6b2d 1f57 e53f
000005d0: 0f0f 5a78 3df4 e9bf 1e54 fad6 6a19 e73f
000005e0: 47c5 656d 3e37 ddbf 0a8f 9b75 ec25 e33f
000005f0: f7e7 7112 876a e6bf 675c 0d81 b3b0 e3bf
00000600: e855 29a6 982b b63f f95f f508 6ae4 973f
00000610: 96eb 8ace 0e9a ab3f ab5c 77d3 2036 c23f
00000620: a965 b584 73d4 babf 7d5e 02fa 1edc d83f
00000630: 5ed2 25d1 d74f a0bf 983c 9099 3fb3 ab3f
00000640: e6a3 02b8 f96a 83bf 3c75 0f31 d952 c6bf
00000650: 4422 23cb 9944 c6bf 6f48 7981 1452 94bf
00000660: 6b16 a96f 3594 bbbf 44b0 edcd 7c2b d13f
00000670: 834a 1795 677b 92bf 5d8a 4254 b5c0 a0bf
00000680: fe1d 5a19 4cb7 e33f 703b a1f8 dd60 a1bf
00000690: ffde 5d42 562c d13f 4f23 92ac e1f4 cfbf
000006a0: 7213 8f98 9349 87bf b834 2d4d 434e a7bf
000006b0: 6e0d 52e5 d895 b23f 7c86 e031 b359 a7bf
000006c0: b41c 5a93 2c46 b93f 33c0 f8d3 5797 b53f
000006d0: e71b a2d3 db5e a03f 022e b16c 168e 8c3f
000006e0: 918a b5cd 46fa 903f b57e d03d 74b0 c03f
000006f0: 4a5e 412a fc49 9fbf 41ea 5f97 64ea b9bf
00000700: bed6 1e79 77d1 a83f fd5b c7bf d0c1 be3f
00000710: ab90 3678 31ef 98bf e5ae 12db 3f05 acbf
00000720: 2252 d291 29e3 d0bf 1f93 bd24 a7e3 b83f
00000730: 39d1 f286 33e6 afbf 34bc 41ac 8884 b53f
00000740: a61e 323b 8f78 c73f 3970 7b9a 49b6 e13f
00000750: 11f5 d2fe 3d0b ad3f 2954 a3de 6cef a2bf
00000760: 762b a51a 564d e53f 8a68 cd51 29f1 80bf
00000770: 91cd ab00 8144 e03f 6a27 3afb 6845 9ebf
00000780: e4e0 95df e718 a23f 6c94 85c7 da57 b93f
00000790: 575d cd1a 3959 c63f ed6f c6e6 75ce b2bf
000007a0: 999b 3b96 9990 b0bf d11d ae07 18c9 8ebf
000007b0: e0fb 1d60 388c b9bf cac6 5f69 f43a b03f
000007c0: 3e7b 9fca ed9b c1bf 84e5 f432 c173 a8bf
000007d0: 5a36 db32 304e c5bf adeb ce4b 8834 c93f
000007e0: 7533 2dc6 b8f8 bb3f 9c93 8b5c 7a59 bbbf
000007f0: ccc0 0846 393b a43f 2fe3 5b49 ed11 acbf
0.7332839401495483 0.5322263795878229 -0.7495280535338478 -0.525029307084784 -0.9726303661528904 -0.450204653362347 0.5095021866874968 -0.7102266380670399
0.9190583434458093 0.9949634317287874 -0.8302169819927268 -0.8014150638881774 -0.8346271428397588 0.057187607159606815 -0.7543555210022921 -0.8792817715019192
-0.6891230382653696 -0.7595494293014736 0.6375240429180599 0.5030151782706881 -0.4333455305511913 -0.5311263977794934 0.8987778134069583 0.3515345370943888
0.8577407025524478 -0.5065283276278385 0.5438395605082116 -0.6403430655132142 -0.6161455201643167 0.6976007344932169 0.8869077143136087 0.7939628457485803
0.8708211345124688 0.5732008887728962 -0.5059916419538801 -0.8590073258455705 -0.46695453774362405 0.8478167913365374 -0.8558253064611931 0.5768693829735688
0.8091171081137066 -0.6922855289029887 -0.9589931832855393 1.046124218887143 -0.7206330003274714 0.6416529236247346 -0.7022554863865985 0.7470409887349645
-0.87823610447032 0.9633738144871524 0.6193630975662762 -1.045664815940614 0.9333523769006874 -0.5666125672340314 -0.8844255495406773 -0.766166709423966
0.6732281596300789 0.8637283089881602 -0.7045127188281378 1.1444143425351445 -0.7310219944947911 0.7852769216707115 -0.9391315774770641 -1.1538319440344416
0.5351351918369316 0.8238600411840898 -0.7875385201012782 -0.28655921506151844 -0.5610380734524727 -0.3411937238998482 0.7196071452605232 -0.7215848654844543
0.5901362785721955 0.6224535527728928 -0.6057051223808764 -0.6137992890399487 -0.7507844813245405 -0.013327871335329462 -0.5706448600145946 -0.8571701908437693
-0.816797846775454 -0.8606225765401805 0.7022359673800159 0.14321296525443167 -0.38086534761403346 -0.6007200081553656 0.7320019908634721 0.3901983867398374
0.7836747636743899 -0.591743935299613 0.47764405528142945 -0.33837802659157057 -0.8233351888125917 0.4967719361010547 0.8289717670513707 0.6421142097718701
0.5728523974221281 0.5791001365382032 -0.6836179045862749 -0.5861270990528827 -0.4477904853732739 0.7961893870653778 -0.6187719375531942 0.8130782196754203
0.8443021768415386 -0.49812344035602857 -0.6835092147437289 0.6403861643763438 -0.29644332769042653 0.5055225103897617 -0.635175155014776 0.8298485113220933
-0.8329334277804937 0.7898348659323838 0.5065427858692623 -0.8461163774636276 0.709453535387008 -0.3874017045230558 -0.9920447819667169 -0.5850586829357163
0.8193384550010737 0.6688094607554659 -0.715302286921282 0.8629561886593307 -0.5382948425251324 0.32733264511532034 -0.7407508076766658 -0.6457193930322627
0.1748530325473857 0.477790966653831 -0.5820887613431809 -0.6305402152545831 -0.3972565886092995 -0.1391643255419937 0.40962613165533357 -0.4891904804032841
0.37508278409269097 0.45503842160261004 -0.34089793502464905 -0.5791147135375191 -0.8765770662761276 0.1198887834326818 -0.5822853844886158 -0.4483585712973993
-0.2410615709676295 -0.580245050721541 0.7457889735177309 0.17310592253526183 -0.10278072763672248 -0.46623431603593823 0.5264593063616053 0.25365625724076607
0.5426913216607494 -0.19536655428107483 0.22077227168543412 -0.5203273760899374 -0.7070590776211637 0.6741088683212988 0.5594291869617586 0.3631178806413311
0.560569413465892 0.3767729658945502 -0.39014968207120626 -0.5676022477537076 -0.39169215219579423 0.704383748983938 -0.5456143616579918 0.5785946398108707
0.5575382783051743 -0.05079663699738471 -0.4365530379421395 0.4957887177962833 -0.03265958806264418 0.717164924016479 -0.21708964579213766 0.5455295829331694
-0.4199637384700321 0.7299061950222084 0.48345019102766906 -0.5857817770419256 0.44416676199279853 -0.43077539589800273 -0.5531405902878644 -0.29921040507093677
0.4820692391577709 0.6668849837394659 -0.8110644674893325 0.7218527029787116 -0.45649681743005427 0.5983793541931572 -0.7005038604977462 -0.6153199692297563
0.08660272652317469 0.023332268521102126 0.05390974303505584 0.14227686238766543 -0.10480424871402384 0.3884351197716354 -0.031859154015283705 0.05410193204453967
-0.009481383255051722 -0.17440333266760344 -0.1739685289269507 -0.019844360735369933 -0.10773023582540879 0.26827926740839225 -0.01804887626151209 -0.032720247779498314
0.6161251540333408 -0.0339421621325674 0.26833111268159365 -0.24966069151221368 -0.011370804875591143 -0.045518973513574534 0.07259898756642766 -0.045606231535441716
0.09872702214680623 0.08434056210603628 0.031973714431891946 0.013942885581989199 0.016579729371538014 0.13038495081217652 -0.030555667952596267 -0.10123280234976396
0.048473104033673206 0.12014488870714497 -0.024349949800708853 -0.05472755002241828 -0.2638648914374092 0.09722370764718534 -0.06230317137070291 0.08405355649459595
0.18336668386858895 0.5535018937330342 0.05672639594693341 -0.03698291986226138 0.6656904716886476 -0.00827247887507478 0.5083622944934395 -0.029561653455437854
0.035346265833995166 0.09899680491578672 0.1745978718633789 -0.07346283802183935 -0.06470642011446016 -0.015031993612651203 -0.0997958407078694 0.06339957783327602
-0.13757107156467357 -0.04775813815144672 -0.16644861682145767 0.19691566182686185 0.10926394308371619 -0.10683407554058849 0.03951434116277283 -0.054824271397541195

cutoff f8 [1]
00000000: 0000 0000 0000 1840
6.0

initpot f8 [1]
00000000: 0bd0 b69a d976 0cc0
-3.558032234863281

weight f8 [256, 64]
00000000: f4d1 6e37 3667 a73f 2e65 fea2 7eb6 9dbf
00000010: 1aa2 0043 b8f4 c6bf 1acc cd7b 8b32 a9bf
00000020: 2aae 5c9f 2e7d 993f 6029 6933 2740 a83f
00000030: 3102 82ed f5a2 993f b8fd 9d88 c665 bebf
00000040: aeea 8de0 c0f3 cbbf 35c5 0837 7e1f c6bf
00000050: 794b dd4e f03d b5bf 040f b383 5b76 cebf
00000060: 25a1 0bfc 3bed d2bf 2aa4 c582 e59d a63f
00000070: a850 c4de 643b a0bf 35fe b3cc 6073 b3bf
00000080: 3fd8 febf 8cda a93f 71b6 e788 7ddf d8bf
00000090: d672 cc47 45a8 c1bf 87a8 2906 b20d c53f
000000a0: ec8e 7274 0d51 ca3f 7101 bfa5 207c a5bf
000000b0: a9ea 3457 f029 a0bf b26e 8872 3520 bdbf
000000c0: 740f 2d9e 9558 b9bf 283c 5949 9548 ba3f
000000d0: 457e 1bc0 a6d1 afbf 494a 340e 3b14 b2bf
000000e0: b64e 2b67 fc39 c7bf 7ce3 2396 99d3 c03f
000000f0: fe4f 8081 df6a cabf 14ad a726 c929 7bbf
00000100: bc78 56b5 2c23 c9bf 2802 c065 8552 a3bf
00000110: 7928 0585 9dc4 b0bf 6c7d 27e8 47f9 c8bf
00000120: a46e 870f 4833 8cbf ef14 6ac4 6538 93bf
00000130: 5e4f 0029 e24d d2bf 11f8 09ba 85f5 babf
00000140: 964e d020 9da7 a13f a5f5 372b 37e4 c63f
00000150: 62f7 ce75 2b4d 77bf 0abc fc4c b272 5dbf
00000160: 7ab1 f421 a095 c53f 6eaa d894 0a0d a8bf
00000170: 5172 1c39 af5f b63f dda1 c231 4b09 59bf
00000180: a3d0 cde0 0a34 a1bf c9c4 735e 1136 c1bf
00000190: 7fe6 99b7 5b2c a6bf 763a 9ed4 0c3d abbf
000001a0: 2ccd 57f4 4049 873f 5eaa 95a2 98f8 c4bf
000001b0: 3a84 3d91 9dbb c6bf 93ff dfaa 2a09 d3bf
000001c0: 3453 4963 97a6 b5bf b38a 0cb0 86e2 c5bf
000001d0: ba56 5a7a ee6f 813f 96ec 0dd3 2af4 bdbf
000001e0: 94fd e830 06c1 b7bf 58ce c7a0 a2cd b3bf
000001f0: 2a5e b44e 6181 c5bf e68b adba 8486 bdbf
00000200: 85ba 5789 2960 babf 50bc 0ce4 a119 b13f
00000210: d5cd bd32 c738 bbbf f988 bb9d bca9 b73f
00000220: 61f1 513e 8f6c 64bf 3911 bfe7 f39d 933f
00000230: 62f1 01e2 b107 ba3f abfd 6c76 9234 c33f
00000240: 20ba ff44 e1fa 81bf 8deb 9936 0f92 a83f
00000250: a722 d436 530e abbf 5b20 4398 36cb b03f
00000260: 212d df8e 0d93 d7bf 4f93 f806 f141 d03f
00000270: be46 777d 4be9 84bf eef9 5a1b ad47 c0bf
00000280: 4247 4079 e6fd ca3f 7f9c b5cc b639 cfbf
00000290: 2e3a 54ec 5a4c 983f b4ab b55f 2e15 71bf
000002a0: 8887 7031 087b c73f 08d0 501b ea9c 95bf
000002b0: 53de 38c4 7acd abbf 21f1 d286 b4c4 ab3f
000002c0: 3eed 9f1f f2b6 b83f 23af 660f cd92 923f
000002d0: 8ee5 156c 36e6 c63f bae7 0720 007d 433f
000002e0: 2db1 1c04 501c cabf 0578 b6eb 1c5a bd3f
000002f0: 3d59 8cbc 7479 babf 0770 5815 3160 c33f
00000300: e51e 2b30 241b bcbf 900f efb6 71e8 bd3f
00000310: 7816 33bb eb98 a73f d9ab 62f1 3f08 7b3f
00000320: 0f05 7a98 41dd d0bf 6038 392a 1992 c2bf
00000330: 2310 4147 6edc cfbf ccb4 c07b ef0f b83f
00000340: 626e 6319 22eb ca3f 7bcb ce02 7366 d23f
00000350: 601d ee3c 6300 c43f 6786 1283 cc30 c9bf
00000360: 7356 9a40 0829 d13f bf42 213d 7933 c9bf
00000370: 94b1 704f e623 c23f 9197 f2ed bff0 c23f
00000380: 1f68 4407 451e a33f 2057 94c1 8684 c13f
00000390: 26ec 423b 9ae8 b2bf e857 8952 35dd 77bf
000003a0: 36b8 39b3 e36a a5bf ed4b d6b8 08d0 bf3f
000003b0: e295 37ea 4937 9ebf 7b4e 654a 4b33 ccbf
000003c0: 3c5f 7bbd c462 aebf f287 3265 0f07 c7bf
000003d0: 3a52 1ed9 e438 95bf e483 e88d 6b36 c23f
000003e0: 6035 4b88 e619 c73f e44b f6c8 b65e 603f
000003f0: 9a50 cab0 2226 99bf 6c75 eef4 1d3c cdbf
00000400: 098e 49de 797a a13f 41f6 dd58 f176 b63f
00000410: 6b42 30d6 9a6f bf3f 3cfc 9c02 c4fb 793f
00000420: 2235 6b46 e9e7 ba3f 6c26 254e 031a a9bf
00000430: 4658 c41b 6f6b a33f fd44 90fc 7ebf 91bf
00000440: a715 fd88 5772 bd3f ca99 43fa 8dda b33f
00000450: 0cdd 380c 9882 b43f 0bcb dbac 4357 cf3f
00000460: 161d 6f1e 6266 d53f 70da c1d2 8c3b a6bf
00000470: dbae 72c7 7090 c23f ad41 1f6a b23a c43f
00000480: e055 b229 5ae6 d0bf c8f4 d2cd ac25 c83f
00000490: 2ac4 c08d 4f81 c43f 4db1 3c42 6c2f 94bf
000004a0: c052 e6c1 dcb9 8d3f 438d 3418 0211 a1bf
000004b0: 8b54 1ada cb51 afbf ad73 9135 2655 a7bf
000004c0: a68c 33b0 6ccd c23f 5d83 8988 e31d a23f
000004d0: 42ea 1562 7040 b4bf 7217 4402 72b6 b4bf
000004e0: 55e8 bbc8 8d86 cd3f f16a a963 4bd7 c73f
000004f0: b5fb dbf7 0626 c93f e348 a017 7947 b83f
00000500: 7651 5700 0c3a c43f c4e4 421c eafc b73f
00000510: 7aab 9c7d 0f57 ac3f 3338 b157 2612 c13f
00000520: 56ce d0e3 2c24 b73f 985f 794c a858 a6bf
00000530: 0491 fe5d c879 a23f 8ef8 89c8 f5a9 a4bf
00000540: b745 7bab 9210 b53f 6a7b 2200 da3c abbf
00000550: 3038 802e ab2a c33f 068a d358 56b3 b03f
00000560: c4b6 864c fab4 cdbf 9e1a 4712 cdfb b03f
00000570: 000b 5bc7 3821 bfbf 49cc 5dbf e99d a8bf
00000580: 740b f303 eeea 853f 4f79 513b a55b b03f
00000590: fb11 3aca 94f3 b03f 80f1 9a88 f9b3 ba3f
000005a0: b549 76e5 ab11 c93f 51f6 a69a 2bcc b4bf
000005b0: 343f f532 318c 8f3f bed9 2f38 654d c73f
000005c0: 98e1 ca91 e81b c73f 4bdb bac6 62db b03f
000005d0: 41a5 95cb 6d07 c13f 8ad3 5fa1 a945 b1bf
000005e0: 7ee3 34f9 b072 bbbf 7610 8c09 7804 713f
000005f0: fdb6 4d1e a4a6 c73f a9df afc9 d4aa b33f
00000600: b474 9069 c826 b6bf 27c3 ef99 0649 c7bf
00000610: a966 8697 a6e6 d0bf 45b4 7ead 53c8 c4bf
00000620: f2b3 841c bb96 c5bf 0c3d 3418 5fee a3bf
00000630: 68fe 6c3b 42e8 a6bf 9955 c657 55b7 c9bf
00000640: e813 1cb4 8ae8 c0bf b885 5165 ca30 c8bf
00000650: 4e91 ed28 a1e9 9a3f 9dc1 0070 1569 d0bf
00000660: 2f80 c434 a65a dbbf f893 36d0 a152 c33f
00000670: 25a8 2215 8b12 c7bf e4af 3ffa 79ef d2bf
00000680: 0ee2 d5d1 f12b c93f 31a0 6b1b a0c5 c2bf
00000690: 3570 cbcc 9422 c7bf 2749 b8ce 27b7 94bf
000006a0: d115 63cf 2fc1 9a3f a5b6 8cae 7531 b9bf
000006b0: 7f97 8810 647d c3bf d7eb 68c6 c549 713f
000006c0: c800 d604 d10c a0bf 24f8 6210 b8d2 c0bf
000006d0: df29 67e1 6122 c1bf 5bae 8326 23d0 b0bf
000006e0: 9040 785f d55a cdbf 7324 1345 d0e5 c2bf
000006f0: 38a2 40c4 5579 d0bf 6007 d66f 4428 c2bf
00000700: c6da cc82 30a3 d5bf f280 375a b19f c4bf
00000710: 90c5 ddd4 54b1 c7bf 6257 c7b1 bf45 babf
00000720: 2458 34a5 f525 c5bf db9c dfaa 10f4 cfbf
00000730: 27d7 fada 0868 cdbf 1182 ee54 a683 8a3f
00000740: fd07 0fc7 4c55 b1bf 0123 c685 ad1c cf3f
00000750: ed04 78b3 fae6 c1bf f4eb 8fa4 86f2 cabf
00000760: 5d8c 7709 c70c b63f 5c20 9412 3619 d1bf
00000770: f5cf fa1f d5d8 d33f 2574 d6b7 d650 b7bf
00000780: 499b 1da6 50a2 b1bf 2bac 11bb 4f1e c1bf
00000790: 131d d84f 8dc8 a6bf 62da 22f2 4eef b7bf
000007a0: adbf f699 2133 cdbf 6cc9 daa8 16a9 ae3f
000007b0: c7ab 67ab 9178 d1bf a8e6 67fb c7fe b6bf
000007c0: 9222 24cc 789d c5bf 7f61 f821 22db c3bf
000007d0: 6df3 ad67 4700 b1bf 7052 5aee a241 a13f
000007e0: 82af bc00 dded 96bf 1f23 05e1 71a0 b3bf
000007f0: eafc 3700 7473 b0bf c822 7e8e 9ef8 d5bf
0.045709318415365546 -0.029016474436138022 -0.1793432547722354 -0.04921375166204474 0.024891594387709194 0.0473644495255765 0.025035708066299903 -0.11874047122363762
-0.2183762642342421 -0.17283609091968236 -0.08297635960961526 -0.23798698359143355 -0.29572963346301356 0.04417340489710171 -0.03170314044305772 -0.07597928044923992
0.050495527684163204 -0.3886407696689736 -0.1379477119998202 0.1644804506389088 0.2055985277739788 -0.04196264289157881 -0.031569967885351 -0.11377271696295102
-0.09900794135779539 0.10267003098236727 -0.062146388006791876 -0.0706211957624784 -0.1814570907359802 0.13145751792015037 -0.2063865072565249 -0.006631646867826708
-0.1963859448850992 -0.03773896090570289 -0.0655001115566466 -0.19510744891793352 -0.01376968667403073 -0.01876982699697732 -0.2860036278154804 -0.10530887405363411
0.03448191667135096 0.17883958444865047 -0.005688829199184871 -0.0017973653047638227 0.16862870843887007 -0.04697449748012593 0.08739752907099187 -0.0015280947036818628
-0.033600177709474786 -0.1344625197594154 -0.04330717674470196 -0.05320015044627706 0.011370189148670017 -0.16383655489638022 -0.177600570600619 -0.29743448912631115
-0.08457323240265852 -0.17097552868024976 0.0085142737473619 -0.11700694706626033 -0.09278906530470571 -0.07735649514489162 -0.168010867528879 -0.11533383901182467
-0.10302981951802266 0.06679736917134105 -0.10633511532596825 0.09243372774975346 -0.0024931714747806065 0.01915722944228657 0.10167991416705527 0.1500418737650596
-0.008779296796970704 0.04798934499282046 -0.05284366649909105 0.0656007882818143 -0.3683504004699945 0.25402475052606105 -0.010210599676529038 -0.12718738399230695
0.21087342186415908 -0.2439487933690749 0.023728771852853985 -0.004170590541756992 0.1834421388057843 -0.021106393735138368 -0.054302059605501406 0.054235116441733185
0.09654153129661311 0.01813812643528857 0.17890053060163463 0.0005947352038326783 -0.20398903084549982 0.1146562648268344 -0.10341577151516375 0.1513730386949421
-0.10978914428698834 0.11682806697996129 0.04608856830740832 0.006599664475440436 -0.26350440874382824 -0.1450835663003458 -0.24891451338965095 0.09399315615947329
0.21030069579761618 0.2875030066890571 0.15626183009247097 -0.1968017234803938 0.26812940892100484 -0.19688334927425008 0.14172057036320196 0.14797209852730167
0.03734031404219728 0.13685688449975775 -0.073861731975669 -0.005826195040375716 -0.04183112681208494 0.12426809799789824 -0.029507784767607854 -0.22031537182430214
-0.05934729397784941 -0.1799029583099237 -0.020724845649583858 0.14228577069391612 0.1804779210564602 0.0019982881564799427 -0.024559537926123733 -0.2283971258120049
0.03413754309147172 0.08775242251973571 0.12279670457088236 0.006343618073343878 0.10510118455131992 -0.04902658776206867 0.03792903150512976 -0.017332061925178433
0.11502596945236708 0.07755362853968176 0.0801177053298156 0.2448505968128177 0.3343739793021582 -0.04342308113784987 0.14503297556563308 0.15804128820174182
-0.2640595824426253 0.18864975023271868 0.16019625112088082 -0.019712153952398826 0.014514660518025635 -0.03333288712954154 -0.06117093121898972 -0.04557151225956289
0.14689406016905088 0.03538428346360576 -0.07910826105754956 -0.08090889506646962 0.23066875745263596 0.18625776640222783 0.19647299864297244 0.09484059168633822
0.1580214502015555 0.09370291891072485 0.055351718982214984 0.13336638719414537 0.09039574205308418 -0.04364515241166983 0.036085378145147146 -0.04035919259057251
0.0822841328292928 -0.053198635593836155 0.14973964472341228 0.06523646992312856 -0.23208550202018874 0.06634217926248673 -0.1216006743152711 -0.04807978116050344
0.010701999183202672 0.06389839838218346 0.06621675431421885 0.10430869660462427 0.19585179046823745 -0.08124039197624568 0.015404114120115865 0.18204941981794137
0.18053919905447624 0.06584756233028803 0.13303921166088098 -0.0674692172031667 -0.10721880039353768 0.004154652496030411 0.18477298240343734 0.07682542728423293
-0.08652927949192951 -0.18191607014116437 -0.2640778045402877 -0.16236349078590898 -0.16866244213579723 -0.03892800493678736 -0.044740743402596206 -0.20090739045978692
-0.13209661287706287 -0.18898897120656755 0.02628185093216589 -0.2564138025072909 -0.4274077906902702 0.15095923105869224 -0.18025339633942497 -0.29586648405415716
0.19665358301041674 -0.14665604914557798 -0.18074283599605825 -0.020229932777575812 0.026127573998356916 -0.09841094504801136 -0.15226412589361968 0.004220745619529751
-0.031347781982732636 -0.13143063354613205 -0.1338617659187795 -0.06567592325489484 -0.22933451806648408 -0.14763835308830017 -0.25740570225983417 -0.14185386143440848
-0.3380852963777382 -0.16112343697660197 -0.1850992240320406 -0.10262678232478842 -0.16522093359589107 -0.24963577598030082 -0.22973738376975314 0.012946414439114514
-0.06770782337028432 0.24306267768795212 -0.13986142886282185 -0.21052630458129296 0.08613246899726464 -0.26716377081220855 0.3101094066907984 -0.09107725132203422
-0.06888298087652091 -0.13373753198843139 -0.04449884032879416 -0.09349530612494442 -0.22812290208594047 0.059883792984140566 -0.2729839490772829 -0.08982515228117427
-0.16886815994100296 -0.15512491854384433 -0.06641050606954275 0.03370389136867835 -0.0223917514514791 -0.07666694396642669 -0.06426167493190219 -0.34329952159218324

bias f8 [256]
00000000: 5005 617f 6b42 a2bf 080c 20f8 5911 b3bf
00000010: 333a 64d7 8048 c83f 02a5 6cb8 e9be d8bf
00000020: f34c 3ea3 25a2 cabf b984 0a74 9140 c63f
00000030: 6447 fc23 86a6 bebf f861 befa 9d97 d1bf
00000040: a6a2 bcfa 7a27 b93f 0245 d026 db05 7a3f
00000050: 6675 cfea d3de c8bf cd8d 62b1 9008 a53f
00000060: 747c 614f 8571 c33f 1ad1 dd5f 0e3f c93f
00000070: 21b3 51b2 0a92 cf3f 2029 b306 7e04 c9bf
00000080: 7c8b 23a4 08f3 cb3f 6729 6f76 ecc8 cebf
00000090: e7c6 d98e 8ee9 a83f 03ed 4041 2df5 ce3f
000000a0: eb0c cae2 ff19 cf3f 0246 d9c7 5476 c7bf
000000b0: f186 e1a9 7f15 cc3f e5dc 9b99 8562 d3bf
000000c0: ae0c 17c0 3c3f c13f d91c 34f9 9e5d a7bf
000000d0: c964 f94f d3cf bebf 2511 8d28 3cda c33f
000000e0: 281e 6651 b3ca c83f 3d97 bb7a e189 cebf
000000f0: 3d89 eb0d 2863 d53f 7894 6ce5 1e26 c6bf
00000100: e216 cca8 c3de d03f 9aeb f543 3cfb b53f
00000110: 6516 175c dbbd d13f dcad 1f77 814e b93f
00000120: d82d 5fbb 9be3 d73f c5eb 65cc 11d6 c2bf
00000130: cf94 13d2 d0f4 cb3f 606f 73e8 dae4 b03f
00000140: 5fa4 0cbb 8982 c73f 37ef e5a5 5ce2 bf3f
00000150: 873b d3b1 dd35 d1bf 7404 d479 e287 d33f
00000160: 56f1 af7c 8005 a0bf 483f 564b 0e09 d13f
00000170: 8cbd 54a5 fbe3 b9bf 75dd 8a91 2c1c ad3f
00000180: ff79 6b1a 2ca6 bfbf a503 b30b 1a6c d63f
00000190: 1858 bb84 bd0d b73f deb3 a23f a0a2 b2bf
000001a0: 34fd 1eef 52e9 bcbf 9ebb cdcf e5f3 ab3f
000001b0: 1ee0 7722 8d5a 90bf b57e 35ec fc71 cd3f
000001c0: 43c2 fe2b 8d0f a63f 2439 7120 4418 ccbf
000001d0: d940 1ed0 e99d ba3f 59b9 e882 cd64 8d3f
000001e0: e8b6 7466 edbb ccbf 80f7 488c 9e4a c73f
000001f0: 9a0c 06e5 6d16 b6bf 134d d1e4 ed14 973f
00000200: b6aa f321 60c6 c8bf ae30 ddfc 2463 c93f
00000210: c088 b476 7702 c9bf 084c 69a9 cf8b babf
00000220: 24e8 60dc 6f8b d33f fd01 2815 0578 bb3f
00000230: 4de4 e2f8 fee5 8cbf 23c6 4f39 1de4 cb3f
00000240: 6f76 2453 8145 a7bf 51a3 8d54 a4b0 adbf
00000250: d261 db9a 8ca1 90bf 36e7 24be acf4 cabf
00000260: 4184 d7bf fa45 c7bf a5c3 e71f 842b c6bf
00000270: 5646 cdb6 6804 adbf 207f 7896 8c7b c33f
00000280: f996 c78c ed1b d43f 2273 5113 6550 c8bf
00000290: 1ba4 8d56 2418 c53f 4d0a 7131 7731 c7bf
000002a0: 1e17 6d8c 532f c23f caa9 b49c 27a7 a7bf
000002b0: 2cdd 4083 b1f9 733f 1b36 2afb fb9b cfbf
000002c0: 62c8 a694 759e bc3f 15c5 70bc 6539 a8bf
000002d0: 4087 135c 1c8e acbf 7806 b855 6c23 d13f
000002e0: c1b0 7892 b0c4 c1bf eae4 9443 20fb c1bf
000002f0: 476a 62eb 260c c53f 7596 b188 0502 d03f
00000300: fddb ab24 f5c2 cc3f 08bf 8365 747d d13f
00000310: 71be ba8c 486c c1bf 7882 3fd8 1b26 d23f
00000320: dc7f 73d5 7249 c93f bbe6 29e5 535e d03f
00000330: a208 2a9b 111a 403f 1c2c 988a 3094 d53f
00000340: 6162 8498 7a31 c1bf 31fe dd27 cc70 dd3f
00000350: a24d e22f 83bb c7bf 37d7 5e2a 7201 bdbf
00000360: b7bf af46 54ad d43f 75d8 39a5 7caf c9bf
00000370: 107d 5613 b68e d33f dedc 768a eb6e afbf
00000380: d90c 8351 a400 cebf f5f1 9268 b6c9 d03f
00000390: 373a 0142 ac17 a13f aa4c 79fd 30ec c6bf
000003a0: a5c7 5628 0ad2 b5bf 25c9 755a d287 c53f
000003b0: 2de5 0f0c 3dbf d6bf 760b e903 84dd cd3f
000003c0: df04 8f1a d268 af3f 7dad 73e6 de28 be3f
000003d0: 04aa cf7d 0914 d0bf 5e90 661a 62b1 ce3f
000003e0: 5bc4 3359 0fc6 d13f 7f2c f735 e96b 9b3f
000003f0: 1e0f 4273 02f8 cd3f d7de d582 b5f3 ccbf
00000400: f45b 1933 6d7e c33f 75fb 4843 dc90 c73f
00000410: a9ab 70ae 7861 cabf ec0d a150 38ee b7bf
00000420: 8371 03cf 05c6 c03f 27eb 7acd 7a52 d73f
00000430: 55c6 7af5 9728 b73f 690b 2c0c f688 b3bf
00000440: c7eb 4b25 4d12 c0bf 5e83 6db8 045a d13f
00000450: efb3 3ea5 1c68 cebf 365d 3f4e 50f8 c03f
00000460: 70a2 c682 8286 d43f d138 b735 1c1e d1bf
00000470: 2ed2 a89e b261 983f 07ff f99c 1308 bbbf
00000480: fb4b d7f6 3471 b53f 68c5 9b4e 2895 c43f
00000490: 9e85 71da 50d3 c7bf 4672 7e5d 37da d43f
000004a0: 89d2 3b77 461d cebf e64e 8e95 0b1f b1bf
000004b0: 2a28 86d9 dd7c d1bf 319b 63da ff52 90bf
000004c0: bace 21c9 5588 c83f ad4c 44e3 ad8c c4bf
000004d0: af19 d46f 5a04 c7bf 9e0b d3ce 7df1 c9bf
000004e0: f855 5f8d f0a0 c63f 8615 5fa0 cc31 d33f
000004f0: 7dfa 2095 67dd c73f f1d4 2a99 db43 c43f
00000500: 855b dcd0 2729 aebf de23 385e 60f1 c43f
00000510: de00 56c0 ed2f d7bf d723 7dac 5882 cebf
00000520: defd 667b dd28 c4bf ff60 953b 3b6c b73f
00000530: 2d21 c374 c6b1 b1bf 553c 4068 d396 d63f
00000540: af65 d3c5 9f93 a03f f7bc 60ad 8096 cd3f
00000550: 99f9 1d92 ca7b ab3f 1b4f 31f3 cf0f c63f
00000560: 40b3 25ac 3db3 cc3f ef0c 7f71 7311 cebf
00000570: 356b 8657 64f3 cebf 8ff5 d1a7 f084 d1bf
00000580: b836 8052 fe59 bf3f 537b e20d e7e1 a8bf
00000590: c34d 7bc8 3f52 babf 0248 f0dc 395c c93f
000005a0: b2cd bd73 ee5d d93f 877d 177e 7c7c c5bf
000005b0: e065 1523 4ef1 ae3f 36bf ed88 fea1 c6bf
000005c0: 1a28 00b9 d5e2 96bf 789f 341b b45c 8bbf
000005d0: a253 ab01 5e45 c0bf 9724 eaa8 3e7d afbf
000005e0: fa1f 64dc a421 d33f d3a6 4e71 f5c9 b13f
000005f0: b4f7 0ab7 da2f d23f b823 ee00 26c8 b1bf
00000600: e3b9 f8ba be7f b7bf 54f7 da85 0e0c db3f
00000610: 051e 737b 5ea0 c23f fb85 4d6b 34db 733f
00000620: 7b7e 38ac cc92 b03f 5352 e482 86e3 b8bf
00000630: 1d0b 68e2 70a9 c03f 40cb 2e92 e950 d13f
00000640: b90a 19fc 8201 d0bf 2e7c 81d5 25d6 d53f
00000650: c7a0 d8e8 9b99 c9bf 8b32 2497 46a2 c2bf
00000660: 280f 15bb 6d40 d33f a6f3 3eca 51e0 a43f
00000670: 468a a6d7 ab13 c9bf fb9a 52fd 4e9c c63f
00000680: 3d51 435b 7200 b33f dfd3 f1db 6bcd c5bf
00000690: 698e e04d 5887 ca3f 1af7 fd2e 94f5 c33f
000006a0: 9383 b08f be16 553f 6b11 083e d992 c43f
000006b0: 0506 12c8 8377 cf3f 3cbd 6435 7e5d 93bf
000006c0: 1dec a52c df84 d23f 4653 c174 6350 953f
000006d0: 7b02 ef19 ab30 d73f c037 f8fd 399d d13f
000006e0: 410f f75d b028 bebf 617e 4b6a bd36 c33f
000006f0: a304 fbbe 8b0e be3f 45a5 451c ebc5 c23f
00000700: 8774 6abc 699f b13f fb87 d02a 7c92 c93f
00000710: 2967 5183 ac8c bdbf 55bc f37e 6eb2 b53f
00000720: 0b8e ba82 0318 d03f fed7 50b0 db67 b9bf
00000730: 189f df16 1859 a5bf 8a72 5078 1f74 c13f
00000740: 1bc2 9c1c 60f6 b93f 2418 28d0 2420 a1bf
00000750: 781e 304d 00db c63f 0122 0ba5 0ee0 c9bf
00000760: 0b07 3ad3 be59 cd3f a78f f392 24c3 d03f
00000770: f5bc 7718 ccd9 4e3f 844b 367b a26d bf3f
00000780: fa21 286a b2bc b6bf befb fc58 cb11 ccbf
00000790: 93e7 7da4 c101 c23f 7da8 ce33 7b39 bf3f
000007a0: 3155 b880 98da d13f 8ea1 567a fa76 bbbf
000007b0: 11ee abb3 57f1 c23f cdf9 2307 9fd6 cc3f
000007c0: 889b 51de 1116 cdbf 4103 e056 6d12 d73f
000007d0: 4861 d76b 6905 96bf a43e 188b 901d c13f
000007e0: 4bd8 e4d0 bbfc d43f 8bb3 d97e e453 ccbf
000007f0: 2d74 ddee a9bb d73f b0ab 3eaf eb5e a3bf
-0.035662993716423785 -0.07448351199859371 0.18971262471355174 -0.386652402975031 -0.2080733344160773 0.17384546438282714 -0.11972845438529373 -0.2748789738339208
0.09825867291932386 0.006353241024968927 -0.19430016484595142 0.04108097234100292 0.15190187812820322 0.19723682099323342 0.24664434153546558 -0.19544959380284244
0.21835430159179825 -0.2405067041675679 0.0486568974855695 0.24185720144473785 0.24298094342893903 -0.18329868086088658 0.21940608782738694 -0.30288829804290024
0.13474234942814206 -0.04563614646945675 -0.1203586645364282 0.15509750347167386 0.19368592714839505 -0.2385827874451766 0.3341770301759828 -0.1730383510813771
0.2635964535150902 0.08586479815669038 0.27721294396574186 0.09885415228170963 0.37326710985209166 -0.14715788345696815 0.21840868241921504 0.06599205184050794
0.18367120393057498 0.12454775858162469 -0.2689127193997866 0.30516874215397327 -0.03129197618543127 0.266177724429316 -0.10113499437715329 0.056855576292430245
-0.1236293377400912 0.35034800665385496 0.09005341043970849 -0.07279397538759677 -0.11293524110714231 0.05459516679444863 -0.015970425823951577 0.23004113706246235
0.04308739816713516 -0.21949054321380246 0.10397206622133427 0.014352422292259236 -0.22448508742075224 0.18196470117430508 -0.08627974358937465 0.022540776339451684
-0.19355394037059676 0.19833814951778578 -0.1953877763381282 -0.10369584928530184 0.30538555642454157 0.10730010763655425 -0.014110557527930246 0.21789899156969836
-0.04545215740129726 -0.0579882958616681 -0.01624126143619426 -0.2105918816030738 -0.181823104546341 -0.1732030063426723 -0.05667426330059004 0.1522079214782872
0.31420458553326075 -0.1899534553839653 0.16479925371393808 -0.18119707025660362 0.14206928593392204 -0.046197164420238204 0.004876798066155968 -0.24694776309881736
0.111792897025937 -0.0473129074602047 -0.055771719207554415 0.26778705950719184 -0.13881499435354352 -0.14047625827678384 0.16443335049992155 0.250123389711326
0.22469963350860658 0.27328214562929576 -0.13611704703861308 0.2835759746358586 0.19755397245808026 0.255757306854871 0.0004913888900122297 0.3371697762929118
-0.1343224758827715 0.4600096120193227 -0.18540992582402988 -0.11330331358371103 0.3230791750238455 -0.20066793506311212 0.3055854023786688 -0.06139312806356555
-0.2343945882804295 0.26231155597977757 0.03338373475763883 -0.17908298851634658 -0.08523620114172432 0.1682074491214475 -0.35542226961077256 0.23332262221273553
0.06134659361078731 0.11781113744989642 -0.2512229660630114 0.23978830613225716 0.27771362029222296 0.026778835219186888 0.23413115146478786 -0.22618740929077916
0.1522957324511648 0.18410828862576137 -0.20609959142288162 -0.09347869842991202 0.13104317291334774 0.3644091612474533 0.09046315901903175 -0.07630861088914077
-0.12555851288911254 0.27111928949857667 -0.23755224293327568 0.1325779325550031 0.3207098271473461 -0.26746278043436883 0.02381018727665401 -0.10559198934970136
0.08375865007774046 0.16080192411713345 -0.1861363474481949 0.3258188641573593 -0.23526840993840306 -0.06687996293322448 -0.27324625246604006 -0.015941617683803592
0.1916606170740261 -0.1605431899739406 -0.1798203512227707 -0.20268223379943334 0.17678648856114854 0.2999145094039125 0.18644423276596803 0.15832085589287417
-0.0589077417809483 0.16361622429420114 -0.3623003366738099 -0.23835285589510022 -0.15749710584166982 0.09149522976565903 -0.06911888456955202 0.3529556768489262
0.03237628259530411 0.23115547624318086 0.0536788276067341 0.1723575532401974 0.22421999841335527 -0.23490756074725236 -0.2418027331703684 -0.2737390173786815
0.12246694101505795 -0.04859849972239396 -0.1028175224740187 0.1981270149995567 0.39635812094567335 -0.16786152035545518 0.060434762747444415 -0.1768186730000651
-0.022349681297818426 -0.013360411720512153 -0.1271169193411455 -0.06150241672464423 0.29892846605844137 0.06948789612092847 0.28417079806592516 -0.0694602730055881
-0.09179298462615963 0.42261088439760397 0.1455190756589532 0.004847721826850111 0.06473998264891094 -0.09722176261522834 0.13017092757225948 0.27056350017226194
-0.25009226435592385 0.3411955437676991 -0.20000027532046813 -0.14557726268721569 0.30080741185905646 0.040773921907635555 -0.1959128191929997 0.17664515847464898
0.07422556617831773 -0.17033146132931073 0.2072553997287401 0.1559319714978578 0.001287160964018795 0.160731463707758 0.2458348013788482 -0.01891133499992502
0.2893598495499548 0.020814470292253938 0.3623454812296029 0.27522134591788117 -0.11780836385792971 0.15010802927189373 0.11740945255862072 0.14666499023887006
0.06883869981762035 0.19978286829524436 -0.11542776304250126 0.0847539005223877 0.2514656807563546 -0.09924099974236353 -0.0416953590318469 0.13635629057616355
0.10141564081710223 -0.03344836274122567 0.1785583855528221 -0.2021501832844166 0.2293013125782227 0.2619105753967638 0.0009414907989916665 0.12276664264781628
-0.08881678668706874 -0.21929303975227116 0.14067860156847853 0.1219708444101872 0.27896702356641173 -0.10728421675469788 0.1479901912024251 0.22529971932085716
-0.2272360168019214 0.360499701346317 -0.02150501938544494 0.13371474067434008 0.3279256381969204 -0.2213101977717112 0.3708290894190352 -0.03783356203287924

alpha f8 [1, 256]
00000000: bf1e f6f3 1ee2 f13f f525 baf9 966b f23f
00000010: 7e89 9d14 b5f5 f03f d6fc c271 a383 f13f
00000020: 7d4d 95c1 a329 f13f c478 4ab0 839e f03f
00000030: d414 c2fa c466 f13f b368 85c5 e298 f03f
00000040: f724 71b8 5cfa f43f dca1 9517 b710 f23f
00000050: 662b d120 f1fb f13f 29d7 1398 739b f23f
00000060: 43fb 91f4 b144 f33f b2f3 47f3 e545 f13f
00000070: 6ff1 b4fa d76a f13f d056 c222 c030 f23f
00000080: ae19 fbe1 0601 f13f 8ff0 f166 101d f33f
00000090: d25c ed9f 2f31 f23f 488b 21f5 2b03 f13f
000000a0: a9f9 2920 ee73 f13f 55cf 76ed 319e f13f
000000b0: d66d 8a70 c2ee f03f 5360 cfd1 5e0e f13f
000000c0: 9422 1208 8450 f13f 50af 96aa 76a3 f23f
000000d0: 382e 0c77 005c f33f d483 2024 37f6 f03f
000000e0: 665d 3582 9d0e f13f c1f2 4154 7338 f23f
000000f0: 9ac0 e458 4cfd f03f 4aef 1b5b 71c5 f33f
00000100: 2e8e d7a0 eb51 f13f 44d5 98b7 d23a f13f
00000110: 2250 5346 8ad5 f13f f209 61f1 8a0a f13f
00000120: b954 a875 dc5d f13f f668 d686 da13 f13f
00000130: 74cb ca8c 58b3 f13f b2b4 bcc4 80cf f03f
00000140: aee9 70ad 92d8 f03f 5abc fcca c611 f13f
00000150: 10c3 4c0a ffc9 f03f 747a ad04 006d f13f
00000160: 9742 c252 ddd2 f13f 1eb5 28cd 9431 f13f
00000170: a226 86f9 a911 f53f 5f6b 8477 39a7 f53f
00000180: 7b67 b713 9713 f33f 0962 eb99 849e f13f
00000190: 81f1 59f1 2752 f13f 62be 73eb 2d3d f33f
000001a0: 4c19 f553 037e f03f 6051 e0ec 6f2e f13f
000001b0: 37f7 e60c c667 f23f b9f0 68c6 a70f f13f
000001c0: 2f23 2ef4 0af1 f23f 1598 2e2b a495 f23f
000001d0: 122f 9644 2216 f13f cf48 91e8 dbf3 f23f
000001e0: f87e ffd1 b4f9 f13f 41c1 073d 9e1c f13f
000001f0: 64d9 ad0d f477 f23f 1a67 a58d 7793 f03f
00000200: 2668 a2f8 6b19 f43f f7cf 1244 e919 f13f
00000210: 8e5c 26a7 24a1 f13f fa2f 1414 e780 f23f
00000220: b80e a3bf e1f6 f03f 4f33 2db0 92f7 f03f
00000230: fe2f b609 dfe5 f03f 7abc cf3e 6424 f13f
00000240: 45d1 c866 5b15 f23f edce edab bb30 f23f
00000250: f7a5 0b62 f49f f23f 052e 714b 2d52 f13f
00000260: 2113 11bb 0fce f03f 9f65 3e98 6c48 f23f
00000270: 702a baad e9db f03f 4158 ed77 332e f13f
00000280: 6521 1912 c95b f13f af70 a1e1 f832 f23f
00000290: 4b81 9546 d0d1 f13f 96af 00a7 2fe4 f23f
000002a0: fff3 cf09 0f79 f53f e2bc c646 4ffc f13f
000002b0: 95a9 b8e1 1d13 f23f 6a5d 3010 1d02 f13f
000002c0: c3ff ef05 d7f7 f03f f12c 31f3 e968 f53f
000002d0: a5c0 c942 3096 f13f 59b5 8d13 9416 f13f
000002e0: d330 97be 51f8 f03f 3cab 6d2f 40a4 f13f
000002f0: 3b70 1b02 8acf f03f 9d6d e2f5 eb34 f13f
00000300: 2ab5 6e25 86ec f03f e69f 7674 28e5 f03f
00000310: 7345 de26 f69a f13f 6031 b1e2 3c21 f13f
00000320: b6ff b0f2 47af f03f 25de c349 b9e0 f13f
00000330: c2f8 85db 0b84 f13f cf2d f5bc bd4a f13f
00000340: 8893 bb1e 76cf f33f 00af 3d46 d4c2 f13f
00000350: 8253 8d0d 3239 f23f f25c 0b6a 1c0e f33f
00000360: b1fe 345a bb42 f13f f199 6650 3fda f13f
00000370: 0f00 0e55 3a54 f13f 0c9d 95e6 4740 f13f
00000380: f499 58c3 c473 f13f 3611 c32b 014e f13f
00000390: 780b d77e af2f f33f d466 93a9 dd91 f23f
000003a0: dff3 e68a 786c f13f efc8 ab3e 8b0b f13f
000003b0: f3b5 9861 16e6 f03f 20e4 30d2 0387 f13f
000003c0: bf67 4760 a9de f13f 4daa d4cc 3a44 f13f
000003d0: 4f28 af73 a0ac f03f 8e00 55ef 7212 f13f
000003e0: 5cc6 1caf a3e8 f03f 7c21 dcef 689b f33f
000003f0: 533c ab16 b4c5 f03f 5715 81ef 0e9d f13f
00000400: 5c52 ed3b ee44 f13f e953 f446 7d17 f13f
00000410: 2b78 7218 1451 f13f 4a94 40bf 426d f43f
00000420: 5853 6248 56b3 f13f fa06 987c 13bd f13f
00000430: b205 f3a8 9bed f03f 07e6 3417 ae48 f33f
00000440: cb0a 8a5d 3a70 f13f 5c5c ecb2 4a9f f03f
00000450: 4a63 114f 60d5 f13f bfbf 086d 35ec f03f
00000460: 0494 ad31 e92b f13f 5be0 277f b1d3 f43f
00000470: 208a 25f9 b594 f13f 6231 c575 2ac6 f13f
00000480: 805a e9ac 7f54 f13f bf70 667f 1145 f43f
00000490: c711 9361 e298 f13f ff00 abeb 76a6 f13f
000004a0: 3b01 7d05 cb57 f13f 1f7a 1c6a c7c4 f13f
000004b0: 45f7 aa8f a913 f13f 1583 b666 b11d f23f
000004c0: 20f9 8a2e 6351 f33f eb4a 5291 b475 f23f
000004d0: 632c f880 c4b8 f13f fce9 f2ca 82c8 f23f
000004e0: 9ac9 492b 15f9 f03f 00aa d4d3 7c3d f13f
000004f0: 06db d185 c6c2 f03f 2bf5 6bd4 a94b f23f
00000500: 2506 51c8 7fa5 f13f b721 bbcd 0a72 f23f
00000510: 9798 4355 6ef5 f03f 2933 088c d267 f13f
00000520: b214 9bb8 ca28 f13f 396e 1e03 5cef f03f
00000530: 849b a022 48e7 f03f a0de ac49 7c43 f13f
00000540: 7eea 1aff c46d f23f 3883 eaeb 18e6 f03f
00000550: 453e 80ef 851c f13f b0ac 61dc 489a f03f
00000560: 2084 4e2c f07d f03f d5af 9614 eee5 f33f
00000570: 92bc 5dbe 14df f13f c09a bd93 5ff0 f03f
00000580: f7ac 65fb d112 f13f 506f 8676 63f1 f33f
00000590: bacc ece6 5698 f13f 14a0 e566 94a7 f13f
000005a0: d990 4896 eb82 f13f c384 9943 3dbe f13f
000005b0: 1569 206b 06a1 f33f a3b7 63bf 9820 f43f
000005c0: b1e3 06ed 6c63 f13f 4ea8 cf3f 27ca f13f
000005d0: 3357 545b 6536 f13f 2556 ce6e 3b4b f33f
000005e0: a67c 8210 3b8f f13f ffcd e5ff 7d59 f53f
000005f0: f0c8 07a6 0a43 f13f 8e92 2e6a b49a f33f
00000600: 64dd e038 d3d4 f03f ec54 96c4 dcd0 f13f
00000610: db0b 580c bf9c f13f 8ffd 7f56 5312 f53f
00000620: 2194 a609 79f1 f33f aba4 0257 7801 f13f
00000630: 2210 adf9 c8ce f03f a26a d33d 8ba0 f03f
00000640: b017 7312 8c05 f13f 282d 781f bc13 f13f
00000650: 97f0 96e8 2824 f53f 5618 3c7a c4ec f23f
00000660: d413 4dd7 ed0b f13f a1d1 d842 0abd f13f
00000670: 0761 ef97 5c43 f33f c1ce 03e7 065b f13f
00000680: 1782 5ffd 5753 f03f 5577 1f36 97c4 f13f
00000690: 9a90 daa5 03d6 f13f 0d0e 608b 1b55 f13f
000006a0: 465f f3be 95dc f33f 23ea aed6 b6d1 f03f
000006b0: 8086 d161 3112 f13f 5501 f15c 170b f23f
000006c0: c4e9 5ab9 0ea7 f13f c90d 6652 5e00 f53f
000006d0: 57aa fee0 6fb7 f13f 98b1 eaa2 f02e f33f
000006e0: faf5 3c77 3dd0 f03f a021 1fc4 5363 f23f
000006f0: 5e0e ab66 3305 f13f 99b9 89d5 061f f13f
00000700: e34e b499 b638 f13f 0b1c deac 24bf f03f
00000710: e93d ce73 49a4 f03f f49c 7485 95ea f03f
00000720: 603b e3d7 311d f13f 57db 0e69 b0b4 f13f
00000730: ff59 3a72 c0f8 f43f 0d85 bf9b 890c f13f
00000740: 5ed3 23c5 1361 f13f 1f69 b6b5 d9fe f23f
00000750: 62f2 497a 2340 f13f c55f 2849 1e0e f23f
00000760: d0dd 60c7 cb7b f13f 4d50 5e9b 313f f13f
00000770: 3a27 8a37 3737 f23f b4a8 30e6 3de3 f03f
00000780: 4452 90c2 b0d2 f13f e961 5521 cf82 f43f
00000790: 6ffd 9145 6040 f13f e84c 38ca b393 f13f
000007a0: 135c bb46 0ce9 f03f 68af 3cdb 01ab f23f
000007b0: 153e 3ede be07 f33f da85 6a0a b31c f13f
000007c0: 2816 fd08 96b8 f03f c8de f113 9221 f13f
000007d0: d0f2 1743 29e6 f23f 9cbc e526 628a f13f
000007e0: 52c6 3dbe 5c78 f13f a551 1d5d c620 f23f
000007f0: 94ff fb51 0246 f13f 3d85 c169 7400 f23f
1.1177053003065536 1.151267028328559 1.0599871449745417 1.0946382945838216 1.072665935692242 1.0386998068202482 1.0875901980628457 1.0373256412190528
1.311123581386992 1.1290808602590152 1.1240092546383607 1.162952035954229 1.204271273949147 1.079565000836038 1.0885848801836706 1.1369019849566264
1.062750704515206 1.1945957204143587 1.1370083090931087 1.063274343054859 1.0908032661824143 1.101121833414216 1.058290900814304 1.0660083957391364
1.082157165075988 1.1649080909364393 1.2099613809867957 1.060111180421008 1.0660681806819752 1.1387818614304452 1.061840388527378 1.2357038077306748
1.082500103272547 1.0768611118085838 1.114633822163349 1.065073912512727 1.085415324783112 1.0673470751849528 1.1062856197065374 1.05065991259043
1.0528742575685146 1.066839974326078 1.0493154909456202 1.0891113455506032 1.113980601574587 1.0746047987007112 1.3168124911339096 1.3533262890475368
1.1922827501461757 1.101200677154454 1.0825576236521501 1.2024363705967507 1.0307648925387012 1.0738372090318862 1.150335359954125 1.0663221121204016
1.183848337010385 1.1615335165784064 1.067903774181961 1.1845358929318086 1.1234634593055812 1.069486845397549 1.1542854818668156 1.036002686791511
1.25620648501218 1.0688259753342189 1.1018415955821044 1.1564703735666613 1.0602738843744373 1.0604426271340406 1.056120908676348 1.0713846639225992
1.130214120389682 1.1368977275823753 1.1640514211561575 1.082562727637993 1.0503079707425018 1.1426816889782925 1.0536896501750128 1.0737795529035028
1.0849085528335192 1.1374443830200496 1.1137240178287182 1.1807095073263318 1.3420553572934748 1.124099041433333 1.129667169307685 1.0630159981136225
1.060507796471925 1.3381137370768637 1.0991671189222327 1.0680123103914723 1.0606248326249001 1.1026002743407863 1.050668724280526 1.0754203419554422
1.0577451193051481 1.055946783957546 1.1003324049273402 1.0706147055780875 1.0427932243473896 1.1173642045449779 1.0947378707056008 1.0807473546182
1.2381497574326392 1.1100657218730134 1.138963749826161 1.1909450666769854 1.078791954394472 1.1157830372482034 1.083063442463757 1.078193569870396
1.0907638197619436 1.081544085450401 1.1991419748962624 1.1606117843679629 1.088982145868833 1.0653183410727782 1.0561736881603536 1.0954626284203712
1.1168607483764246 1.079157638664259 1.0421452063478858 1.067004141703396 1.0567967262581055 1.2254418725516123 1.0482674489501462 1.1008443217882211
1.0793287602329178 1.0682347079903087 1.0822945551840444 1.2766749831000817 1.1062834575179377 1.1086611620852964 1.0580097770292523 1.2052441507825067
1.0898994115711271 1.0388895978155892 1.114593800410335 1.0576681384227269 1.0732204380558423 1.3016829459211496 1.0988063556948262 1.1108803367997884
1.0831295732838555 1.266862390190951 1.0998252688888088 1.1031407552509902 1.0839338507067413 1.1105417389841319 1.0673003780388666 1.132249261114514
1.2073699777680034 1.153736655866562 1.107609275614572 1.173952858704637 1.060811204046877 1.0775116228711568 1.0475526072820585 1.143472509167007
1.1029050660002977 1.1528423344007999 1.059919674933132 1.0878472776414105 1.0724589549220522 1.0584373590308032 1.0564652779227979 1.0789759519520103
1.1517991986317209 1.056176110789421 1.0694636683946481 1.0376671417859988 1.0307466250162705 1.2436352543108928 1.116963142030532 1.058684899436841
1.0670947857095692 1.2464327459228635 1.099692251253869 1.1034130114949265 1.0944629545638718 1.1089451447117404 1.2268127617485949 1.257958171477619
1.0867738016952269 1.1118538372634421 1.0757802550846918 1.205867226444192 1.0974684376631472 1.334348678207675 1.078867577129639 1.2252697131854435
1.051959249669232 1.1134917906941224 1.1007681352791596 1.3169740084557338 1.246453321168936 1.0628589056816888 1.050484633728964 1.0391952910492042
1.063854286259339 1.0673180798792803 1.3213280759364687 1.1828045630259303 1.065412369747027 1.1086523638924535 1.2039457259143675 1.0847233795183657
1.0203475854287996 1.110495768945346 1.1147495726263856 1.083278221544677 1.2413537463198323 1.0511997591080522 1.0669416256936586 1.127707827618072
1.1032855263170953 1.3125899523446256 1.1072844303950171 1.198959957498209 1.0508398683299434 1.149249807453181 1.0637697229839413 1.0700748769118944
1.0763460163188305 1.0466658356324412 1.0401091121346957 1.0572715008836981 1.069627612410578 1.1066135505513637 1.3107304060009708 1.0655609210883228
1.0862004948405324 1.1872193430086282 1.0781588341625583 1.1284468515132045 1.0927236355035923 1.0779281682089448 1.1384803933637628 1.055478953533151
1.1139381027361575 1.2819358160105543 1.0782168119038393 1.0985601329055559 1.0568964732135597 1.1667498172709774 1.1893910104153111 1.0695066840056513
1.0450649596326773 1.0706959513753862 1.181191694339919 1.096285011237149 1.0918853217412061 1.1330016743932927 1.0795920565142056 1.1251110201922778
