examples/expedition/online/nequip/bak.1.aqueous/surf22-fixed/init/t0/m1/auto/last_model.pth (torch, 685965 bytes, 54 tensors)

model.func.radial_basis.basis.bessel_weights f4 [8]
000000 c8 2a 53 40 3c 62 c6 40 38 12 20 41 bd 31 4c 41
       3.2994862 6.1994915 10.004448 12.762143
000010 e1 f2 7b 41 25 7c 97 41 0c 1c ae 41 c3 93 cb 41
       15.746797 18.935617 21.763695 25.44715

model.func.chemical_embedding.linear.weight f4 [96]
000000 ba 43 b9 bc e3 ee ea bf bc d7 8b be 2c fa 29 3e
       -0.022615302 -1.8354152 -0.2731303 0.16599339
000010 47 fa 6e 3f 06 99 cb be 59 4d 7d bf 0b a9 fe 3f
       0.9335064 -0.39765185 -0.9894615 1.9895338
000020 82 35 c8 be 99 76 2d c0 6d a5 06 3e 20 08 25 3f
       -0.39103323 -2.7103636 0.13149042 0.6446552
000030 71 8e 28 bf d1 c4 06 bf 84 65 74 bf bf 1d c0 3e
       -0.6584235 -0.5264407 -0.954674 0.37522694
000040 4a f1 aa 3d 0a fd 46 3e d1 f2 5f 3f 85 60 48 3c
       0.083468035 0.19432464 0.87479883 0.012230043
000050 95 f8 cc bf 1e c3 26 3f 56 e3 33 3b 19 6d 3e 3d
       -1.6013361 0.65141475 0.0027448735 0.046490762
000060 60 6c 53 3f 05 16 de bf 4c 4f b9 3f 0b d7 ce be
       0.8258724 -1.735047 1.4477324 -0.4039844
000070 62 06 1e bf 1a 59 36 bf 7a ae a5 bf 05 3e bd 3f
       -0.6172849 -0.7122971 -1.2943871 1.4784552
000080 04 c8 78 bf c0 9d 80 3e bc 80 8a bf 5e d3 3e 3f
       -0.971802 0.25120354 -1.0820537 0.7454127
000090 64 8a 38 bf 8a 72 97 3f 08 4c b5 3f 0a a4 48 3e
       -0.7208617 1.183183 1.4163828 0.19593826
0000a0 95 29 16 3f 2a d8 b6 3f 6f 23 4f 3f b7 2f a3 be
       0.586572 1.4284718 0.8091344 -0.3187234
0000b0 75 6b 88 3f dd 5c ee 3f f9 f5 0e bf 68 8b b0 3e
       1.0657793 1.862209 -0.55844074 0.3448136
0000c0 9a 04 91 be d7 25 2b 3f 3a 98 8e bf a2 a3 b4 3e
       -0.28323823 0.66854614 -1.1140206 0.35281092
0000d0 d8 e8 69 bf 94 b6 50 bf 38 d9 90 bf 4f 16 3a bf
       -0.91370916 -0.8152859 -1.131629 -0.7269029
0000e0 09 36 e4 3f d6 25 0e c0 cb 75 0a 3f e8 13 d7 bf
       1.782899 -2.2210593 0.5408599 -1.680295
0000f0 6b 7c 46 3f ea 8f 9b bd 83 7b 5c 3f a9 27 c8 3f
       0.77533597 -0.07595809 0.86125964 1.5637103
000100 c7 21 5b bf b8 b5 4b be 8c db 8e 3e b7 65 00 40
       -0.85598415 -0.19893539 0.27901876 2.0062082
000110 ca cc e3 3d f3 aa 1b bf a4 06 55 bf 67 c9 29 bf
       0.11123045 -0.6080772 -0.8321326 -0.6632294
000120 21 28 31 bf 80 2f 64 bc df b7 8d bf ca 30 9b bf
       -0.69201857 -0.0139273405 -1.1071738 -1.2124264
000130 33 88 25 bf ef 74 76 3f c7 9a a5 bf f4 49 e5 bd
       -0.6466095 0.96272177 -1.2937859 -0.11195746
000140 44 a0 97 bf 3e c8 d4 3d da 77 eb 3e 86 f4 74 3e
       -1.1845784 0.10389756 0.45989877 0.23921403
000150 38 3a 7a bf c6 a7 b7 bf 91 ac 53 3f 72 fa c5 3f
       -0.97745085 -1.4348075 0.8268519 1.5467055
000160 29 ff a3 be 1a b6 b7 3f 50 e6 6f be 57 b6 32 3f
       -0.3203061 1.4352448 -0.23427701 0.6980948
000170 5e 67 cd 3d b3 7f 4a 3e ab dc ff 3f b6 55 19 40
       0.10029481 0.19775276 1.9989218 2.3958564

model.func.chemical_embedding.linear.output_mask f4 [32]
000000 00 00 80 3f 00 00 80 3f 00 00 80 3f 00 00 80 3f
       1.0 1.0 1.0 1.0
000010 00 00 80 3f 00 00 80 3f 00 00 80 3f 00 00 80 3f
       1.0 1.0 1.0 1.0
000020 00 00 80 3f 00 00 80 3f 00 00 80 3f 00 00 80 3f
       1.0 1.0 1.0 1.0
000030 00 00 80 3f 00 00 80 3f 00 00 80 3f 00 00 80 3f
       1.0 1.0 1.0 1.0
000040 00 00 80 3f 00 00 80 3f 00 00 80 3f 00 00 80 3f
       1.0 1.0 1.0 1.0
000050 00 00 80 3f 00 00 80 3f 00 00 80 3f 00 00 80 3f
       1.0 1.0 1.0 1.0
000060 00 00 80 3f 00 00 80 3f 00 00 80 3f 00 00 80 3f
       1.0 1.0 1.0 1.0
000070 00 00 80 3f 00 00 80 3f 00 00 80 3f 00 00 80 3f
       1.0 1.0 1.0 1.0

model.func.layer0_convnet.equivariant_nonlin.mul.output_mask f4 [256]
000000 00 00 80 3f 00 00 80 3f 00 00 80 3f 00 00 80 3f
       1.0 1.0 1.0 1.0
000010 00 00 80 3f 00 00 80 3f 00 00 80 3f 00 00 80 3f
       1.0 1.0 1.0 1.0
000020 00 00 80 3f 00 00 80 3f 00 00 80 3f 00 00 80 3f
       1.0 1.0 1.0 1.0
000030 00 00 80 3f 00 00 80 3f 00 00 80 3f 00 00 80 3f
       1.0 1.0 1.0 1.0
000040 00 00 80 3f 00 00 80 3f 00 00 80 3f 00 00 80 3f
       1.0 1.0 1.0 1.0
000050 00 00 80 3f 00 00 80 3f 00 00 80 3f 00 00 80 3f
       1.0 1.0 1.0 1.0
000060 00 00 80 3f 00 00 80 3f 00 00 80 3f 00 00 80 3f
       1.0 1.0 1.0 1.0
000070 00 00 80 3f 00 00 80 3f 00 00 80 3f 00 00 80 3f
       1.0 1.0 1.0 1.0
000080 00 00 80 3f 00 00 80 3f 00 00 80 3f 00 00 80 3f
       1.0 1.0 1.0 1.0
000090 00 00 80 3f 00 00 80 3f 00 00 80 3f 00 00 80 3f
       1.0 1.0 1.0 1.0
0000a0 00 00 80 3f 00 00 80 3f 00 00 80 3f 00 00 80 3f
       1.0 1.0 1.0 1.0
0000b0 00 00 80 3f 00 00 80 3f 00 00 80 3f 00 00 80 3f
       1.0 1.0 1.0 1.0
0000c0 00 00 80 3f 00 00 80 3f 00 00 80 3f 00 00 80 3f
       1.0 1.0 1.0 1.0
0000d0 00 00 80 3f 00 00 80 3f 00 00 80 3f 00 00 80 3f
       1.0 1.0 1.0 1.0
0000e0 00 00 80 3f 00 00 80 3f 00 00 80 3f 00 00 80 3f
       1.0 1.0 1.0 1.0
0000f0 00 00 80 3f 00 00 80 3f 00 00 80 3f 00 00 80 3f
       1.0 1.0 1.0 1.0
000100 00 00 80 3f 00 00 80 3f 00 00 80 3f 00 00 80 3f
       1.0 1.0 1.0 1.0
000110 00 00 80 3f 00 00 80 3f 00 00 80 3f 00 00 80 3f
       1.0 1.0 1.0 1.0
000120 00 00 80 3f 00 00 80 3f 00 00 80 3f 00 00 80 3f
       1.0 1.0 1.0 1.0
000130 00 00 80 3f 00 00 80 3f 00 00 80 3f 00 00 80 3f
       1.0 1.0 1.0 1.0
000140 00 00 80 3f 00 00 80 3f 00 00 80 3f 00 00 80 3f
       1.0 1.0 1.0 1.0
000150 00 00 80 3f 00 00 80 3f 00 00 80 3f 00 00 80 3f
       1.0 1.0 1.0 1.0
000160 00 00 80 3f 00 00 80 3f 00 00 80 3f 00 00 80 3f
       1.0 1.0 1.0 1.0
000170 00 00 80 3f 00 00 80 3f 00 00 80 3f 00 00 80 3f
       1.0 1.0 1.0 1.0
000180 00 00 80 3f 00 00 80 3f 00 00 80 3f 00 00 80 3f
       1.0 1.0 1.0 1.0
000190 00 00 80 3f 00 00 80 3f 00 00 80 3f 00 00 80 3f
       1.0 1.0 1.0 1.0
0001a0 00 00 80 3f 00 00 80 3f 00 00 80 3f 00 00 80 3f
       1.0 1.0 1.0 1.0
0001b0 00 00 80 3f 00 00 80 3f 00 00 80 3f 00 00 80 3f
       1.0 1.0 1.0 1.0
0001c0 00 00 80 3f 00 00 80 3f 00 00 80 3f 00 00 80 3f
       1.0 1.0 1.0 1.0
0001d0 00 00 80 3f 00 00 80 3f 00 00 80 3f 00 00 80 3f
       1.0 1.0 1.0 1.0
0001e0 00 00 80 3f 00 00 80 3f 00 00 80 3f 00 00 80 3f
       1.0 1.0 1.0 1.0
0001f0 00 00 80 3f 00 00 80 3f 00 00 80 3f 00 00 80 3f
       1.0 1.0 1.0 1.0
000200 00 00 80 3f 00 00 80 3f 00 00 80 3f 00 00 80 3f
       1.0 1.0 1.0 1.0
000210 00 00 80 3f 00 00 80 3f 00 00 80 3f 00 00 80 3f
       1.0 1.0 1.0 1.0
000220 00 00 80 3f 00 00 80 3f 00 00 80 3f 00 00 80 3f
       1.0 1.0 1.0 1.0
000230 00 00 80 3f 00 00 80 3f 00 00 80 3f 00 00 80 3f
       1.0 1.0 1.0 1.0
000240 00 00 80 3f 00 00 80 3f 00 00 80 3f 00 00 80 3f
       1.0 1.0 1.0 1.0
000250 00 00 80 3f 00 00 80 3f 00 00 80 3f 00 00 80 3f
       1.0 1.0 1.0 1.0
000260 00 00 80 3f 00 00 80 3f 00 00 80 3f 00 00 80 3f
       1.0 1.0 1.0 1.0
000270 00 00 80 3f 00 00 80 3f 00 00 80 3f 00 00 80 3f
       1.0 1.0 1.0 1.0
000280 00 00 80 3f 00 00 80 3f 00 00 80 3f 00 00 80 3f
       1.0 1.0 1.0 1.0
000290 00 00 80 3f 00 00 80 3f 00 00 80 3f 00 00 80 3f
       1.0 1.0 1.0 1.0
0002a0 00 00 80 3f 00 00 80 3f 00 00 80 3f 00 00 80 3f
       1.0 1.0 1.0 1.0
0002b0 00 00 80 3f 00 00 80 3f 00 00 80 3f 00 00 80 3f
       1.0 1.0 1.0 1.0
0002c0 00 00 80 3f 00 00 80 3f 00 00 80 3f 00 00 80 3f
       1.0 1.0 1.0 1.0
0002d0 00 00 80 3f 00 00 80 3f 00 00 80 3f 00 00 80 3f
       1.0 1.0 1.0 1.0
0002e0 00 00 80 3f 00 00 80 3f 00 00 80 3f 00 00 80 3f
       1.0 1.0 1.0 1.0
0002f0 00 00 80 3f 00 00 80 3f 00 00 80 3f 00 00 80 3f
       1.0 1.0 1.0 1.0
000300 00 00 80 3f 00 00 80 3f 00 00 80 3f 00 00 80 3f
       1.0 1.0 1.0 1.0
000310 00 00 80 3f 00 00 80 3f 00 00 80 3f 00 00 80 3f
       1.0 1.0 1.0 1.0
000320 00 00 80 3f 00 00 80 3f 00 00 80 3f 00 00 80 3f
       1.0 1.0 1.0 1.0
000330 00 00 80 3f 00 00 80 3f 00 00 80 3f 00 00 80 3f
       1.0 1.0 1.0 1.0
000340 00 00 80 3f 00 00 80 3f 00 00 80 3f 00 00 80 3f
       1.0 1.0 1.0 1.0
000350 00 00 80 3f 00 00 80 3f 00 00 80 3f 00 00 80 3f
       1.0 1.0 1.0 1.0
000360 00 00 80 3f 00 00 80 3f 00 00 80 3f 00 00 80 3f
       1.0 1.0 1.0 1.0
000370 00 00 80 3f 00 00 80 3f 00 00 80 3f 00 00 80 3f
       1.0 1.0 1.0 1.0
000380 00 00 80 3f 00 00 80 3f 00 00 80 3f 00 00 80 3f
       1.0 1.0 1.0 1.0
000390 00 00 80 3f 00 00 80 3f 00 00 80 3f 00 00 80 3f
       1.0 1.0 1.0 1.0
0003a0 00 00 80 3f 00 00 80 3f 00 00 80 3f 00 00 80 3f
       1.0 1.0 1.0 1.0
0003b0 00 00 80 3f 00 00 80 3f 00 00 80 3f 00 00 80 3f
       1.0 1.0 1.0 1.0
0003c0 00 00 80 3f 00 00 80 3f 00 00 80 3f 00 00 80 3f
       1.0 1.0 1.0 1.0
0003d0 00 00 80 3f 00 00 80 3f 00 00 80 3f 00 00 80 3f
       1.0 1.0 1.0 1.0
0003e0 00 00 80 3f 00 00 80 3f 00 00 80 3f 00 00 80 3f
       1.0 1.0 1.0 1.0
0003f0 00 00 80 3f 00 00 80 3f 00 00 80 3f 00 00 80 3f
       1.0 1.0 1.0 1.0

model.func.layer0_convnet.conv.linear_1.weight f4 [1024]
000000 ca 68 bc 3e 80 26 08 3f 0e 00 86 be aa 2f 12 c0
       0.36798698 0.53183746 -0.26171917 -2.2841592
000010 b2 a5 ec be 78 92 26 bd 9e 15 5d bf 3b 2d 32 be
       -0.46220165 -0.040667027 -0.8636111 -0.17400067
000020 3c b0 44 3f 78 3b 9d 3f d4 5f 8f be 2d 2d 08 be
       0.7683141 1.2283773 -0.280028 -0.13298483
000030 2d a7 2f 3e ce 52 99 3e b1 cb d6 be b8 01 7d 3f
       0.17153616 0.29945987 -0.4195228 0.9883075
000040 a2 ac 69 bf f3 d1 dd 3d 5b a9 9c 3f 87 9a bb be
       -0.9127904 0.1083106 1.2239183 -0.36641333
000050 12 98 83 bf a9 9c 84 bf 5f f8 41 3f b1 80 35 3f
       -1.0280783 -1.0360309 0.7576961 0.7089949
000060 87 65 15 40 5a 5e e8 bf cf a8 a7 3e e6 84 ad bf
       2.3343217 -1.8153794 0.32745978 -1.3556182
000070 b8 95 0e 40 55 01 14 3f 95 e7 7e 3f 06 5e 05 be
       2.227888 0.5781453 0.99572116 -0.13024148
000080 0e 3d 44 40 45 fa 14 be 39 32 ad 3f 4f e7 fd 3a
       3.0662265 -0.14548595 1.3530952 0.0019371303
000090 11 7d 1b bf a3 4c ad 3f 6a 4b 9d bf 28 0b 96 3f
       -0.6073771 1.3539013 -1.228864 1.1722155
0000a0 c0 6f 17 3f 3f d6 98 3e 6a 96 65 3d bc b3 6a bf
       0.5915489 0.29850957 0.05605165 -0.916805
0000b0 33 ce 8b bc cf e8 a0 bf b1 f4 41 3f d4 38 7a bf
       -0.017066097 -1.2571048 0.75763994 -0.9774296
0000c0 61 ed aa 3f f8 4c 0b 3f 4f c4 44 3f 58 74 03 bf
       1.3353692 0.5441432 0.76862043 -0.513494
0000d0 20 d0 62 3f 28 68 0b 3f a6 d5 30 40 d5 57 7a 3f
       0.88598824 0.54455805 2.76304 0.9779027
0000e0 5e a5 f2 3d d8 a1 71 3f a1 aa 94 bf f8 55 49 bf
       0.118479475 0.9438758 -1.1614572 -0.786468
0000f0 6d 62 59 bf 8a 18 b4 3f a9 35 47 be 78 5b ed 3e
       -0.8491581 1.4069989 -0.19454063 0.46358848
000100 a8 ab 84 bf d5 4c 97 3f 7a f5 b8 bf e4 00 d9 3e
       -1.0364885 1.1820322 -1.4449914 0.42383492
000110 42 d0 e0 3d 92 d5 3b 3e 66 fa 84 be ca 76 a3 3b
       0.10977222 0.1834319 -0.2597229 0.004988526
000120 a3 ad a6 3f 44 23 13 bf 7f 23 00 c0 5b 78 b3 be
       1.302174 -0.57475686 -2.0021665 -0.3505276
000130 6b 17 8b 3e f5 da 2c 40 15 69 48 3f 87 c9 f2 bf
       0.27166304 2.700864 0.7828534 -1.8967751
000140 44 23 2f 3e ba 04 01 3f d5 41 ef 3f 1e d0 df bf
       0.17103297 0.5039784 1.8691965 -1.7485387
000150 74 fd e4 bf 53 a3 17 be 16 82 49 be 22 37 6e 3f
       -1.7889848 -0.14808397 -0.1967853 0.93052876
000160 42 75 77 be 04 04 94 3f 8a 20 dd bc 10 a1 a3 be
       -0.24165824 1.1563725 -0.026993055 -0.31958818
000170 41 e6 e6 be a5 a7 df 3f bf 6d e8 3f 0d dc 3c bf
       -0.45097545 1.7473036 1.8158492 -0.7377327
000180 5e 9b cf 3f 15 03 89 be 57 b7 a4 bf 19 ae ec bd
       1.6219289 -0.26760164 -1.2868451 -0.11556644
000190 6a 71 e7 3d 91 0d 87 bf 9d f7 d6 be 49 e7 84 3f
       0.11300929 -1.0551015 -0.4198579 1.0383083
0001a0 08 9b 03 40 3f ba 9b bf 82 42 aa bf 5f 8f 30 3f
       2.0563374 -1.2166213 -1.3301547 0.68968767
0001b0 7d 2f b9 3e 79 6c e9 3f 0f 45 bf 3b c9 40 25 be
       0.36169043 1.8236228 0.00583709 -0.16137995
0001c0 23 64 d7 bf b8 ee 24 3e 74 e1 25 be 85 5b 3b bf
       -1.6827434 0.16106689 -0.16199285 -0.7318652
0001d0 51 2c 69 3f 31 1e ac 3f bb 18 8e 3e 40 02 51 bf
       0.91083246 1.3446714 0.27753243 -0.8164406
0001e0 a8 c8 a7 bf bc 57 e2 3f 96 ca 02 bf 7d 4b a3 3e
       -1.310811 1.7683024 -0.5109037 0.3189353
0001f0 11 bd 70 bf 55 28 6d bf 8a e9 91 bd 9e 17 32 3e
       -0.9403849 -0.92639667 -0.07124622 0.17391822
000200 cc bb 9e bf 17 be 22 40 58 2e c5 be 13 f2 c4 bc
       -1.2401061 2.5428522 -0.3851192 -0.024041211
000210 5b be 1e bc c0 b0 a3 bf 58 42 50 3f 02 5a e4 3e
       -0.009688939 -1.2788315 0.8135123 0.4459992
000220 a8 95 17 3d d4 db 53 3f b8 5e 0c 3f d4 95 23 3f
       0.037007958 0.82757306 0.5483203 0.63900495
000230 46 f3 5a 40 6d 66 6b 3f ef f7 e1 be 7c 7a 22 bf
       3.4210982 0.91953164 -0.4413447 -0.63468146
000240 e6 69 d6 3e 6d 8e f6 bf b2 a0 5c 3d 55 07 64 be
       0.4187767 -1.9262215 0.05386419 -0.22268422
000250 83 77 61 c0 cb 76 1d 3f 15 06 88 3f 71 7e 1b be
       -3.5229194 0.6150939 1.0626856 -0.15184952
000260 36 b5 2b c0 e7 8b 17 bf 3a b2 9b bf 0c eb 40 3f
       -2.6829352 -0.5919785 -1.2163765 0.75358653
000270 77 c1 53 3f e6 d1 f4 3d ad cc 5a 3f ec 83 87 3f
       0.8271708 0.119540974 0.8546856 1.0587134
000280 6b 39 e5 3f 2c b9 13 bf 52 c4 8a 3f 44 45 b4 be
       1.7908148 -0.57704425 1.0841162 -0.35209095
000290 b1 51 b7 bf 1c 3b d7 bf c0 98 4c bf c7 73 2e 3f
       -1.4321805 -1.6814914 -0.7992058 0.6814541
0002a0 9c fa e9 bf 97 e0 42 bf 7e c4 60 bf b6 68 7c bf
       -1.8279605 -0.76123947 -0.87799823 -0.98597276
0002b0 93 0f d3 be 13 fa e8 bf df 5a 97 3f e2 79 8a be
       -0.4122282 -1.8201317 1.1824607 -0.27046114
0002c0 65 5c 33 3f 78 e1 57 3e 3f bb df 3e e9 23 02 3e
       0.7006286 0.21082103 0.43697545 0.12709011
0002d0 ae 87 6c 3e ba 73 40 bf 05 29 4b bf 7a e9 a0 bf
       0.23098633 -0.75176585 -0.79359466 -1.2571251
0002e0 70 c8 de be 54 ae 0a 40 ce 63 2a bf 1e a7 9b be
       -0.43512297 2.1668901 -0.6655854 -0.30400938
0002f0 8b 58 1f bf f0 fc bf bf ce ed 3f 3f 4a 14 8b be
       -0.6224448 -1.4999065 0.74972236 -0.27163917
000300 de 41 a7 3d 8f c9 4c bf b6 43 9a 3e 82 9c aa bf
       0.0816686 -0.79995054 0.30129784 -1.3329012
000310 5d 64 74 bf 56 84 01 40 27 7c 49 bf b1 b1 1c c0
       -0.9546564 2.0237021 -0.78705066 -2.4483454
000320 17 eb 51 3e 20 86 fc 3e 67 07 cc 3e 97 4e fd 3f
       0.20499836 0.4932108 0.39849398 1.9789609
000330 cc f0 0d be ce ae a9 bf fa 01 41 3f d8 c1 c7 be
       -0.13861388 -1.3256471 0.7539364 -0.3901508
000340 d7 b5 ec bc b7 5f 68 3f 3f 59 ad bf 11 90 a1 3f
       -0.028895302 0.9077105 -1.3542861 1.262209
000350 07 25 02 40 5d 72 ba bf dc 38 21 bf 18 82 8b 3e
       2.03351 -1.4566151 -0.62977386 0.2724769
000360 5d 2c 50 3e 57 18 88 3e f0 14 bb be 2d a0 a1 3e
       0.20329423 0.2658107 -0.36539412 0.31567517
000370 5e 97 0e 3d 34 2a df 3e c2 58 86 3f 12 c0 9a 3f
       0.034812324 0.43586886 1.0495837 1.2089865
000380 29 83 b8 be b3 38 67 be 13 94 e3 be 93 21 a0 be
       -0.36037567 -0.22580223 -0.4444891 -0.31275615
000390 df ff 2f be 11 cd 85 3f ff 3e 63 be e9 a2 45 3f
       -0.17187451 1.0453206 -0.22192 0.77201706
0003a0 10 94 73 bf 9e 68 5d bf 02 5e 2e 3f 3f cf 75 3e
       -0.951478 -0.8648776 0.68112195 0.2400484
0003b0 13 2f 4a 40 a4 c5 fb 3c dd e9 80 bf d4 8f 21 c0
       3.1591232 0.03073389 -1.007137 -2.5244036
0003c0 75 31 7a bf 4c 4d a0 3e e1 f5 fa bf 96 b0 82 3b
       -0.97731715 0.31308973 -1.9606286 0.003988336
0003d0 d5 d6 63 bf f9 59 e0 be 01 5e 91 bf 51 ea 9f 3e
       -0.8899968 -0.43818644 -1.1356813 0.31233457
0003e0 37 d7 cc 3f 4e 18 14 c0 86 5a cf bf 0e 85 cb 3d
       1.6003178 -2.3139834 -1.61995 0.099374875
0003f0 23 85 6f 3f 19 61 c1 bf 7a a7 8c be 3a f5 a8 bf
       0.93562526 -1.5107757 -0.27471524 -1.3199837

model.func.layer0_convnet.conv.linear_1.output_mask f4 [32]
000000 00 00 80 3f 00 00 80 3f 00 00 80 3f 00 00 80 3f
       1.0 1.0 1.0 1.0
000010 00 00 80 3f 00 00 80 3f 00 00 80 3f 00 00 80 3f
       1.0 1.0 1.0 1.0
000020 00 00 80 3f 00 00 80 3f 00 00 80 3f 00 00 80 3f
       1.0 1.0 1.0 1.0
000030 00 00 80 3f 00 00 80 3f 00 00 80 3f 00 00 80 3f
       1.0 1.0 1.0 1.0
000040 00 00 80 3f 00 00 80 3f 00 00 80 3f 00 00 80 3f
       1.0 1.0 1.0 1.0
000050 00 00 80 3f 00 00 80 3f 00 00 80 3f 00 00 80 3f
       1.0 1.0 1.0 1.0
000060 00 00 80 3f 00 00 80 3f 00 00 80 3f 00 00 80 3f
       1.0 1.0 1.0 1.0
000070 00 00 80 3f 00 00 80 3f 00 00 80 3f 00 00 80 3f
       1.0 1.0 1.0 1.0

model.func.layer0_convnet.conv.fc.layer0.weight f4 [8, 8]
000000 8e ef 74 3f 60 7d dd 3c b1 27 08 3e f2 53 70 be
       0.9567803 0.027037323 0.13296391 -0.23469523
000010 fb de 76 be 7c 59 26 3f 87 4d fb bf 32 17 41 bf
       -0.24108498 0.6498029 -1.9633034 -0.7542602
000020 a4 96 0d 40 23 49 d4 3e ba 1a 30 3f 52 26 a0 3e
       2.2123194 0.4146205 0.6879078 0.31279236
000030 89 0b 89 3f 44 51 cb be 40 81 f4 be 52 76 6b be
       1.0706645 -0.39710438 -0.4775486 -0.22994354
000040 e3 7f 8d 3e 2c 1e ee be a9 77 ef 3f 6d 69 8b be
       0.27636632 -0.46507394 1.8708392 -0.2722887
000050 85 69 91 bf cc 5e 32 be 5c 88 90 bf f3 bb 0a bf
       -1.1360327 -0.17418975 -1.1291614 -0.5419304
000060 9d 19 b9 bf d3 e4 b8 3d f2 b2 b7 3f f5 ce c4 3f
       -1.4460942 0.0902802 1.4351485 1.5375658
000070 0b 83 7c bf 12 c3 91 3f fa 3f f6 bf 6d 7d 9d 3f
       -0.98637456 1.1387656 -1.9238274 1.2303902
000080 5d 33 85 3f c1 60 b6 bf cf c6 21 be 97 35 c3 3e
       1.04063 -1.4248277 -0.15798496 0.38126823
000090 96 e9 32 bf 0b 75 24 bf a2 50 4a be ce b4 68 3e
       -0.69887674 -0.64241093 -0.19757321 0.22725222
0000a0 fb 7e e7 3f 79 6c 7b 3f 4b 13 e1 3f e4 e1 25 3f
       1.8085626 0.9821239 1.7584013 0.64797807
0000b0 33 dc 57 3f dc 44 90 be 87 e7 dc 3f a6 8c d8 3e
       0.8432037 -0.28177536 1.7258157 0.42294806
0000c0 de f1 3b 3f 63 ee 19 3f fb c9 13 bf fc d1 15 bf
       0.73415935 0.60129374 -0.5773007 -0.58523536
0000d0 81 27 2b bf 86 41 ea 3e 70 ee 23 bf e3 d3 6f bf
       -0.66857153 0.45753115 -0.640357 -0.9368269
0000e0 2a 36 d2 3f 71 aa 5d 3f 7e e3 da bd b9 2e 7a 3f
       1.642278 0.865882 -0.10687922 0.97727543
0000f0 27 8d b5 3e 80 fb c5 3f be 89 d1 be a2 98 08 3f
       0.35459253 1.5467377 -0.409254 0.533579

model.func.layer0_convnet.conv.fc.layer1.weight f4 [8, 96]
000000 b0 f1 57 bf 65 82 c4 3f e4 51 11 3e 04 91 19 3e
       -0.8435316 1.5352293 0.14191395 0.14996725
000010 a0 3c fb bf 5b 9e ee 3f ad 67 93 bd 35 c0 3f bf
       -1.9627876 1.8642076 -0.07197509 -0.7490266
000020 58 c1 9f 3d 49 20 2d bf 98 01 3b 40 1b 17 77 bd
       0.07800549 -0.6762739 2.9219723 -0.06032477
000030 c0 6b 12 bf 2b 4e a9 be c1 68 9f be fc 19 85 bf
       -0.57195663 -0.3306745 -0.31134608 -1.0398555
000040 c0 be ad 3f fb 8e 18 3f b2 9f f7 be 31 7c 61 3d
       1.3573837 0.5959317 -0.48364025 0.05505008
000050 b1 d8 86 be f1 e5 ea 3e 61 9a ea 3f 73 23 e4 be
       -0.26337197 0.45878556 1.8328363 -0.44558296
000060 ac 25 4d bf a2 81 fd bf e5 0d 0e bf d7 d3 a6 3f
       -0.8013561 -1.9805186 -0.5548995 1.3033398
000070 29 70 6a bf 68 75 e3 3d 10 58 2d 3f 14 8f 41 bf
       -0.9157739 0.11106378 0.677125 -0.75608945
000080 b4 90 54 be 2f 20 ea 3d 7c 37 87 bf 4a f9 78 3f
       -0.20758325 0.1143192 -1.0563807 0.97255385
000090 98 29 61 bf cf df e7 3f 48 36 71 bf 2f fe a9 bf
       -0.8795409 1.8115176 -0.9422345 -1.3280696
0000a0 f1 f7 b1 bf 31 b2 b7 bf b7 df 89 be 35 0e 4a 40
       -1.3903791 -1.4351255 -0.26928493 3.1571171
0000b0 0e bf 14 be 21 78 87 3f dc 70 b4 3f ff 11 60 bf
       -0.14526007 1.0583535 1.4096942 -0.8752746
0000c0 3b 21 9b bf 6e 36 c7 bf cd 30 e3 3f 42 ee 5f bf
       -1.2119516 -1.5563486 1.7749268 -0.8747293
0000d0 3f 91 df be 5c ce 83 3f 13 71 83 bf 82 01 26 c0
       -0.436655 1.0297351 -1.0268883 -2.593842
0000e0 5d ae 43 bf 71 a5 b0 bf 74 b1 c1 bf 12 34 69 be
       -0.7643793 -1.3800489 -1.5132279 -0.2277377
0000f0 86 70 3d 40 4e 01 0e 40 7d 25 86 3f 64 aa 0f c0
       2.959993 2.2188296 1.048019 -2.2447748
000100 4e 62 ce bf 33 0f 0c c0 b7 5e 18 be c4 02 a6 3f
       -1.612375 -2.1884277 -0.14879881 1.2969594
000110 96 53 d4 bf 26 b3 d9 bf ba 4a 27 40 2a 7d 92 3f
       -1.6588008 -1.7007797 2.613936 1.1444447
000120 85 6a 05 bf bc ed c9 3e 40 04 01 3f e1 ab 8e bd
       -0.5211566 0.3943919 0.5039711 -0.06966377
000130 f7 ec ca ba c9 31 fd 3f be b4 ec 3f 81 9f 65 be
       -0.0015481998 1.9780818 1.8492658 -0.22424127
000140 ec 8c 7b 3f 9b 3b bb bf 0a 1a 0a 40 63 f8 07 bf
       0.98261905 -1.4627565 2.1578393 -0.53113383
000150 84 b0 74 40 81 74 36 3f 35 df a8 bf 68 d4 2a 3f
       3.8232737 0.7127152 -1.3193117 0.66730356
000160 f4 5e 9b bf cc 68 81 bf 7a 52 d8 bf 43 b6 82 3f
       -1.2138352 -1.0110106 -1.690017 1.0211872
000170 5e e4 cb bf 93 c1 47 bf 00 50 40 be f0 98 e0 be
       -1.5929067 -0.78029746 -0.18780518 -0.43866682
000180 dd 46 42 bf 50 22 c1 3f 5e 5d 4c 3f e3 8f 46 3f
       -0.7588938 1.5088596 0.7982997 0.77563304
000190 b6 ae f1 bf fc c3 fc be d8 d4 2b 3f 97 82 53 3f
       -1.8881443 -0.49368274 0.6712165 0.8262114
0001a0 a2 11 16 be af cd 2d 3f 6a a2 c9 3e 1a a1 81 bf
       -0.14655164 0.67891973 0.39381725 -1.0127289
0001b0 ad bb 29 3e 20 37 e0 bc fc b3 15 3f 95 73 9e be
       0.16575499 -0.027370036 0.5847776 -0.30947557
0001c0 6c 91 de be 61 68 be 3e 6c 43 30 bf 93 c9 d8 be
       -0.43470323 0.3718901 -0.6885288 -0.4234129
0001d0 50 58 83 bf b9 69 e5 3f f1 cb 0a 40 8d 49 b2 bf
       -1.0261326 1.7922889 2.1686976 -1.3928696
0001e0 e8 6b ea 3d dc 27 e5 be 87 4d 9d be 1c a2 5c be
       0.11446363 -0.44756973 -0.3072321 -0.21546215
0001f0 35 ca b6 3f 87 b0 c6 bf cb 6b 28 c0 d9 b5 ec 3f
       1.4280459 -1.5522622 -2.6315792 1.8492996
000200 7a 13 68 3c bf 36 e7 3f 94 e9 42 3f 18 bf 9a be
       0.0141648 1.8063582 0.7613766 -0.30223918
000210 a7 e4 f1 3f d3 c0 ea 3f ec e3 61 3d 2e 7f 46 bf
       1.8897904 1.8340095 0.055149004 -0.7753781
000220 47 6d fc bf 6e f8 b5 3f 9e 31 8b bf 1f fe 05 40
       -1.9720849 1.421644 -1.0874517 2.0936353
000230 9a 12 a2 3f 0e 70 dd be 7e 1e 06 bf af 0f a4 bf
       1.2661927 -0.43249553 -0.5239028 -1.2817286
000240 7b dd be be 23 52 02 bf f1 b2 a2 3f 82 e4 ae be
       -0.3727835 -0.5090658 1.2710859 -0.34158713
000250 99 4d 3b bf 8c 9b f2 be 7b 52 ec be 71 db ee be
       -0.7316528 -0.47384298 -0.46156678 -0.46651796
000260 57 6a 4d c0 34 8d 20 3d 7a 92 b3 bd 9b 6f 29 bf
       -3.2096155 0.03919716 -0.087681726 -0.6618592
000270 5f 37 14 3f 3b b1 d8 3f 09 e5 4f 3e 15 fb b6 3f
       0.5789699 1.6929086 0.20302214 1.4295374
000280 4a 98 4d bd b9 aa 80 bf 94 42 b7 3f ec 87 dd bd
       -0.050194062 -1.00521 1.4317193 -0.10816941
000290 c7 39 50 3f a0 a3 8d bf 77 01 09 3f d4 68 f9 3f
       0.8133816 -1.1065559 0.5351786 1.9485116
0002a0 cf 92 12 3f 34 66 0f 40 1a f6 1c 3f c8 a7 c7 3c
       0.5725526 2.240613 0.6131302 0.024371997
0002b0 5e 46 fb be 01 42 ed bf 6d 52 8a 3f ba a1 08 bf
       -0.49077123 -1.8535768 1.0806404 -0.53371775
0002c0 7c 4a fe bf 39 f9 a8 3d e3 53 ce 3f c4 2b 70 3e
       -1.9866481 0.082506604 1.611935 0.23454195
0002d0 e6 00 40 3f 8d 67 7a 3f ab ab 26 c0 ac 46 d4 be
       0.7500137 0.97814256 -2.6042278 -0.41460168
0002e0 54 c0 64 bf 18 9a 38 bf b6 54 f8 be d7 19 31 3f
       -0.8935597 -0.7211013 -0.4850213 0.69180053
0002f0 76 e2 2a bf 93 c3 0b c0 0c 0a 97 bf 8f 7e f2 3f
       -0.667518 -2.183812 -1.1799941 1.8944873
000300 73 d3 0f 3f a9 1a 87 be a1 f4 72 bf 4a 82 d3 bd
       0.5618202 -0.26387528 -0.94904524 -0.10327585
000310 1e 23 86 bf 1c 6e 0a 3f 4c 24 27 bf 37 b6 03 3f
       -1.0479467 0.54074264 -0.6528976 0.5144991
000320 c3 5a 8f 3f 3f 40 af bf 22 c0 84 3d ac 5f a6 3f
       1.1199573 -1.3691481 0.06481959 1.2997947
000330 8c d5 d9 3e 75 7b d1 bd ed 6e 09 be 74 56 ca 3f
       0.42545736 -0.10228626 -0.13421221 1.5807633
000340 51 c5 b6 3d 7b cb ce 3f 57 76 e6 bd 49 19 0c 40
       0.08924354 1.6155847 -0.1125304 2.1890433
000350 45 1f 98 3f 1d a7 eb 3f 05 8f 02 3f f2 ce 14 bd
       1.1884543 1.8410374 0.5099948 -0.03633017
000360 cc 2d 3b 3e df 84 85 be 5e 13 e6 bf da f7 1b 3f
       0.18279189 -0.26077935 -1.797466 0.60925066
000370 b4 07 9b 3f 69 3d d9 3e f7 60 ad bf e5 21 15 40
       1.2111726 0.42429665 -1.3545216 2.3301938
000380 2e 5f 11 be 74 01 cc 3f 65 23 87 3f 88 84 25 bf
       -0.14196464 1.5937943 1.0557677 -0.6465535
000390 a3 c8 c6 3f 13 b2 d5 be 2a e9 ce 3e a9 81 35 bf
       1.552998 -0.41737422 0.40412265 -0.7090097
0003a0 84 3a 20 be 9c 01 ca 3f 86 c6 36 3f 4e b9 40 bf
       -0.15647322 1.5781741 0.7139667 -0.7528275
0003b0 01 80 cc bf ad 05 73 3f 18 eb 82 bf ff 16 e4 3f
       -1.5976564 0.94930536 -1.0227995 1.7819518
0003c0 3b f9 a8 be 92 1b 0d 3e 71 29 1c 3f 4d 5e 36 bf
       -0.33002648 0.13780048 0.61000735 -0.7123764
0003d0 78 ef a5 3f e7 bb 5c 3f 61 e8 be 3f 96 2f 78 3f
       1.2963705 0.86224216 1.4914666 0.9694761
0003e0 e4 d9 c7 3f 1d 72 82 3f af 23 f7 3e 99 f6 78 be
       1.561337 1.0191075 0.48269412 -0.2431282
0003f0 91 61 0c bd d9 7a fc 3e 6d c9 06 bf f9 72 c4 3f
       -0.034272734 0.49312475 -0.526511 1.5347587

model.func.layer0_convnet.conv.tp.output_mask f4 [288]
000000 00 00 80 3f 00 00 80 3f 00 00 80 3f 00 00 80 3f
       1.0 1.0 1.0 1.0
000010 00 00 80 3f 00 00 80 3f 00 00 80 3f 00 00 80 3f
       1.0 1.0 1.0 1.0
000020 00 00 80 3f 00 00 80 3f 00 00 80 3f 00 00 80 3f
       1.0 1.0 1.0 1.0
000030 00 00 80 3f 00 00 80 3f 00 00 80 3f 00 00 80 3f
       1.0 1.0 1.0 1.0
000040 00 00 80 3f 00 00 80 3f 00 00 80 3f 00 00 80 3f
       1.0 1.0 1.0 1.0
000050 00 00 80 3f 00 00 80 3f 00 00 80 3f 00 00 80 3f
       1.0 1.0 1.0 1.0
000060 00 00 80 3f 00 00 80 3f 00 00 80 3f 00 00 80 3f
       1.0 1.0 1.0 1.0
000070 00 00 80 3f 00 00 80 3f 00 00 80 3f 00 00 80 3f
       1.0 1.0 1.0 1.0
000080 00 00 80 3f 00 00 80 3f 00 00 80 3f 00 00 80 3f
       1.0 1.0 1.0 1.0
000090 00 00 80 3f 00 00 80 3f 00 00 80 3f 00 00 80 3f
       1.0 1.0 1.0 1.0
0000a0 00 00 80 3f 00 00 80 3f 00 00 80 3f 00 00 80 3f
       1.0 1.0 1.0 1.0
0000b0 00 00 80 3f 00 00 80 3f 00 00 80 3f 00 00 80 3f
       1.0 1.0 1.0 1.0
0000c0 00 00 80 3f 00 00 80 3f 00 00 80 3f 00 00 80 3f
       1.0 1.0 1.0 1.0
0000d0 00 00 80 3f 00 00 80 3f 00 00 80 3f 00 00 80 3f
       1.0 1.0 1.0 1.0
0000e0 00 00 80 3f 00 00 80 3f 00 00 80 3f 00 00 80 3f
       1.0 1.0 1.0 1.0
0000f0 00 00 80 3f 00 00 80 3f 00 00 80 3f 00 00 80 3f
       1.0 1.0 1.0 1.0
000100 00 00 80 3f 00 00 80 3f 00 00 80 3f 00 00 80 3f
       1.0 1.0 1.0 1.0
000110 00 00 80 3f 00 00 80 3f 00 00 80 3f 00 00 80 3f
       1.0 1.0 1.0 1.0
000120 00 00 80 3f 00 00 80 3f 00 00 80 3f 00 00 80 3f
       1.0 1.0 1.0 1.0
000130 00 00 80 3f 00 00 80 3f 00 00 80 3f 00 00 80 3f
       1.0 1.0 1.0 1.0
000140 00 00 80 3f 00 00 80 3f 00 00 80 3f 00 00 80 3f
       1.0 1.0 1.0 1.0
000150 00 00 80 3f 00 00 80 3f 00 00 80 3f 00 00 80 3f
       1.0 1.0 1.0 1.0
000160 00 00 80 3f 00 00 80 3f 00 00 80 3f 00 00 80 3f
       1.0 1.0 1.0 1.0
000170 00 00 80 3f 00 00 80 3f 00 00 80 3f 00 00 80 3f
       1.0 1.0 1.0 1.0
000180 00 00 80 3f 00 00 80 3f 00 00 80 3f 00 00 80 3f
       1.0 1.0 1.0 1.0
000190 00 00 80 3f 00 00 80 3f 00 00 80 3f 00 00 80 3f
       1.0 1.0 1.0 1.0
0001a0 00 00 80 3f 00 00 80 3f 00 00 80 3f 00 00 80 3f
       1.0 1.0 1.0 1.0
0001b0 00 00 80 3f 00 00 80 3f 00 00 80 3f 00 00 80 3f
       1.0 1.0 1.0 1.0
0001c0 00 00 80 3f 00 00 80 3f 00 00 80 3f 00 00 80 3f
       1.0 1.0 1.0 1.0
0001d0 00 00 80 3f 00 00 80 3f 00 00 80 3f 00 00 80 3f
       1.0 1.0 1.0 1.0
0001e0 00 00 80 3f 00 00 80 3f 00 00 80 3f 00 00 80 3f
       1.0 1.0 1.0 1.0
0001f0 00 00 80 3f 00 00 80 3f 00 00 80 3f 00 00 80 3f
       1.0 1.0 1.0 1.0
000200 00 00 80 3f 00 00 80 3f 00 00 80 3f 00 00 80 3f
       1.0 1.0 1.0 1.0
000210 00 00 80 3f 00 00 80 3f 00 00 80 3f 00 00 80 3f
       1.0 1.0 1.0 1.0
000220 00 00 80 3f 00 00 80 3f 00 00 80 3f 00 00 80 3f
       1.0 1.0 1.0 1.0
000230 00 00 80 3f 00 00 80 3f 00 00 80 3f 00 00 80 3f
       1.0 1.0 1.0 1.0
000240 00 00 80 3f 00 00 80 3f 00 00 80 3f 00 00 80 3f
       1.0 1.0 1.0 1.0
000250 00 00 80 3f 00 00 80 3f 00 00 80 3f 00 00 80 3f
       1.0 1.0 1.0 1.0
000260 00 00 80 3f 00 00 80 3f 00 00 80 3f 00 00 80 3f
       1.0 1.0 1.0 1.0
000270 00 00 80 3f 00 00 80 3f 00 00 80 3f 00 00 80 3f
       1.0 1.0 1.0 1.0
000280 00 00 80 3f 00 00 80 3f 00 00 80 3f 00 00 80 3f
       1.0 1.0 1.0 1.0
000290 00 00 80 3f 00 00 80 3f 00 00 80 3f 00 00 80 3f
       1.0 1.0 1.0 1.0
0002a0 00 00 80 3f 00 00 80 3f 00 00 80 3f 00 00 80 3f
       1.0 1.0 1.0 1.0
0002b0 00 00 80 3f 00 00 80 3f 00 00 80 3f 00 00 80 3f
       1.0 1.0 1.0 1.0
0002c0 00 00 80 3f 00 00 80 3f 00 00 80 3f 00 00 80 3f
       1.0 1.0 1.0 1.0
0002d0 00 00 80 3f 00 00 80 3f 00 00 80 3f 00 00 80 3f
       1.0 1.0 1.0 1.0
0002e0 00 00 80 3f 00 00 80 3f 00 00 80 3f 00 00 80 3f
       1.0 1.0 1.0 1.0
0002f0 00 00 80 3f 00 00 80 3f 00 00 80 3f 00 00 80 3f
       1.0 1.0 1.0 1.0
000300 00 00 80 3f 00 00 80 3f 00 00 80 3f 00 00 80 3f
       1.0 1.0 1.0 1.0
000310 00 00 80 3f 00 00 80 3f 00 00 80 3f 00 00 80 3f
       1.0 1.0 1.0 1.0
000320 00 00 80 3f 00 00 80 3f 00 00 80 3f 00 00 80 3f
       1.0 1.0 1.0 1.0
000330 00 00 80 3f 00 00 80 3f 00 00 80 3f 00 00 80 3f
       1.0 1.0 1.0 1.0
000340 00 00 80 3f 00 00 80 3f 00 00 80 3f 00 00 80 3f
       1.0 1.0 1.0 1.0
000350 00 00 80 3f 00 00 80 3f 00 00 80 3f 00 00 80 3f
       1.0 1.0 1.0 1.0
000360 00 00 80 3f 00 00 80 3f 00 00 80 3f 00 00 80 3f
       1.0 1.0 1.0 1.0
000370 00 00 80 3f 00 00 80 3f 00 00 80 3f 00 00 80 3f
       1.0 1.0 1.0 1.0
000380 00 00 80 3f 00 00 80 3f 00 00 80 3f 00 00 80 3f
       1.0 1.0 1.0 1.0
000390 00 00 80 3f 00 00 80 3f 00 00 80 3f 00 00 80 3f
       1.0 1.0 1.0 1.0
0003a0 00 00 80 3f 00 00 80 3f 00 00 80 3f 00 00 80 3f
       1.0 1.0 1.0 1.0
0003b0 00 00 80 3f 00 00 80 3f 00 00 80 3f 00 00 80 3f
       1.0 1.0 1.0 1.0
0003c0 00 00 80 3f 00 00 80 3f 00 00 80 3f 00 00 80 3f
       1.0 1.0 1.0 1.0
0003d0 00 00 80 3f 00 00 80 3f 00 00 80 3f 00 00 80 3f
       1.0 1.0 1.0 1.0
0003e0 00 00 80 3f 00 00 80 3f 00 00 80 3f 00 00 80 3f
       1.0 1.0 1.0 1.0
0003f0 00 00 80 3f 00 00 80 3f 00 00 80 3f 00 00 80 3f
       1.0 1.0 1.0 1.0

model.func.layer0_convnet.conv.linear_2.weight f4 [5120]
000000 99 52 d4 3c 0b 24 13 c0 43 5a 8a be db cf d1 be
       0.025918292 -2.299075 -0.2702199 -0.40978894
000010 f4 b8 c1 bf 33 b7 88 bf 51 37 45 3f 03 ab ce 3f
       -1.5134568 -1.0680908 0.7703753 1.6145939
000020 36 74 f7 be d7 3d 82 3e 08 11 e4 3e af df e8 3e
       -0.4833085 0.25437805 0.44544244 0.45483157
000030 cb e9 86 3f b4 d5 89 bf 51 86 9f bf f3 5b 0b bf
       1.0540098 -1.0768342 -1.2462865 -0.5443718
000040 83 e6 28 be d4 58 af 3e e3 df 50 3f 0d 68 c1 3d
       -0.16494183 0.34247458 0.81591624 0.09443674
000050 c0 7e 25 3f c4 51 33 3d a4 64 30 3f 98 6d 65 3f
       0.6464653 0.04377915 0.68903565 0.8962035
000060 78 23 55 be 16 51 2f 3f cf 4d d6 bf 97 71 5f be
       -0.20814312 0.684831 -1.6742495 -0.21820675
000070 95 da ec 3e e6 cc 46 bf 28 07 9c bf bf a5 c3 3f
       0.46260515 -0.776564 -1.2189684 1.5284957
000080 c4 be c8 bf 64 9b ea 3e 05 03 c4 3f 04 a8 6d bf
       -1.5683217 0.4582168 1.5313421 -0.92834496
000090 84 2b 6e be a2 fa 8e be e3 53 ef 3e d8 4b b8 bf
       -0.23258787 -0.27925593 0.46743688 -1.4398146
0000a0 19 88 01 bf 65 fc 27 3f 30 9e 25 3f 36 14 c3 bf
       -0.50598294 0.656195 0.646945 -1.5240543
0000b0 88 95 8c bf ee b3 83 bd 05 59 53 3f e5 d6 10 3f
       -1.0983133 -0.06430803 0.8255771 0.56577903
0000c0 f8 ad 7f be b6 c1 c1 bd c8 02 f7 bf a3 6c 53 bf
       -0.24968708 -0.094607756 -1.9297724 -0.8258764
0000d0 0c e3 e8 bf b4 d4 b3 3e 88 1f 8b 3f 80 79 1c c0
       -1.8194289 0.35123217 1.0868998 -2.4449158
0000e0 f9 c0 b5 3f 94 e7 f0 be 9a 12 21 c0 ac e6 96 be
       1.4199516 -0.4705168 -2.5167603 -0.29472864
0000f0 3a 89 5f bf 5c 4f 10 bf 3b ff 03 c0 8f 37 de 3f
       -0.87318766 -0.5637109 -2.062453 1.7360705
000100 ca 54 ff be 9d b4 d6 3f 4b be a5 3e 44 fe 69 bf
       -0.49869376 1.6773869 0.32371745 -0.91403604
000110 a9 fe a1 3f 31 b8 35 bf 4f 79 b5 be 26 9c e1 bf
       1.2655841 -0.7098418 -0.35444114 -1.7625778
000120 b9 d9 ce be 5c 30 98 3f 7e 7b 5a bf 32 bb 85 3f
       -0.40400484 1.1889758 -0.85344684 1.0447752
000130 c9 51 16 bf 50 9d ef bf 12 e7 2c c0 af 0b d7 3d
       -0.58718544 -1.8719883 -2.7016034 0.10500275
000140 3a 65 0c c0 eb cd cd bf 4f 86 97 3e 0f cf 26 3f
       -2.1936784 -1.6078466 0.29594657 0.65159696
000150 cd 3d 00 3e db 16 0f bf fa ea 7c 3f d7 02 90 be
       0.12523575 -0.5589425 0.98796046 -0.28127167
000160 a1 74 6d 3f 54 95 b5 bf 01 82 7b bd 6e 22 01 40
       0.92756087 -1.4186196 -0.06140328 2.0177264
000170 57 8d e1 be c6 1a 33 bf ae b3 98 bf a4 2b f1 3c
       -0.44053146 -0.6996273 -1.1929834 0.029439755
000180 07 4c e8 3e 8f 44 a7 bf eb 61 99 bf 8b f6 8a bd
       0.45370504 -1.3067797 -1.1983007 -0.067853056
000190 90 e6 de bf 26 f3 36 3f 67 aa 4f bf a2 b4 75 bf
       -1.7414112 0.71464765 -0.8111939 -0.9597875
0001a0 1f af ba bd 27 c0 a8 3f a2 45 06 bf 2e e5 ca 3f
       -0.09115433 1.318364 -0.5245 1.585119
0001b0 4e 0a 1b bf 68 d5 de 3e b2 70 e9 be 14 fb 83 bf
       -0.605626 0.4352219 -0.45593792 -1.0310998
0001c0 2c 9c c4 3e d7 6e 09 40 29 51 a5 3e 99 b4 0f c0
       0.384004 2.1473901 0.32288483 -2.2453978
0001d0 16 e5 22 3f 5a cd eb be 38 85 37 3f 1b e6 46 be
       0.6363081 -0.46055108 0.7168765 -0.19423716
0001e0 d2 bf d7 3f 19 8e 95 3f 21 7c df 3f e8 5b c1 3f
       1.6855414 1.168399 1.7459756 1.5106173
0001f0 32 29 3b 3e 7e 81 f0 bf 8b 48 b2 3e fe fd d9 bf
       0.18277434 -1.8789518 0.3482097 -1.7030637
000200 d1 15 b2 bf 8c 72 41 bf 3a fc 77 bf 98 19 0c 3f
       -1.3912908 -0.7556541 -0.9686924 0.5472655
000210 63 37 74 3f 1a a1 26 be 4b 4c 06 3f c7 51 83 be
       0.95397013 -0.16272393 0.52460164 -0.2564833
000220 99 a5 9e be 71 d3 b5 bf a8 8e ae bd a8 ac a5 3f
       -0.30985716 -1.4205152 -0.08523303 1.2943316
000230 f3 6b 34 bf 61 a0 98 bf 03 ab 60 bf 51 d7 73 3e
       -0.7047722 -1.1923944 -0.87760943 0.23812605
000240 79 3a 9a bf 37 89 82 3f 0e c1 1f bd c5 a4 a8 3f
       -1.2049094 1.0198125 -0.03900247 1.3175284
000250 fa 35 db bf 7b 74 a0 3d a1 f1 87 bf 78 82 ab 3f
       -1.7125847 0.07834717 -1.0620614 1.3399191
000260 a0 05 33 3f ed 37 02 bf 63 02 66 3f d1 cd 9a bf
       0.6993046 -0.50866586 0.8984739 -1.209406
000270 94 7e 3d bd c4 d4 29 3f bf a4 32 3e fa 4e 95 bf
       -0.046263292 0.6634028 0.17445658 -1.1664727
000280 5c c7 64 bf df 98 82 bf d1 dc 66 3f 28 ad f6 be
       -0.893667 -1.0202903 0.9018069 -0.48178983
000290 cc 5a ed be 29 60 24 3f 27 f4 15 3e b3 36 e1 bf
       -0.46358335 0.6420923 0.14643918 -1.7594818
0002a0 3e 4a 5d bf ef b7 bc be 10 c0 7a 3f 84 6b 30 40
       -0.8644141 -0.3685908 0.97949314 2.7565622
0002b0 1d 81 db bc bf d0 8c bf ff 9d 1c bf b5 65 5b bf
       -0.026794964 -1.1001204 -0.6117858 -0.8570207
0002c0 29 aa 8c 3f 1e 91 20 c0 e2 70 6d 3e c0 73 1d bf
       1.0989429 -2.5088573 0.23187593 -0.61504745
0002d0 82 22 c8 3d 0c 2d 2a 3f bb fe a6 bf d3 b1 81 bf
       0.09772207 0.66474986 -1.3046488 -1.0132393
0002e0 3b 6c 98 bf 50 12 02 3f 00 8d 8f bf ac 1c 19 40
       -1.1908029 0.5080919 -1.1214905 2.392375
0002f0 cc d4 12 bf 14 32 46 c0 81 3f ff bb 68 4a 1b bf
       -0.5735595 -3.0968065 -0.0077895527 -0.6066041
000300 39 0b c7 bf 36 0e 9e 3d c0 ee a4 3f 5f f2 2f 3f
       -1.55503 0.07717554 1.2885361 0.68729204
000310 7f 96 ae 3e 92 96 12 bf 5c 11 1b 3f 94 59 22 3e
       0.34099194 -0.57261 0.60573363 0.15854484
000320 ee 2d 01 40 de 5d 94 3f 4f 6b 2a bf 45 6e af 3f
       2.0184283 1.1591146 -0.6656999 1.3705527
000330 39 cd b3 3f 5b 7e 35 3f ec 94 07 3e 31 6f 0b be
       1.4047004 0.7089593 0.13240403 -0.13616635
000340 21 a2 a6 3f 78 47 a2 3e 02 89 59 bf c8 88 94 3f
       1.3018228 0.3169515 -0.8497468 1.1604242
000350 78 d6 c0 bf 53 ff d7 bf f7 97 32 bf ad ef 90 be
       -1.5065451 -1.6874794 -0.6976313 -0.28307858
000360 20 9d 0b c0 4c f4 e2 3e 86 95 0a 40 cd 70 4c 3f
       -2.1814651 0.4432701 2.1653762 0.7985962
000370 8b 8f c8 bf eb 30 eb be ef e2 24 3f cd dc 4e 3e
       -1.5668806 -0.4593576 0.64408773 0.20201416
000380 5d bf 60 bf 8f 77 55 bf 39 db 9e be dd 55 f6 3e
       -0.87792 -0.83385557 -0.3102663 0.48112383
000390 20 58 83 3f 40 0b 14 bf 8f 72 90 3f 35 80 02 c0
       1.0261269 -0.57829666 1.128496 -2.0390751
0003a0 d9 3f b6 bf ae fc 4d bf 2f af 26 3d 96 60 1b 3f
       -1.4238235 -0.80463684 0.04069441 0.60694253
0003b0 03 04 f6 be b9 46 a7 3f 6f c2 15 bd 10 3f a6 3e
       -0.48049936 1.3068458 -0.03656238 0.32469988
0003c0 66 1f 42 3f 27 e1 e4 bd b8 a9 79 bd ed d8 35 be
       0.7582916 -0.11175757 -0.060952872 -0.17758532
0003d0 32 14 30 3c c2 73 98 3f 2d 07 be bf a0 45 d1 bf
       0.010747002 1.1910326 -1.484594 -1.6349373
0003e0 98 b7 c7 3f 40 3a 89 bf 26 0d 85 3f 55 1f 5f be
       1.5602903 -1.0720901 1.0394638 -0.21789296
0003f0 06 04 2c bf da f3 b7 3f 1c de b8 bf b0 0c 0c 3f
       -0.6719364 1.4371293 -1.4442782 0.5470686

model.func.layer0_convnet.conv.linear_2.output_mask f4 [352]
000000 00 00 80 3f 00 00 80 3f 00 00 80 3f 00 00 80 3f
       1.0 1.0 1.0 1.0
000010 00 00 80 3f 00 00 80 3f 00 00 80 3f 00 00 80 3f
       1.0 1.0 1.0 1.0
000020 00 00 80 3f 00 00 80 3f 00 00 80 3f 00 00 80 3f
       1.0 1.0 1.0 1.0
000030 00 00 80 3f 00 00 80 3f 00 00 80 3f 00 00 80 3f
       1.0 1.0 1.0 1.0
000040 00 00 80 3f 00 00 80 3f 00 00 80 3f 00 00 80 3f
       1.0 1.0 1.0 1.0
000050 00 00 80 3f 00 00 80 3f 00 00 80 3f 00 00 80 3f
       1.0 1.0 1.0 1.0
000060 00 00 80 3f 00 00 80 3f 00 00 80 3f 00 00 80 3f
       1.0 1.0 1.0 1.0
000070 00 00 80 3f 00 00 80 3f 00 00 80 3f 00 00 80 3f
       1.0 1.0 1.0 1.0
000080 00 00 80 3f 00 00 80 3f 00 00 80 3f 00 00 80 3f
       1.0 1.0 1.0 1.0
000090 00 00 80 3f 00 00 80 3f 00 00 80 3f 00 00 80 3f
       1.0 1.0 1.0 1.0
0000a0 00 00 80 3f 00 00 80 3f 00 00 80 3f 00 00 80 3f
       1.0 1.0 1.0 1.0
0000b0 00 00 80 3f 00 00 80 3f 00 00 80 3f 00 00 80 3f
       1.0 1.0 1.0 1.0
0000c0 00 00 80 3f 00 00 80 3f 00 00 80 3f 00 00 80 3f
       1.0 1.0 1.0 1.0
0000d0 00 00 80 3f 00 00 80 3f 00 00 80 3f 00 00 80 3f
       1.0 1.0 1.0 1.0
0000e0 00 00 80 3f 00 00 80 3f 00 00 80 3f 00 00 80 3f
       1.0 1.0 1.0 1.0
0000f0 00 00 80 3f 00 00 80 3f 00 00 80 3f 00 00 80 3f
       1.0 1.0 1.0 1.0
000100 00 00 80 3f 00 00 80 3f 00 00 80 3f 00 00 80 3f
       1.0 1.0 1.0 1.0
000110 00 00 80 3f 00 00 80 3f 00 00 80 3f 00 00 80 3f
       1.0 1.0 1.0 1.0
000120 00 00 80 3f 00 00 80 3f 00 00 80 3f 00 00 80 3f
       1.0 1.0 1.0 1.0
000130 00 00 80 3f 00 00 80 3f 00 00 80 3f 00 00 80 3f
       1.0 1.0 1.0 1.0
000140 00 00 80 3f 00 00 80 3f 00 00 80 3f 00 00 80 3f
       1.0 1.0 1.0 1.0
000150 00 00 80 3f 00 00 80 3f 00 00 80 3f 00 00 80 3f
       1.0 1.0 1.0 1.0
000160 00 00 80 3f 00 00 80 3f 00 00 80 3f 00 00 80 3f
       1.0 1.0 1.0 1.0
000170 00 00 80 3f 00 00 80 3f 00 00 80 3f 00 00 80 3f
       1.0 1.0 1.0 1.0
000180 00 00 80 3f 00 00 80 3f 00 00 80 3f 00 00 80 3f
       1.0 1.0 1.0 1.0
000190 00 00 80 3f 00 00 80 3f 00 00 80 3f 00 00 80 3f
       1.0 1.0 1.0 1.0
0001a0 00 00 80 3f 00 00 80 3f 00 00 80 3f 00 00 80 3f
       1.0 1.0 1.0 1.0
0001b0 00 00 80 3f 00 00 80 3f 00 00 80 3f 00 00 80 3f
       1.0 1.0 1.0 1.0
0001c0 00 00 80 3f 00 00 80 3f 00 00 80 3f 00 00 80 3f
       1.0 1.0 1.0 1.0
0001d0 00 00 80 3f 00 00 80 3f 00 00 80 3f 00 00 80 3f
       1.0 1.0 1.0 1.0
0001e0 00 00 80 3f 00 00 80 3f 00 00 80 3f 00 00 80 3f
       1.0 1.0 1.0 1.0
0001f0 00 00 80 3f 00 00 80 3f 00 00 80 3f 00 00 80 3f
       1.0 1.0 1.0 1.0
000200 00 00 80 3f 00 00 80 3f 00 00 80 3f 00 00 80 3f
       1.0 1.0 1.0 1.0
000210 00 00 80 3f 00 00 80 3f 00 00 80 3f 00 00 80 3f
       1.0 1.0 1.0 1.0
000220 00 00 80 3f 00 00 80 3f 00 00 80 3f 00 00 80 3f
       1.0 1.0 1.0 1.0
000230 00 00 80 3f 00 00 80 3f 00 00 80 3f 00 00 80 3f
       1.0 1.0 1.0 1.0
000240 00 00 80 3f 00 00 80 3f 00 00 80 3f 00 00 80 3f
       1.0 1.0 1.0 1.0
000250 00 00 80 3f 00 00 80 3f 00 00 80 3f 00 00 80 3f
       1.0 1.0 1.0 1.0
000260 00 00 80 3f 00 00 80 3f 00 00 80 3f 00 00 80 3f
       1.0 1.0 1.0 1.0
000270 00 00 80 3f 00 00 80 3f 00 00 80 3f 00 00 80 3f
       1.0 1.0 1.0 1.0
000280 00 00 80 3f 00 00 80 3f 00 00 80 3f 00 00 80 3f
       1.0 1.0 1.0 1.0
000290 00 00 80 3f 00 00 80 3f 00 00 80 3f 00 00 80 3f
       1.0 1.0 1.0 1.0
0002a0 00 00 80 3f 00 00 80 3f 00 00 80 3f 00 00 80 3f
       1.0 1.0 1.0 1.0
0002b0 00 00 80 3f 00 00 80 3f 00 00 80 3f 00 00 80 3f
       1.0 1.0 1.0 1.0
0002c0 00 00 80 3f 00 00 80 3f 00 00 80 3f 00 00 80 3f
       1.0 1.0 1.0 1.0
0002d0 00 00 80 3f 00 00 80 3f 00 00 80 3f 00 00 80 3f
       1.0 1.0 1.0 1.0
0002e0 00 00 80 3f 00 00 80 3f 00 00 80 3f 00 00 80 3f
       1.0 1.0 1.0 1.0
0002f0 00 00 80 3f 00 00 80 3f 00 00 80 3f 00 00 80 3f
       1.0 1.0 1.0 1.0
000300 00 00 80 3f 00 00 80 3f 00 00 80 3f 00 00 80 3f
       1.0 1.0 1.0 1.0
000310 00 00 80 3f 00 00 80 3f 00 00 80 3f 00 00 80 3f
       1.0 1.0 1.0 1.0
000320 00 00 80 3f 00 00 80 3f 00 00 80 3f 00 00 80 3f
       1.0 1.0 1.0 1.0
000330 00 00 80 3f 00 00 80 3f 00 00 80 3f 00 00 80 3f
       1.0 1.0 1.0 1.0
000340 00 00 80 3f 00 00 80 3f 00 00 80 3f 00 00 80 3f
       1.0 1.0 1.0 1.0
000350 00 00 80 3f 00 00 80 3f 00 00 80 3f 00 00 80 3f
       1.0 1.0 1.0 1.0
000360 00 00 80 3f 00 00 80 3f 00 00 80 3f 00 00 80 3f
       1.0 1.0 1.0 1.0
000370 00 00 80 3f 00 00 80 3f 00 00 80 3f 00 00 80 3f
       1.0 1.0 1.0 1.0
000380 00 00 80 3f 00 00 80 3f 00 00 80 3f 00 00 80 3f
       1.0 1.0 1.0 1.0
000390 00 00 80 3f 00 00 80 3f 00 00 80 3f 00 00 80 3f
       1.0 1.0 1.0 1.0
0003a0 00 00 80 3f 00 00 80 3f 00 00 80 3f 00 00 80 3f
       1.0 1.0 1.0 1.0
0003b0 00 00 80 3f 00 00 80 3f 00 00 80 3f 00 00 80 3f
       1.0 1.0 1.0 1.0
0003c0 00 00 80 3f 00 00 80 3f 00 00 80 3f 00 00 80 3f
       1.0 1.0 1.0 1.0
0003d0 00 00 80 3f 00 00 80 3f 00 00 80 3f 00 00 80 3f
       1.0 1.0 1.0 1.0
0003e0 00 00 80 3f 00 00 80 3f 00 00 80 3f 00 00 80 3f
       1.0 1.0 1.0 1.0
0003f0 00 00 80 3f 00 00 80 3f 00 00 80 3f 00 00 80 3f
       1.0 1.0 1.0 1.0

model.func.layer0_convnet.conv.sc.weight f4 [9216]
000000 c3 0b 3a be c5 ca 76 bf c6 e1 ae 3e 3a 63 05 3e
       -0.18168549 -0.9640315 0.34156626 0.13026133
000010 2e 96 17 bf 06 03 c3 ba c6 03 5e 3f 04 16 b3 3f
       -0.5921353 -0.001487822 0.8672451 1.3991094
000020 dd 03 4e 3f b8 b9 0d bf d2 54 ba 3f c9 7a 3b 3f
       0.80474645 -0.5536151 1.4557135 0.7323423
000030 4e 97 1f 3f b2 45 0a 3f 28 b9 9a 3f 27 7a 16 3f
       0.6234025 0.54012597 1.2087755 0.5878014
000040 7b 2a 63 3e b4 c3 30 3e 1e 9d d1 bf 45 1b e4 be
       0.22184174 0.17262155 -1.6376073 -0.44552055
000050 40 a8 68 3f cd ee 09 3f 6d 6d fb bf de 81 e0 bf
       0.9088173 0.53880006 -1.9642769 -1.7539632
000060 28 d1 e7 be ca d7 7a be 0f 58 8b 3f 60 6e 88 3d
       -0.4527676 -0.2449638 1.0886248 0.06661677
000070 f1 e2 13 3f ff f2 af bf eb 78 1a 3f 0d 67 bb 3f
       0.5776816 -1.3746032 0.60340756 1.4640824
000080 74 75 65 3f 76 4f 09 c0 2b 03 2c bf 91 67 2a bf
       0.89632344 -2.145475 -0.67192334 -0.6656428
000090 66 35 76 bf 25 b9 19 40 25 ae ad 3e 0a 37 9c be
       -0.9617523 2.4019253 0.33921924 -0.3051074
0000a0 b4 ac d4 3c 6f 4a 83 3f 00 66 25 3f 7c 0c a8 3d
       0.025961258 1.025709 0.64608765 0.08205506
0000b0 b7 19 8d bf 9e aa 20 be 7d 15 16 3f 98 49 55 be
       -1.1023473 -0.15690085 0.5862654 -0.20828855
0000c0 2a b0 a8 3f 00 0b c4 3f 7f 86 ec be c2 f6 41 3d
       1.3178761 1.5315857 -0.46196362 0.047354467
0000d0 00 9a 52 bf ce ec 85 bb 50 96 d2 be db 7e 8b 3f
       -0.82266235 -0.004087067 -0.41130304 1.0898088
0000e0 a7 50 26 40 25 d8 51 be 58 78 19 3f 1b 45 7b bf
       2.5986726 -0.20492609 0.59949255 -0.9815232
0000f0 43 5d ea bc e5 ca 95 bf c0 83 bd be 28 40 93 be
       -0.028608924 -1.1702543 -0.3701458 -0.28759885
000100 74 da 13 c0 ce 91 50 3f f0 b9 00 bd 5a ee f6 3e
       -2.3102083 0.8147248 -0.031427324 0.48228723
000110 98 9e 67 be 8c 82 ca bd 5a ce 2c bf a4 09 0e bf
       -0.22619092 -0.09888181 -0.6750237 -0.5548346
000120 d0 38 43 be 99 4d 62 bf 0b 5b b1 3f 19 92 60 be
       -0.19064641 -0.88399655 1.3855909 -0.21930732
000130 de 79 b7 bd d5 2a a5 bf 77 c6 09 3f 4a 1c a0 3d
       -0.08958791 -1.2903696 0.5381846 0.07817896
000140 79 e4 29 bd ea e7 e5 bf 1f f7 26 3f c6 a7 08 bc
       -0.041477654 -1.79614 0.65220827 -0.008340782
000150 be dd c6 3f 0e 8a 4f c0 7d e3 8d be d9 b2 ed bf
       1.553642 -3.2428012 -0.27712622 -1.8570205
000160 58 d8 ac 3f bf 67 e7 bf 75 07 e6 be 53 c2 4d be
       1.3503523 -1.8078536 -0.44927564 -0.2009366
000170 45 f1 da bf 7c d5 85 bd 64 44 95 3f d4 fd 8e bf
       -1.710488 -0.065348595 1.1661496 -1.1171212
000180 31 2c 1b 3f 12 8d e9 be 6d 62 02 3f e8 7e 23 40
       0.60614306 -0.4561544 0.50931436 2.5546207
000190 84 c1 be 3f 22 8f 14 3f eb 73 02 bf 51 95 28 c0
       1.4902806 0.58030903 -0.50958127 -2.6341136
0001a0 29 d1 75 bd 7c 40 5c bf 88 87 28 3f 3c b9 8a 3f
       -0.060013924 -0.86035895 0.65831804 1.0837779
0001b0 ac 50 2a bf 8a 31 df 3f c6 f1 62 bf b1 a4 73 bf
       -0.66529346 1.7436993 -0.88650167 -0.95173174
0001c0 6d 94 aa bf 0a 35 e1 be 4c 6f 0a c0 45 ea c8 3f
       -1.3326546 -0.43985778 -2.163043 1.5696493
0001d0 b6 ee 9d bf 8f ce 44 be cd 63 62 be 70 18 bb 3e
       -1.2338474 -0.19219421 -0.22108383 0.36542082
0001e0 80 62 bc bd c7 59 ae 3f 81 a5 db bf a6 5c 4f be
       -0.09198475 1.3621148 -1.7159883 -0.20250186
0001f0 ef 5b ea 3f df 74 3a 3f 59 01 96 3e 2a 74 90 3e
       1.8309306 0.7283458 0.29297903 0.28213626
000200 72 17 f1 bf fb 81 31 3e 5f 56 ce 3e 61 d5 54 c0
       -1.883528 0.1733474 0.4030027 -3.3255236
000210 18 dd f6 3e a5 9f 57 3d 91 b1 6a 3e 85 06 59 3f
       0.48215556 0.052642483 0.22919299 0.84775573
000220 4b 1c d8 bf c9 8f dc bf 7e 90 0d be 57 4f 71 40
       -1.6883634 -1.723138 -0.1382465 3.7704675
000230 86 f8 b2 3f da 6c 7f 3c 2d 3b 4c 3f a9 04 09 bf
       1.3982093 0.015589917 0.79777795 -0.53522736
000240 6b 5a 85 3e ba 84 e0 3f 00 b1 b6 bf 07 6e 04 40
       0.26045546 1.7540505 -1.4272766 2.0692155
000250 7e bb ca be a6 0b 45 3e 80 62 fd 3d 59 d1 1f 40
       -0.3959617 0.19242725 0.12372303 2.4971526
000260 75 38 41 bf b8 41 e2 3f 46 6b 4a 3f 1b 45 ac bf
       -0.7547677 1.7676306 0.79069936 -1.3458589
000270 2f b0 cb 3f 29 f6 6c bf 7e 28 bd be 18 e4 00 40
       1.5913142 -0.9256311 -0.36944956 2.0139217
000280 4d f8 32 3f 24 51 b0 3f 1d 86 d5 3e c7 ca 0c 40
       0.69910127 1.3774762 0.41703883 2.1998765
000290 bb e6 16 3f eb 6f 5d bf 76 c0 2b 3f 56 32 9b bf
       0.58945817 -0.864989 0.6709055 -1.2124736
0002a0 65 2d 90 bf 70 41 de 3f 82 9b 21 bf 8c 06 e4 3e
       -1.1263853 1.736372 -0.6312791 0.44536245
0002b0 7d 68 f4 bf 2e a5 ad be 4e ed c1 3f c9 79 28 c0
       -1.9094387 -0.33915085 1.5150545 -2.6324332
0002c0 99 30 28 3f f2 fd 15 bf 59 58 18 bf 71 c9 52 bf
       0.65699154 -0.58590615 -0.5950981 -0.82338625
0002d0 55 8a a1 bf 04 67 dc 3e 8e 75 c8 c0 5b 5c 99 bf
       -1.262034 0.43047345 -6.26435 -1.198131
0002e0 4c 04 0b 40 41 a7 91 bf 82 ad c9 bf fc da 9c 3e
       2.1721373 -1.1379167 -1.5756075 0.30635822
0002f0 47 86 86 bf 46 9b 81 3f 36 12 99 bf 6f a2 97 bf
       -1.0509728 1.0125511 -1.1958683 -1.1846446
000300 79 2e 72 3f a6 a3 8c 3e 69 9c d6 3e b7 81 f3 be
       0.9460216 0.27468604 0.41916206 -0.47559902
000310 c3 5f 07 bf 49 6d 08 3e 19 35 2e be 77 f9 cc 3f
       -0.52880496 0.13322939 -0.17012443 1.6013631
000320 cf f3 08 c0 5f fe 3b 3f 5f c8 b3 bf 05 91 16 bf
       -2.139881 0.73435014 -1.4045523 -0.5881503
000330 cc 43 8e 3e 39 d6 62 bf 0e c5 2c 3d dd 64 76 bf
       0.277861 -0.8860813 0.042180113 -0.96247655
000340 e9 8f cb 3d e7 a6 36 3f f3 fd bc 3f c6 e5 04 bf
       0.09939558 0.7134842 1.4764999 -0.51913106
000350 e2 f1 80 bf b1 5a 6b 3e 30 c7 e3 be 61 72 df 3d
       -1.0073817 0.22983815 -0.44487906 0.10910488
000360 29 56 a9 be fd db 14 3f 35 b8 c1 3d fa 6d a6 be
       -0.33073547 0.58148175 0.09458963 -0.3250578
000370 7e 38 2f bf 00 f4 4b be c7 9c ab 3e 36 f2 53 bf
       -0.68445575 -0.19917297 0.3351805 -0.8279146
000380 76 a7 25 3f 4f ab 2e 3e b0 62 af 3e 66 e4 d0 bf
       0.6470865 0.17057537 0.3425498 -1.6319702
000390 7a 78 30 bf 5a 87 94 bf 7b bf ba 3f 53 b7 cd 3e
       -0.6893383 -1.1603806 1.4589685 0.40178928
0003a0 bb e0 fc 3e ec 42 54 3f 26 56 55 3e 1e ad 96 bf
       0.49390206 0.82914615 0.20833644 -1.1771581
0003b0 5f 99 21 3f f0 3d 56 bd 3e 9f ae 3e 3f 77 ea bf
       0.6312465 -0.052305162 0.34105867 -1.8317641
0003c0 ca d5 33 3f 28 71 a6 bd bd 31 c9 3e de 2d be 3f
       0.7024809 -0.081270516 0.3929576 1.4857748
0003d0 33 65 ad bf 87 19 00 3f 02 7f 1b bf 4b 91 de 3e
       -1.3546509 0.5003895 -0.60740674 0.43470225
0003e0 f2 0b 45 3e 04 fc 80 bf 6b 00 d4 bf 49 e1 12 3f
       0.19242838 -1.0076909 -1.6562628 0.5737501
0003f0 c6 98 9d 3f b5 39 a6 bf f6 52 a6 3f 3e 62 c7 bc
       1.2312248 -1.2986361 1.2994068 -0.024338838
